examples/ai/saved_models/PandaPickAndPlace-v0/e2e.pt (torch_old, 562115 bytes, 8 tensors)

fc1.weight f4 [256, 28]
-0.79852027 0.28980884 -0.71572125 1.0000117 -0.29512247 -0.06800007 2.8573003 -0.8764794
0.3982031 0.015484803 0.18194488 -0.0016544815 -0.04286773 0.03422169 0.20806654 -0.0097604
-0.07310439 -0.02101693 -0.010644857 -0.003139484 0.12617034 0.044042 -0.07849352 -0.09826996
-0.026576743 0.04920718 -0.019535638 -0.33137774 0.013483161 -0.124312416 0.29496396 0.3159723
0.098761976 0.37567607 0.28950047 -0.077139586 -0.12400642 0.0103767235 0.08438194 -0.019940224
-0.1595259 -0.047924686 0.97759235 0.545664 0.27224934 -0.017584702 0.001644289 0.019643316
0.96881247 0.3667011 0.28035894 0.21874733 -0.27764285 -0.15883648 -0.018027533 -1.0790006
0.8902858 -0.03279515 -0.5724019 -0.96843183 0.06745371 1.302621 -4.0949683 0.15224093
0.71870744 -0.1268351 0.04346388 0.007458212 -0.0026953248 -0.038550403 0.01877721 0.04668027
-0.08438991 0.030986054 -0.03298042 0.008908937 0.14104868 0.013095032 -0.13387044 -0.04061924
0.017315496 0.0009072752 -0.041274995 -0.16197348 -0.22252008 -0.3316232 0.22198299 0.12505004
0.08899714 -0.5987113 0.048198674 0.4558929 -0.22518834 -0.23358023 -0.06545775 -0.024728542
0.024909034 0.07501474 0.3100518 0.20018342 0.3435093 -0.0489875 0.08578012 0.24728906
0.5447938 0.4342215 0.08723371 0.14142627 0.1799137 -0.3575659 0.15068726 0.958307
-0.22157617 0.41455775 0.45743537 0.47833622 -0.5683087 -2.1280048 0.86795026 -0.6933248
-1.0252339 -0.19927444 -0.0137239825 0.005723832 0.03591111 -0.054870907 0.58772814 -0.538644
-0.20922418 0.049100753 -0.1076519 0.015901811 0.635612 -0.4669258 -0.12232345 -0.18835026
0.065902494 -0.48962438 -0.3306921 -0.86938286 0.09152784 -0.041197266 -0.101896964 0.17418803
0.029626401 -1.9632299 0.032717645 0.14117213 -0.5186485 -0.10861495 0.15069318 0.3983484
0.20486034 -0.09653792 0.34057125 0.47790605 -0.407655 -0.14868525 0.08265686 -0.19275828
-0.20841768 0.3080826 0.20531896 0.34947214 -0.017881319 0.1755444 -0.23773944 -0.31223342
0.3543546 0.725911 0.5148767 -0.6935983 -0.11032846 -2.1008782 -1.2859368 -0.5634202
-1.2311946 0.15507947 -0.059189327 -0.04335468 0.00031059445 0.03141626 -0.100797 -0.3909602
-0.5452841 0.06623775 -0.22381486 0.08189243 -0.15109082 -0.23283973 -0.2050149 0.00078556954
-0.14771736 0.17497495 -0.72338927 -1.8343369 -0.16141511 0.43256924 0.23635072 -0.013643568
-0.024226872 0.19807123 0.1807677 -0.5510469 -0.044768695 0.22465181 -0.22357732 -0.024576297
-0.15275405 0.054399133 0.37181592 -0.40839767 0.2058136 -0.08580203 0.17416738 0.1448261
0.19283374 -0.1671794 0.360084 -0.047093816 0.12501578 -0.29067627 -0.09972386 -2.9594264
0.30643952 -0.6858665 0.14714827 -0.6649925 0.07851447 0.23883796 -1.0558231 0.651449
-0.26415956 -0.0996363 0.051741626 -0.010778001 0.036559828 -0.0170306 -0.21341914 0.1121045
0.18964857 0.0017069131 -0.03555953 -0.0026663085 -0.19313544 0.019247571 0.14941591 0.1036753
-0.061154515 0.42109093 0.6132043 -4.9232545 0.22665635 -0.018714566 -0.12084351 0.11243283
00000000: d36b 4cbf d361 943e 8239 37bf 6200 803f
00000010: 4b1a 97be 9f43 8bbd 02de 3640 f460 60bf
00000020: 47e1 cb3e f9b3 7d3c c24f 3a3e 30db d8ba
00000030: 1396 2fbd 0b2c 0c3d 650f 553e 16ea 1fbc
00000040: c1b7 95bd b22b acbc c467 2ebc cdbf 4dbb
00000050: cc32 013e 6265 343d 36c1 a0bd c341 c9bd
00000060: 78b7 d9bc 788d 493d 3409 a0bc 58aa a9be
00000070: 7ae8 5c3c 8297 febd 8405 973e 1fc7 a13e
00000080: b843 ca3d 9d58 c03e 6839 943e 5cfb 9dbd
00000090: 14f7 fdbd 2203 2a3c 70d0 ac3d ae59 a3bc
000000a0: c25a 23be ad4c 44bd 7e43 7a3f a3b0 0b3f
000000b0: 4464 8b3e cb0d 90bc 2f85 d73a 05eb a03c
000000c0: 1804 783f 3fc0 bb3e 358b 8f3e 4dff 5f3e
000000d0: 3427 8ebe 08a6 22be 7aae 93bc b11c 8abf
000000e0: c5e9 633f 3554 06bd ee88 12bf 26eb 77bf
000000f0: 2c25 8a3d 49bc a63f fb09 83c0 0ce5 1b3e
00000100: 36fd 373f 0fe1 01be 2e07 323d 0464 f43b
00000110: 0ca4 30bb 07e7 1dbd aad2 993c d033 3f3d
00000120: 9ed4 acbd 77d6 fd3c 7a16 07bd caf6 113c
00000130: 116f 103e 8c8c 563c 5515 09be 5c60 26bd
00000140: 3ad9 8d3c 35d6 6d3a f80f 29bd 60dc 25be
00000150: 4edc 63be 84ca a9be 824f 633e 1e0d 003e
00000160: 2244 b63d 2545 19bf f96b 453d cb6a e93e
00000170: c697 66be a82f 6fbe b60e 86bd 8393 cabc
00000180: 080e cc3c 54a1 993d 1cbf 9e3e e2fc 4c3e
00000190: 73e0 af3e 1ea7 48bd 7dad af3d 5839 7d3e
000001a0: 9b77 0b3f 4852 de3e 96a7 b23d 0cd2 103e
000001b0: 4c3b 383e e112 b7be c34d 1a3e 9c53 753f
000001c0: dde4 62be ea40 d43e f834 ea3e 7ce8 f43e
000001d0: ae7c 11bf 3b31 08c0 fd31 5e3f bc7d 31bf
000001e0: dd3a 83bf 990e 4cbe 8eda 60bc fc8e bb3b
000001f0: 8717 133d 51c0 60bd 5a75 163f 93e4 09bf
00000200: dd3e 56be df1d 493d 9978 dcbd 8444 823c
00000210: 78b7 223f e610 efbe b884 fabd e4de 40be
00000220: e3f7 863d 0cb0 fabe 7a50 a9be e08f 5ebf
00000230: f372 bb3d 77be 28bd 5baf d0bd 595e 323e
00000240: 11b3 f23c 1e4b fbbf f002 063d 6d8f 103e
00000250: 26c6 04bf 8471 debd 504f 1a3e 52f4 cb3e
00000260: e9c6 513e acb5 c5bd 5b5f ae3e 1ab0 f43e
00000270: 28b8 d0be f240 18be 0048 a93d 6d62 45be
00000280: 726b 55be 01bd 9d3e 223f 523e 03ee b23e
00000290: d87b 92bc e9c1 333e f871 73be 0fdd 9fbe
000002a0: f76d b53e 4ed5 393f f6ce 033f a88f 31bf
000002b0: e3f3 e1bd ca74 06c0 9499 a4bf 4e3c 10bf
000002c0: c997 9dbf 27cd 1e3e 8270 72bd ad94 31bd
000002d0: 48d7 a239 56ae 003d a86e cebd ef2b c8be
000002e0: bd97 0bbf a8a7 873d b92f 65be 38b7 a73d
000002f0: 8db7 1abe 8a6d 6ebe 6def 51be aeee 4d3a
00000300: 3843 17be a22c 333e 0a30 39bf 8dcb eabf
00000310: 014a 25be b779 dd3e ec05 723e 4689 5fbc
00000320: 6f77 c6bc 2fd3 4a3e 2b1b 393e 6911 0dbf
00000330: 615f 37bd 200b 663e 74f1 64be 3b54 c9bc
00000340: 8f6b 1cbe a0d1 5e3d a85e be3e 8019 d1be
00000350: cdc0 523e fab8 afbd ef58 323e 4b4d 143e
00000360: 3576 453e 1431 2bbe ee5c b83e 72e5 40bd
00000370: 2304 003e 85d3 94be 063c ccbd 3e67 3dc0
00000380: a4e5 9c3e f294 2fbf 09ae 163e f33c 2abf
00000390: 32cc a03d f091 743e 3625 87bf 5dc5 263f
000003a0: ec3f 87be 1e0e ccbd 07ef 533d 3696 30bc
000003b0: c2bf 153d c283 8bbc 8c8a 5abe 0b97 e53d
000003c0: 3c33 423e 80ba df3a dfa6 11bd 3cbd 2ebb
000003d0: 4cc5 45be 15ad 9d3c 7c00 193e b753 d43d
000003e0: 287d 7abd 3b99 d73e f5fa 1c3f 4d8b 9dc0
000003f0: 9a18 683e 4a4f 99bc cd7c f7bd 2f43 e63d

fc1.bias f4 [256]
-0.9559969 -1.8571177 1.1325843 -1.7604727 -1.8997533 -2.7846136 -1.7297397 -1.5338981
-0.5257064 1.51851 1.7705904 -1.6596593 -1.0243264 -1.2252619 -1.317665 -2.0578938
-0.7961091 -1.1425732 -1.1560062 -0.5377953 -0.32304794 0.80958366 -0.42019203 -0.9875366
-1.2642522 -0.746838 -0.93806535 -1.6760241 -1.075419 -1.48528 0.5798821 -1.7114704
-1.474199 -0.5090424 -1.177455 -1.050606 -0.6765289 -0.98521954 -0.72764504 -0.9223744
-0.21199697 -1.5717163 -1.541061 -0.4233365 -1.9286127 0.9894067 -0.4986128 -1.8264196
-0.8547587 -1.0516316 -1.2131422 -1.4765813 -2.867246 -0.08378423 -0.19669265 -1.8108828
-1.8828359 -2.1044161 -2.1341074 -1.145677 -1.5482736 -0.48244503 -0.4565236 -2.7043715
-0.93035674 -1.7470306 0.15714216 -0.45487058 -0.295329 -2.0612595 -0.42606726 -0.55488724
-0.31415132 1.0391766 -0.7764457 -1.3738635 -2.0437307 -2.040405 -1.8535144 -1.0697678
-0.5130964 -1.0555918 -2.0769858 0.3204541 -1.8568503 -1.6021911 -1.718146 -3.3755703
-2.5744498 -1.9992121 -1.055279 -1.349946 -1.6983136 -1.8983048 -2.4580765 -0.5667499
-0.4520691 -2.0563402 -1.0446203 -0.49060887 -0.15061338 -0.008969017 -2.8353307 -0.57283396
0.20728847 -3.4804142 -0.6397758 0.051252916 -1.816903 -1.089505 0.21887222 -1.4207035
0.12676953 -1.8897667 -2.3150384 -2.029208 -1.2304611 0.018085137 -0.9685655 -0.94241536
-1.7210759 -1.6535506 -1.073745 -1.6392791 -2.3788204 -1.5614144 -0.98454195 -1.2757841
-1.5021939 -1.0178068 -0.30668697 -0.8924443 -0.3208586 1.0702393 -0.31633148 -0.70517206
-0.12263137 -0.73634934 -0.78401524 0.64312375 -0.6293689 -1.3063111 -0.7824646 -1.0615014
-0.0793797 -0.048620313 0.27832967 -0.14874472 0.45499873 0.9406837 -1.200654 -1.7457603
-2.1638987 -1.1545241 -0.06368152 -3.364967 -1.4335595 -1.2641331 -1.5028164 -0.41657013
-0.18433963 -1.5420238 0.18040918 -0.48005763 -1.4354476 -0.04965046 1.4722297 1.1363217
-1.3145769 -2.0761824 -0.6617301 -2.090216 -0.75675225 -0.5954685 -2.1364338 -2.405669
1.3048588 -1.9590089 -2.0736163 -0.6071981 -1.3635277 -0.35476878 -1.2628622 -1.3009849
-1.9838027 0.09406476 -1.8452681 -0.89688474 -0.4851155 -1.3907244 -0.98174316 -0.69658494
-2.1899571 -0.30452552 -0.9412164 -2.1768653 -0.54325414 -2.2946725 -2.1530564 -1.5293466
-0.9186319 -2.2927318 -1.9940873 1.2758034 0.39307302 -0.5179659 -0.15158366 -1.49021
-0.88324255 -1.7722219 -1.3283575 1.0437597 -1.6192445 -2.1944027 -1.813539 -2.9095569
-0.514882 -1.40938 -0.57906616 -0.8286017 -1.5787083 -1.5933565 -0.83985585 -0.1263505
0.04192313 -0.7753518 -0.5040614 -0.5693684 0.47686118 -0.5548849 -1.1033522 -1.0790914
-0.5687032 -0.52911603 -1.2105473 -1.346536 -1.184845 -3.7551022 -1.8712468 -1.7734675
-1.3811309 -0.9197479 -2.8550937 -0.33165014 -1.9390594 -0.4523929 -0.29898944 -2.7535717
-0.31096664 -2.454719 -2.696692 -0.65693635 0.008802074 -2.3323843 -2.4225426 -0.40305874
00000000: 36bc 74bf 08b6 edbf 86f8 903f 2b57 e1bf
00000010: 1e2b f3bf 1c37 32c0 1c68 ddbf c656 c4bf
00000020: b294 06bf 895e c23f b5a2 e23f b76f d4bf
00000030: 211d 83bf 62d5 9cbf 3fa9 a8bf 88b4 03c0
00000040: cecd 4bbf d73f 92bf 03f8 93bf f4ac 09bf
00000050: 8a66 a5be e040 4f3f 6923 d7be 33cf 7cbf
00000060: 04d3 a1bf c630 3fbf 0d25 70bf f587 d6bf
00000070: 54a7 89bf a81d bebf 2773 143f 7611 dbbf
00000080: 8eb2 bcbf 9a50 02bf d8b6 96bf 427a 86bf
00000090: ff30 2dbf 5937 7cbf f246 3abf bb20 6cbf
000000a0: bc15 59be 002e c9bf 7d41 c5bf 90bf d8be
000000b0: c8dc f6bf c249 7d3f 2d4a ffbe 1ec8 e9bf
000000c0: 77d1 5abf dd9b 86bf 3e48 9bbf 9e00 bdbf
000000d0: f580 37c0 1197 abbd cc69 49be 02cb e7bf
000000e0: c400 f1bf c1ae 06c0 3795 08c0 8ba5 92bf
000000f0: d42d c6bf 0903 f7be 76bd e9be 6c14 2dc0
00000100: dc2b 6ebf b39e dfbf e0e9 203e cce4 e8be
00000110: 5d35 97be adeb 03c0 7d25 dabe 170d 0ebf
00000120: 71d8 a0be bd03 853f 25c5 46bf c2da afbf
00000130: 7ccc 02c0 ff95 02c0 f63f edbf 27ee 88bf
00000140: 495a 03bf a21d 87bf 56ed 04c0 8f12 a43e
00000150: 45ad edbf 9914 cdbf 35ec dbbf 5809 58c0
00000160: c9c3 24c0 2fe6 ffbf 6213 87bf 08cb acbf
00000170: 5762 d9bf a7fb f2bf 2051 1dc0 8516 11bf
00000180: 9a75 e7be 149b 03c0 1eb6 85bf 1631 fbbe
00000190: 653a 1abe c9f2 12bc 0f76 35c0 3fa5 12bf
000001a0: 6e43 543e 1bbf 5ec0 59c8 23bf 94ee 513d
000001b0: 4790 e8bf e674 8bbf 0a20 603e 9dd9 b5bf
000001c0: dfcf 013e e0e3 f1bf 9729 14c0 8bde 01c0
000001d0: c07f 9dbf 4827 943c e9f3 77bf 2242 71bf
000001e0: 374c dcbf 8ca7 d3bf 7a70 89bf e6d3 d1bf
000001f0: 983e 18c0 6ddc c7bf f10a 7cbf e54c a3bf
00000200: e447 c0bf 7e47 82bf 1306 9dbe 3b77 64bf
00000210: 9447 a4be 9afd 883f 33f6 a1be 2886 34bf
00000220: 2826 fbbd 6481 3cbf 39b5 48bf c2a3 243f
00000230: 521e 21bf 3435 a7bf 9a4f 48bf 47df 87bf
00000240: d391 a2bd 1826 47bd 3a81 8e3e 8950 18be
00000250: 98f5 e83e a6d0 703f 08af 99bf 1375 dfbf
00000260: 517d 0ac0 72c7 93bf 756b 82bd 9f5b 57c0
00000270: e17e b7bf 1dcf a1bf 4a5c c0bf ae48 d5be
00000280: 87c3 3cbe 0961 c5bf 2fbd 383e 1dca f5be
00000290: bfbc b7bf 485e 4bbd 0672 bc3f fd72 913f
000002a0: 0e44 a8bf 2ce0 04c0 2567 29bf 19c6 05c0
000002b0: 84ba 41bf a070 18bf 55bb 08c0 7bf6 19c0
000002c0: 9d05 a73f cec0 fabf 21b6 04c0 5671 1bbf
000002d0: 1388 aebf 41a4 b5be 78a5 a1bf ac86 a6bf
000002e0: 3fed fdbf 06a5 c03d bf31 ecbf 3d9a 65bf
000002f0: 0f61 f8be 4203 b2bf 8553 7bbf 6453 32bf
00000300: 4228 0cc0 c5ea 9bbe 8ff3 70bf c351 0bc0
00000310: b412 0bbf eadb 12c0 adcb 09c0 a1c1 c3bf
00000320: 762b 6bbf 1ebc 12c0 413e ffbf 874d a33f
00000330: de40 c93e 6a99 04bf bf38 1bbe 34bf bebf
00000340: 2f1c 62bf 2bd8 e2bf 9e07 aabf eb99 853f
00000350: 6743 cfbf 1871 0cc0 0c22 e8bf 2e36 3ac0
00000360: 4fcf 03bf 9066 b4bf ae3d 14bf 3e1f 54bf
00000370: 1d13 cabf 1bf3 cbbf cb00 57bf 0762 01be
00000380: 97b7 2b3d 757d 46bf 2b0a 01bf 21c2 11bf
00000390: 2627 f43e f00c 0ebf a53a 8dbf ab1f 8abf
000003a0: 8896 11bf 2674 07bf 37f3 9abf 4b5b acbf
000003b0: 00a9 97bf 9853 70c0 0485 efbf fc00 e3bf
000003c0: e6c8 b0bf 9974 6bbf dbb9 36c0 0cce a9be
000003d0: 1933 f8bf 0ba0 e7be 2515 99be 853a 30c0
000003e0: 0537 9fbe 1e1a 1dc0 9a96 2cc0 fb2c 28bf
000003f0: 9336 103c c945 15c0 f00a 1bc0 b75d cebe

fc2.weight f4 [256, 256]
-0.5168229 -0.3577449 0.7709724 -0.32425207 -0.3481228 -0.8633903 -0.26592746 -1.1025021
-0.8837018 -0.31717643 -1.0797826 -0.8475543 -0.29252905 -0.51226526 0.09672752 0.47308055
-0.27376267 -0.34278792 -0.26203775 -0.24332625 0.571334 0.13988219 0.8322769 0.152804
0.2950843 -0.113211304 -0.18370348 -0.40679187 0.24838924 0.1624765 0.24756157 0.23043688
0.18672746 -0.5500256 -1.0017352 -0.3035521 -0.061504982 0.5826192 -0.22461939 0.22631815
-0.05261795 0.4494399 -0.28132612 -0.52080303 -0.22299789 -0.3089642 -0.30518165 0.03311879
-0.18151878 -0.28505322 0.29456055 -1.5572586 -1.0502396 -0.34456375 0.3439632 0.45088914
1.0027143 0.12331557 0.76282984 -0.22815682 0.16975781 0.50497365 -0.53702444 -1.3506798
-0.2871489 0.1916593 0.035666496 -0.3139702 -0.045727335 -0.02801771 -0.1489319 -0.24915066
-0.24942207 0.2249704 -0.15506539 0.14514588 -0.22353795 -0.029149493 -0.7332584 0.47987893
-0.40769616 -0.5032487 0.08451398 -0.65079373 0.659399 0.39576298 0.5509087 0.48691323
0.26982892 -0.16882804 -0.32228738 0.39176062 0.5207522 -0.33171654 0.756314 -0.47204185
-0.186533 0.405015 0.35737044 -0.019266717 -0.7904776 -0.03481342 -1.4957896 -0.15132244
0.002530411 0.5242613 0.19386835 0.06318049 0.23613547 -0.24698536 -0.17310497 -0.68043023
-0.84391946 0.75088537 0.6200156 0.1564514 -1.5242965 0.021507217 -0.39670655 0.27797207
0.48010924 0.83158004 0.34738135 0.20921525 -0.5984438 0.008005967 0.5847801 0.22032414
-0.29609266 0.55862004 -0.24483262 -1.9319825 0.27450094 0.21200594 -1.537552 0.17151178
0.09499852 -0.6378609 0.04391906 -0.12982139 -0.5146783 0.5289839 0.19588353 -0.5244599
0.07226096 0.06355992 -0.26018322 0.09392511 0.23249745 -1.3556695 -0.23872735 -0.12215392
-0.09947042 -0.22274773 -0.020120012 0.19162299 0.3931345 0.027898151 -0.23766117 -0.309099
-0.53081053 0.6088641 -1.2232312 -0.21248896 -0.30670372 0.22592501 -0.046364997 -1.3003075
0.459912 0.12243123 0.36358806 -0.13510367 0.24954793 -0.6984038 0.4041003 0.46322268
0.2959667 -0.44326043 -0.01915942 0.50141776 0.044855714 0.07280812 -0.15683748 -1.2661399
-0.47699097 0.028497228 -0.009762494 0.4696321 -0.94136286 0.19419506 -0.17257488 -1.0955552
0.19606653 0.06893527 0.41044053 0.40285367 0.070392266 0.8913254 -0.12866111 -0.1486467
0.22993718 -0.66286093 0.13746238 0.7395074 -0.09113328 -1.1083437 0.18623824 -1.4585837
0.3982797 -0.7882144 0.108638115 -0.7340221 0.061188646 -0.54620767 -0.70016277 0.5528116
-1.1558079 -0.4207409 -0.055628963 -0.06977039 0.59143287 -0.06974248 0.055603042 0.057938214
-0.16704382 0.25455022 0.06603085 -0.36356616 0.78988993 -0.04346338 -0.13088425 -0.3788305
-0.382198 -0.15946183 -1.1155279 -1.4005139 -0.17630608 0.2984775 -0.55796814 -0.53418225
0.026375437 -0.55991066 -0.22203276 -0.13476244 -0.9891211 -0.18953042 -0.41151246 -0.18396968
-0.64485997 -0.32640344 0.24893707 -0.59058666 0.049901675 -0.38892636 0.70683426 -0.21501024
00000000: 814e 04bf 572a b7be 725e 453f 5e04 a6be
00000010: 273d b2be 2607 5dbf a527 88be ca1e 8dbf
00000020: 483a 62bf f364 a2be 5136 8abf 52f9 58bf
00000030: 5ec6 95be d123 03bf 1419 c63d 9d37 f23e
00000040: 9f2a 8cbe e681 afbe d029 86be 842a 79be
00000050: f242 123f 473d 0f3e 1910 553f a778 1c3e
00000060: 4a15 973e 54db e7bd c41c 3cbe 0647 d0be
00000070: c059 7e3e 3d60 263e c880 7d3e a5f7 6b3e
00000080: 7c35 3f3e 7ace 0cbf dc38 80bf 2e6b 9bbe
00000090: a6ec 7bbd 8826 153f a002 66be f2bf 673e
000000a0: eb85 57bd fd1c e63e fa09 90be 5953 05bf
000000b0: 8f59 64be 8e30 9ebe c540 9cbe 91a7 073d
000000c0: 0fe0 39be 7ff2 91be a4d0 963e 4054 c7bf
000000d0: 406e 86bf a96a b0be f21b b03e f1da e63e
000000e0: f158 803f e08c fc3d d148 433f f1a1 69be
000000f0: fed4 2d3e f445 013f 6f7a 09bf 13e3 acbf
00000100: 2e05 93be 5642 443e 0817 123d b4c0 a0be
00000110: 964c 3bbd 6685 e5bc 9b81 18be 5a21 7fbe
00000120: 8068 7fbe a45e 663e 76c9 1ebe 1fa1 143e
00000130: 22e7 64be ebca eebc d3b6 3bbf b1b2 f53e
00000140: 8dbd d0be e8d4 00bf aa15 ad3d 6b9a 26bf
00000150: 5fce 283f 72a1 ca3e 5a08 0d3f b14c f93e
00000160: 0427 8a3e 42e1 2cbe da02 a5be d994 c83e
00000170: 0450 053f c0d6 a9be cb9d 413f 78af f1be
00000180: 8202 3fbe 205e cf3e 42f9 b63e 3cd5 9dbc
00000190: bd5c 4abf 8498 0ebd 0976 bfbf 45f4 1abe
000001a0: 40d5 253b fd35 063f 6d85 463e c664 813d
000001b0: 7fcd 713e bbe9 7cbe 6e42 31be ad30 2ebf
000001c0: 1b0b 58bf 063a 403f 58b9 1e3f cc34 203e
000001d0: 261c c3bf e72f b03c 1f1d cbbe 5b52 8e3e
000001e0: e1d0 f53e 6ee2 543f f8db b13e 863c 563e
000001f0: 9d33 19bf 762b 033c 26b4 153f a79c 613e
00000200: 7599 97be b901 0f3f 67b5 7abe 344b f7bf
00000210: 638b 8c3e 1618 593e 81ce c4bf c9a0 2f3e
00000220: 968e c23d da4a 23bf 79e4 333d e6ef 04be
00000230: f5c1 03bf 7d6b 073f b195 483e 0143 06bf
00000240: 8efd 933d b42b 823d bc36 85be cf5b c03d
00000250: d013 6e3e 9486 adbf f174 74be d62b fabd
00000260: 26b7 cbbd fb17 64be b9d2 a4bc d138 443e
00000270: ed48 c93e aa8a e43c 735d 73be 3942 9ebe
00000280: 33e3 07bf 85de 1b3f d792 9cbf b596 59be
00000290: 4508 9dbe e358 673e 39e9 3dbd 7a70 a6bf
000002a0: 9679 eb3e 3abd fa3d 3728 ba3e 9e58 0abe
000002b0: 7e89 7f3e 97ca 32bf 3ce6 ce3e 862b ed3e
000002c0: f388 973e 08f3 e2be 37f4 9cbc ea5c 003f
000002d0: a0ba 373d 6c1c 953d 019a 20be df10 a2bf
000002e0: 2938 f4be 0573 e93c def2 1fbc 9e73 f03e
000002f0: 28fd 70bf 12db 463e 78b7 30be 273b 8cbf
00000300: aac5 483e ef2d 8d3d 4325 d23e d642 ce3e
00000310: d229 903d e72d 643f bdbf 03be d736 18be
00000320: a774 6b3e 41b1 29bf f0c2 0c3e 5b50 3d3f
00000330: 16a4 babd 35de 8dbf 3db5 3e3e dfb2 babf
00000340: 51eb cb3e 6bc8 49bf a97d de3d dfe8 3bbf
00000350: f2a0 7a3d 44d4 0bbf de3d 33bf 1085 0d3f
00000360: 83f1 93bf 5a6b d7be 32db 63bd c7e3 8ebd
00000370: 2568 173f 25d5 8ebd 04c0 633d 9f50 6d3d
00000380: 890d 2bbe 6854 823e 2f3b 873d 5825 babe
00000390: 3a36 4a3f a806 32bd 8506 06be 12f6 c1be
000003a0: 75af c3be f649 23be 9ec9 8ebf 0a44 b3bf
000003b0: 9589 34be 0bd2 983e 00d7 0ebf 2bc0 08bf
000003c0: 4d11 d83c 4e56 0fbf 8e5c 63be 2aff 09be
000003d0: 0a37 7dbf 4314 42be c3b1 d2be 8c62 3cbe
000003e0: 8b15 25bf 5a1e a7be 5ce9 7e3e b030 17bf
000003f0: b365 4c3d 5b21 c7be 17f3 343f a52b 5cbe

fc2.bias f4 [256]
1.1004071 0.5393461 0.6760516 -0.037755232 -0.044658683 0.13701619 1.4532546 -0.73941916
-1.0007011 0.9089531 0.81335986 0.770115 -0.4983943 -0.60669833 -0.18434644 -3.3567052
-3.0707564 0.52632743 -0.45024216 -0.073632315 -0.34309593 0.97063756 -0.98583335 0.083670385
0.20661518 0.5927417 -2.4365926 -0.26639554 -0.81285995 -0.41768077 1.4301103 0.37958634
-0.013171563 -0.016005253 -0.0033644093 -0.07470211 -1.478801 0.17701031 -1.2564156 0.68176466
0.9255166 0.02164276 -1.1484681 -0.005921197 -0.53524894 0.42260793 -0.88736695 0.8097954
-2.127355 -0.22681841 0.2009257 0.47141185 0.8657209 0.3880436 0.52189034 -0.7593248
0.6198415 -0.0075951144 2.1148221 -0.47459546 -0.05698262 -1.7072761 -0.618855 0.8724416
-0.3265388 1.0659455 0.61716044 -0.546569 0.87948936 -0.18327875 1.6349453 -1.5524702
-0.42616254 -3.0609453 -1.1939161 -1.4793515 -0.30969232 -0.00073674123 -0.81963176 -0.041709177
0.59779227 1.4603792 1.0347162 -0.6806444 0.06842402 -0.08023879 0.34256807 0.044432603
0.25507376 1.2051919 0.33204418 -0.050407626 0.6776611 0.1921284 -1.7435222 0.50858206
-0.10358909 -0.41236898 -0.04077025 0.66735905 0.74396205 0.9236905 0.9645863 -0.10872109
0.49447066 -0.0911802 0.717022 1.5177566 -0.19664341 0.6407328 0.10928095 0.51057065
-0.019597856 -1.9467622 -0.20182684 0.47336188 -0.04206396 0.012174004 1.2876244 0.42343077
0.35457635 -1.1813729 -0.67942494 0.28756076 -0.06340551 0.73112065 1.8904425 -0.37591138
0.48245823 -0.3677236 -0.070693195 -0.40819263 0.85030466 -0.09443167 -0.49263713 0.49323082
-2.1369436 0.96833074 0.10492513 -0.019994425 0.46519873 -0.0304346 0.90754575 -0.043026846
1.431305 0.972224 -0.9210671 -0.35046768 -0.7511428 -1.1250948 0.23254447 1.1771405
-1.5251671 -0.35310158 -1.2689521 -1.5067618 0.6160372 -0.9884697 0.34460524 -0.59938
-0.13073356 -1.641552 -0.032449808 0.015270401 0.4803472 0.041426383 0.7649587 -0.034658212
2.3960848 1.1202611 -2.5675898 0.2939562 -0.031193178 0.95655906 0.88078946 0.046958815
1.1337478 -1.2244128 -0.208941 -0.969571 0.2617869 0.6458081 0.93741435 0.914374
-0.7034249 0.29530105 -0.22194792 0.67622346 -0.060985427 -0.39882573 -0.38379636 0.6778197
0.59842294 1.0217745 -0.46571234 0.37035128 0.67533493 -0.99432236 -0.24049398 0.51853585
-1.2831432 0.7348698 1.0492946 0.60632205 -0.33058587 0.444967 -0.09296937 1.8889847
0.005181627 -1.0751055 -0.010147526 -0.7667118 -0.040920302 0.010844952 -1.7338277 0.4532621
-0.4975536 -1.0331917 1.5912955 -0.3070658 1.5296487 -0.05667699 -0.21752292 0.83740807
-3.255922 -0.6498253 0.19358726 -0.24931368 0.012118186 0.005799512 0.79190034 1.1487939
-0.112851456 0.37306473 -1.6059448 -0.6495763 0.5426073 -1.1654232 -0.86354905 0.08555589
-0.5415348 0.33472002 -1.0432427 -0.062332045 -0.73517305 -0.34993717 2.0663793 0.6137102
0.80352384 0.8803127 0.11655182 -0.49168915 -0.81500125 0.801162 -0.77115226 -1.2590264
00000000: 24da 8c3f 9612 0a3f b811 2d3f 3ba5 1abd
00000010: 06ec 36bd f94d 0c3e 3f04 ba3f 934a 3dbf
00000020: f916 80bf 26b1 683f 5a38 503f 4226 453f
00000030: 8a2d ffbe 9550 1bbf 50c5 3cbe 42d4 56c0
00000040: 4687 44c0 65bd 063f 2486 e6be 8acc 96bd
00000050: 45aa afbe b47b 783f 935f 7cbf 615b ab3d
00000060: ee92 533e ecbd 173f 22f1 1bc0 ff64 88be
00000070: 9717 50bf 41da d5be db0d b73f 2459 c23e
00000080: 8acd 57bc 731d 83bc 6c7d 5cbb 6bfd 98bd
00000090: 5a49 bdbf 3142 353e 3ad2 a0bf 2188 2e3f
000000a0: a8ee 6c3f 284c b13c 0101 93bf 9a06 c2bb
000000b0: 1306 09bf 1160 d83e 7b2a 63bf c04e 4f3f
000000c0: 9626 08c0 1643 68be 77bf 4d3e e55c f13e
000000d0: e39f 5d3f a7ad c63e 9b9a 053f 1c63 42bf
000000e0: efad 1e3f 70e0 f8bb 3f59 0740 2dfe f2be
000000f0: 9c66 69bd 0688 dabf 486d 1ebf 5558 5f3f
00000100: 1830 a7be e770 883f 3afe 1d3f f2eb 0bbf
00000110: 3726 613f 6dad 3bbe e345 d13f 58b7 c6bf
00000120: fa31 dabe 87e6 43c0 3ed2 98bf 645b bdbf
00000130: fe8f 9ebe de21 41ba 63d3 51bf 3ed7 2abd
00000140: ea08 193f b5ed ba3f 9571 843f b63e 2ebf
00000150: e521 8c3d 3c54 a4bd 1565 af3e f6fe 353d
00000160: 0799 823e ba43 9a3f b201 aa3e 3a78 4ebd
00000170: 337b 2d3f 4fbd 443e bc2b dfbf 6f32 023f
00000180: 8426 d4bd 0722 d3be b5fe 26bd 0bd8 2a3f
00000190: 4c74 3e3f fb76 6c3f 21ef 763f 2aa9 debd
000001a0: 422b fd3e afbc babd c18e 373f d945 c23f
000001b0: e45c 49be 1107 243f b1ce df3d c2b4 023f
000001c0: af8b a0bc 812f f9bf b2ab 4ebe 7d5c f23e
000001d0: 424b 2cbd 7975 473c e0d0 a43f ebcb d83e
000001e0: 088b b53e 3a37 97bf cbee 2dbf 2a3b 933e
000001f0: bfda 81bd b92a 3b3f 05fa f13f 7577 c0be
00000200: c404 f73e 4546 bcbe 98c7 90bd a0fe d0be
00000210: 91ad 593f 6465 c1bd ef3a fcbe c088 fc3e
00000220: afc3 08c0 86e4 773f fde2 d63d 59cb a3bc
00000230: 872e ee3e fb51 f9bc eb54 683f eb3c 30bd
00000240: 0135 b73f ace3 783f 0ecb 6bbf 8070 b3be
00000250: e54a 40bf 1b03 90bf 2320 6e3e 8aac 963f
00000260: ad38 c3bf bbc9 b4be 066d a2bf 92dd c0bf
00000270: 9db4 1d3f 5a0c 7dbf 1970 b03e f870 19bf
00000280: 05df 05be 601e d2bf 17ea 04bd b430 7a3c
00000290: 11f0 f53e b6ae 293d 55d4 433f c5f5 0dbd
000002a0: 7459 1940 b764 8f3f 6453 24c0 6d81 963e
000002b0: d688 ffbc 0ee1 743f 6b7b 613f e357 403d
000002c0: a61e 913f 8fb9 9cbf a1f4 55be ce35 78bf
000002d0: ef08 863e ae53 253f 63fa 6f3f 6a14 6a3f
000002e0: a713 34bf b331 973e 5146 63be fb1c 2d3f
000002f0: dbcb 79bd e332 ccbe f580 c4be 9885 2d3f
00000300: 3f32 193f 82c9 823f d971 eebe af9e bd3e
00000310: c0e2 2c3f e98b 7ebf 0e44 76be c4be 043f
00000320: 093e a4bf 6d20 3c3f 494f 863f ec37 1b3f
00000330: 8d42 a9be b7d2 e33e ba66 bebd 40ca f13f
00000340: a3ca a93b 0f9d 89bf cf41 26bc 3947 44bf
00000350: 0c9c 27bd 07af 313c 11ee ddbf f811 e83e
00000360: 58bf febe a03f 84bf 92af cb3f bb37 9dbe
00000370: 87cb c33f 2226 68bd 54be 5ebe 6060 563f
00000380: 0761 50c0 f35a 26bf bd3b 463e 164c 7fbe
00000390: 5b8b 463c d509 be3b fbb9 4a3f ae0b 933f
000003a0: aa1e e7bd 5702 bf3e 998f cdbf a24a 26bf
000003b0: 50e8 0a3f 962c 95bf 8d11 5dbf ed37 af3d
000003c0: 06a2 0abf 6c60 ab3e fa88 85bf e34f 7fbd
000003d0: 4d34 3cbf f72a b3be 8f3f 0440 1d1c 1d3f
000003e0: bdb3 4d3f 2c5c 613f b8b2 ee3d aebe fbbe
000003f0: eca3 50bf f418 4d3f 3c6a 45bf c727 a1bf

fc3.weight f4 [256, 256]
0.17502208 -0.1327912 0.46001828 0.08951653 0.039383613 0.016683249 -0.015457972 0.17129035
0.15335509 0.16407393 -0.81970686 -0.042817764 -0.06052208 0.020194618 0.17235582 -1.3957977
-0.84464496 -0.135218 -0.059312228 0.008625002 -0.44972292 0.050348893 0.024251822 -0.17426397
-0.11694953 -0.09794553 -0.5737447 0.025399907 -0.25975868 0.022533763 0.15209211 -0.10705148
0.05025298 0.061440665 -0.19225936 -0.0058719967 -0.6005644 -3.348387 -0.14588112 -0.16664915
-0.56555367 -0.5654068 0.2574434 -0.04477644 -0.6574494 0.13535137 -0.06631602 0.07826004
0.08430436 0.099352 -0.05819366 0.4425435 0.16123228 -0.059020612 0.76438487 -0.44809026
0.18128406 0.011593514 -0.29119116 -0.013194228 0.008964036 0.0018219682 0.17635304 -0.025460346
0.13991575 0.15914546 -0.5074753 -0.3284959 0.011137293 -0.3497247 0.27900928 0.04860306
-0.6623085 -1.551716 -0.41570958 -0.54994917 0.043384235 0.004176163 -0.09128305 -0.063082084
-0.06529922 -0.20483659 -0.122959465 -0.33227652 0.038841896 -0.09360823 -0.2590029 0.1013524
-0.06199464 -0.17912048 -0.13495491 -0.04574706 -0.07150517 0.010313803 -0.3509578 -0.5871161
0.06944395 -0.13090454 -0.0005084354 0.09809573 0.22349702 -0.4280295 0.18223588 -0.1456787
-0.054726426 -0.028822882 -0.20931925 -0.08527246 0.0971908 0.11760703 -0.052008104 0.13185702
-0.036362644 -0.004746003 0.15921845 -0.37071845 0.041204304 -0.041974533 -0.37734303 0.06192681
-0.30572698 -0.20399942 -0.122854546 -0.10185847 0.015101862 -0.2520494 -0.33351243 -0.18715858
-0.22240937 -0.23343194 0.05767834 -0.17129278 -0.09233952 0.025613846 0.20593004 0.01269678
0.8423927 -0.1350282 -0.13031878 -0.06654828 -0.10689966 0.12956107 -0.2579288 0.007715614
0.12779354 -0.06185294 0.15901397 0.09481049 0.08176679 0.8493594 -0.33682084 0.08354974
-1.4515507 -0.050569937 0.10387435 0.082039736 -0.04092597 -0.014610069 -0.10757093 -0.34926522
0.22429718 -0.046843927 -0.07154146 0.039490063 -3.1847901 -0.0025041054 0.32372046 0.02478949
-1.3875039 -3.401415 -0.19355446 -0.09995965 0.053764362 0.14266153 -0.29090905 -0.04375221
-3.682597 -0.009244714 -0.37258705 -1.3497244 -0.06472966 0.09154073 0.11241091 0.21004282
0.1246405 0.2686747 -0.056988508 0.058081955 0.02889369 0.51280254 0.02940698 0.28357753
-2.0167475 0.044640046 0.12509587 -0.05737774 0.19082235 0.26337236 -0.25339824 -0.26491943
-0.28448677 -0.07232329 -0.15209372 -0.23979 0.08563092 -0.3887112 -0.00011754827 -0.8711728
-0.028006334 -0.64434016 0.0015742764 0.1253948 -0.08259946 -0.043292698 -0.04194125 -0.026999831
0.53112984 -0.049254164 0.0713471 0.36140323 0.17144008 -0.049307007 0.18368316 -0.27167296
-0.22810456 -0.27564433 -0.09205755 0.037484635 0.033813182 0.04768457 -0.021428274 -0.10034258
0.08251059 0.025707407 -0.034056187 0.01661534 0.3339919 0.17146769 -0.403213 -0.3077886
-0.12629049 0.2173548 0.25524127 0.0799982 -0.02716196 -0.115115725 -0.012185105 -0.010844639
0.03887325 -6.62652 -0.29333097 -0.2257683 -0.07407028 -0.1550803 -0.46663895 -0.5115247
00000000: fd38 333e 6bfa 07be 8487 eb3e 7154 b73d
00000010: b650 213d 4fab 883c 6f43 7dbc bd66 2f3e
00000020: 1e09 1d3e ff02 283e 4fd8 51bf ae61 2fbd
00000030: 00e6 77bd 2f6f a53c 0b7e 303e 80a9 b2bf
00000040: a73a 58bf 9676 0abe 61f1 72bd e14f 0d3c
00000050: 1542 e6be a43a 4e3d c2ab c63c 4172 32be
00000060: 3c83 efbd ab97 c8bd efe0 12bf 7713 d03c
00000070: 17ff 84be ba98 b83c 09be 1b3e ce3d dbbd
00000080: 12d6 4d3d 35a9 7b3d a3df 44be e169 c0bb
00000090: 97be 19bf f94b 56c0 dc61 15be 13a6 2abe
000000a0: 20c8 10bf 80be 10bf 9fcf 833e 8067 37bd
000000b0: 9b4e 28bf 8d99 0a3e b2d0 87bd cd46 a03d
000000c0: c4a7 ac3d 1079 cb3d 7a5c 6ebd 1095 e23e
000000d0: 131a 253e 99bf 71bd baae 433f 166c e5be
000000e0: 87a2 393e b9f2 3d3c 0217 95be 9a2c 58bc
000000f0: e4dd 123c 1ccf ee3a e495 343e 3792 d0bc
00000100: 1346 0f3e 07f7 223e e7e9 01bf 9d30 a8be
00000110: 3179 363c 1e0f b3be 4eda 8e3e 0114 473d
00000120: 0d8d 29bf a19e c6bf e3d7 d4be 78c9 0cbf
00000130: abb3 313d 32d8 883b 9cf2 babd 2e31 81bd
00000140: 99bb 85bd afc0 51be 2cd2 fbbd 2620 aabe
00000150: ae18 1f3d acb5 bfbd 079c 84be d991 cf3d
00000160: 17ee 7dbd 5c6b 37be 9f31 0abe 4561 3bbd
00000170: 4d71 92bd 3afb 283c beb0 b3be 3e4d 16bf
00000180: a138 8e3d d70b 06be 8648 05ba 6ae6 c83d
00000190: 67dc 643e af26 dbbe 0b9c 3a3e cc2c 15be
000001a0: d128 60bd f71d ecbc c957 56be 54a3 aebd
000001b0: f80b c73d f4db f03d 7306 55bd 8705 073e
000001c0: fff0 14bd 5c84 9bbb 290a 233e cfce bdbe
000001d0: d8c5 283d 7ded 2bbd 1b33 c1be f7a6 7d3d
000001e0: 3f88 9cbe 39e5 50be 2a9b fbbd 2c9b d0bd
000001f0: cd6d 773c 9e0c 81be 24c2 aabe 80a6 3fbe
00000200: 48bf 63be c808 6fbe 1f40 6c3d 6067 2fbe
00000210: 811c bdbd 21d4 d13c 53df 523e 2806 503c
00000220: 0ca7 573f d544 0abe 4972 05be 774a 88bd
00000230: 35ee dabd a8ab 043e 3e0f 84be 43d3 fc3b
00000240: 4fdc 023e 8259 7dbd 8fd4 223e 012c c23d
00000250: 5975 a73d 9e6f 593f c873 acbe 201c ab3d
00000260: 6acc b9bf 6c22 4fbd 13bc d43d 7304 a83d
00000270: fda1 27bd 125f 6fbc 264e dcbd e4d2 b2be
00000280: 29ae 653e 6bdf 3fbd 5484 92bd 55c0 213d
00000290: 9ad3 4bc0 eb1b 24bb b0be a53e 5413 cb3c
000002a0: ba99 b1bf c9b0 59c0 2433 46be a5b7 ccbd
000002b0: 0538 5c3d dd15 123e 08f2 94be 8435 33bd
000002c0: abaf 6bc0 2477 17bc bbc3 bebe c5c3 acbf
000002d0: fc90 84bd b579 bb3d b137 e63d 7715 573e
000002e0: 8543 ff3d bb8f 893e c86c 69bd 58e7 6d3d
000002f0: 76b2 ec3c 0747 033f e8e6 f03c 1331 913e
00000300: 6412 01c0 7bd8 363d 2219 003e ec04 6bbd
00000310: ef66 433e bed8 863e 6abd 81be 85a3 87be
00000320: 40a8 91be 3c1e 94bd 75be 1bbe 828b 75be
00000330: 445f af3d 2805 c7be 3f84 f6b8 2e05 5fbf
00000340: 8a6d e5bc 7af3 24bf f357 ce3a 7f67 003e
00000350: e829 a9bd af53 31bd 97ca 2bbd c02e ddbc
00000360: 20f8 073f bcbe 49bd 6e1e 923d d809 b93e
00000370: fd8d 2f3e 25f6 49bd 7017 3c3e b818 8bbe
00000380: 3e94 69be 4121 8dbe ab88 bcbd 7d89 193d
00000390: b17f 0a3d e550 433d 598a afbc 6980 cdbd
000003a0: 50fb a83d 5798 d23c 807e 0bbd e51c 883c
000003b0: fc00 ab3e 3a95 2f3e ef71 cebe 7896 9dbe
000003c0: 4b52 01be 4292 5e3e fcae 823e 19d6 a33d
000003d0: c282 debc cbc1 ebbd 09a4 47bc b6ad 31bc
000003e0: 8f39 1f3d 740c d4c0 7a2f 96be ce2f 67be
000003f0: 29b2 97bd 5fcd 1ebe 4deb eebe 48f3 02bf

fc3.bias f4 [256]
0.9639744 0.5368602 0.14309649 -0.69433624 -0.16292007 0.5211796 -2.1674297 -1.6065518
-0.06441148 -1.8944169 -0.88868225 -0.40287387 -0.19860491 -0.50992936 -0.065643035 0.43405756
-0.5304121 -0.4886299 -0.19964884 -0.19975081 0.25288263 0.04917717 -0.10764617 0.90110445
-0.950675 0.23164217 9.006346e-05 -0.6211849 -1.4432436 -0.34814048 -0.82847196 -0.86768067
0.36796814 -0.8822072 -1.25664 -0.95420647 0.0035384684 0.5493818 -0.95271903 -1.3317503
0.052930947 0.49165025 -1.0928894 -0.95809877 -0.3974994 -0.4189375 -1.1454155 -0.99676806
-0.42601755 -0.6353845 -1.178625 -1.0661054 -0.72126925 -0.53723717 -0.020615814 -0.5411665
-1.1065817 -0.87369597 -0.49484923 -0.77009445 -0.608793 -0.88224304 0.7714961 -0.05850358
-0.32348627 0.5186191 -0.03468227 0.73691475 2.0102007 0.32999718 0.71942073 -0.30244642
-0.5997552 -0.24053705 0.25365964 -1.3871775 -0.30861995 0.6363092 0.2139584 -1.6278164
-0.20637965 0.77702606 -0.14882712 -0.21935984 0.38624418 -0.67874247 -0.12899438 0.2762784
-0.19499055 -0.10076393 -0.4846499 0.7105104 -1.4335914 -0.251383 0.61288 -0.4449652
-0.09797142 -1.4382304 -1.252395 -0.682041 0.6757204 -0.19306296 0.7479849 -0.27340868
0.98788273 -0.013454275 -1.4031051 0.5615197 -0.7422968 -0.034135465 -0.28433698 -0.68538666
0.15656869 0.113252446 -1.3358914 -0.004217557 -0.32665852 -0.4533025 -0.9870693 -0.24150093
1.1151007 -1.3802671 -0.19555467 1.158832 -0.14636216 -1.7263626 -1.1965481 0.30142
-0.8901428 0.25272608 -0.4251717 0.9006199 -0.7095122 -1.6549067 -0.57862025 -1.7163984
1.6192605 -0.19432087 0.052135438 -1.2860274 0.26898605 -0.06263604 -1.2251098 -0.06358532
-2.3842003 -0.037037842 -1.3766415 -0.90199107 0.1109859 -1.0384716 -0.6073737 -0.93529135
-1.6100773 -0.73378766 -1.9253384 -1.8653368 0.77885944 -0.24814966 0.023305621 -0.49907148
-1.0831107 0.5800012 -1.3739005 0.038427673 -0.5187066 0.020950764 -0.21271229 -0.15284431
-0.23759021 1.4425591 -0.027667487 -0.82104784 -0.37732095 -0.743001 -0.871924 -1.2661859
-0.3378706 -0.85129184 -0.81642395 -1.2808139 -0.4147336 -0.669118 -0.39716306 -0.74328715
-0.3804577 0.4629158 -0.014327114 -0.16487306 -1.2422571 -1.1111435 0.12784028 -0.11206913
-1.1584792 -1.6913785 0.23000012 -0.8254149 -0.6493624 -0.22780122 0.403862 0.80660397
0.8265314 0.051484592 0.7359149 0.45669708 -0.10991823 0.54771596 -0.4317502 -0.89429396
-0.08919953 -1.2240537 0.5014195 0.9263248 -0.74196905 -0.31452674 -1.4021927 -0.20509192
-0.6837211 0.961962 0.1966018 -0.49736345 0.64771676 0.48045078 -0.0016138557 -0.64081794
1.0516905 -0.32544887 -0.15490872 -1.6115781 -1.4821486 0.41816506 -0.9876828 0.65425444
0.001599336 -0.39969987 -0.0705779 -1.1837246 -1.0789284 1.0119954 -1.5866301 -0.87122107
0.14271194 -0.2686383 0.24829377 -0.1606331 -0.8396065 1.712034 -0.918633 0.19687828
-3.005694 0.44628718 -0.9080539 -0.25048634 -0.81674266 -0.799015 -0.18842402 -1.288336
00000000: 07c7 763f ac6f 093f e387 123e 05c0 31bf
00000010: 85d4 26be 076c 053f 2bb7 0ac0 7da3 cdbf
00000020: 2bea 83bd 417c f2bf ae80 63bf 7c45 cebe
00000030: 165f 4bbe bb8a 02bf db6f 86bd cb3c de3e
00000040: 16c9 07bf b32d fabe bf70 4cbe 7a8b 4cbe
00000050: d579 813e 006e 493d 9875 dcbd c8ae 663f
00000060: 705f 73bf 9b33 6d3e 74e0 bc38 f905 1fbf
00000070: 35bc b8bf 783f b2be bd16 54bf 5220 5ebf
00000080: 5266 bc3e 55d8 61bf 94d9 a0bf e046 74bf
00000090: a6e5 673b 49a4 0c3f 65e5 73bf cb76 aabf
000000a0: 1fce 583d 95b9 fb3e cde3 8bbf f645 75bf
000000b0: 0b85 cbbe fa7e d6be fa9c 92bf 312c 7fbf
000000c0: f91e dabe 8fa8 22bf 2fdd 96bf 2476 88bf
000000d0: 1aa5 38bf 6088 09bf 7fe2 a8bc e389 0abf
000000e0: 78a4 8dbf 8aaa 5fbf e15c fdbe e924 45bf
000000f0: dcd9 1bbf aeda 61bf c580 453f 73a1 6fbd
00000100: fe9f a5be 39c4 043f ff0e 0ebd 72a6 3c3f
00000110: 21a7 0040 64f5 a83e f52b 383f 42da 9abe
00000120: 8f89 19bf 584f 76be addf 813e 088f b1bf
00000130: 6f03 9ebe 29e5 223f e917 5b3e 4a5c d0bf
00000140: 3055 53be 2eeb 463f 2366 18be de9f 60be
00000150: ccc1 c53e 11c2 2dbf 1a17 04be 5d74 8d3e
00000160: 9aab 47be 525d cebd 0824 f8be 02e4 353f
00000170: ec7f b7bf 46b5 80be b4e5 1c3f 7bd2 e3be
00000180: 3da5 c8bd ef17 b8bf 7b4e a0bf 3d9a 2ebf
00000190: 03fc 2c3f 4cb2 45be f07b 3f3f 39fc 8bbe
000001a0: e2e5 7c3f 526f 5cbc f398 b3bf c1bf 0f3f
000001b0: 2a07 3ebf a1d1 0bbd 9e94 91be 8075 2fbf
000001c0: 8b53 203e e6f0 e73d 7dfe aabf 6f33 8abb
000001d0: c93f a7be 4417 e8be 93b0 7cbf 054c 77be
000001e0: 9fbb 8e3f 98ac b0bf 7c3f 48be 9b54 943f
000001f0: f6df 15be 73f9 dcbf 7d28 99bf b953 9a3e
00000200: 66e0 63bf 5065 813e 1bb0 d9be 078f 663f
00000210: 97a2 35bf fcd3 d3bf 7520 14bf f1b2 dbbf
00000220: ee43 cf3f 0dfc 46be f88b 553d 8c9c a4bf
00000230: 8ab8 893e 5347 80bd 66d0 9cbf 0539 82bd
00000240: bd96 18c0 feb4 17bd ca35 b0bf e3e8 66bf
00000250: 934c e33d a3ec 84bf d87c 1bbf 416f 6fbf
00000260: 0317 cebf 82d9 3bbf 7d71 f6bf 5bc3 eebf
00000270: 5563 473f f21a 7ebe 6eeb be3c 4c86 ffbe
00000280: 5fa3 8abf f57a 143f f9db afbf 5666 1d3d
00000290: f5c9 04bf f0a0 ab3c 40d1 59be 3883 1cbe
000002a0: d94a 73be c7a5 b83f eda6 e2bc 3130 52bf
000002b0: 3630 c1be 5035 3ebf 6936 5fbf 6112 a2bf
000002c0: 60fd acbe 43ee 59bf 2901 51bf b6f1 a3bf
000002d0: f657 d4be 514b 2bbf f558 cbbe 1148 3ebf
000002e0: 5acb c2be 4d03 ed3e 46bc 6abc 7cd4 28be
000002f0: 4802 9fbf f339 8ebf 90e8 023e 8084 e5bd
00000300: 0c49 94bf 177f d8bf 2785 6b3e 644e 53bf
00000310: 9d3c 26bf b944 69be 00c7 ce3e 997d 4e3f
00000320: 9097 533f 82e1 523d eb64 3c3f 33d4 e93e
00000330: cf1c e1bd 1d37 0c3f 5d0e ddbe 73f0 64bf
00000340: 3eae b6bd cbad 9cbf 075d 003f 9f23 6d3f
00000350: aff1 3dbf a609 a1be 0d7b b3bf 9e03 52be
00000360: 5908 2fbf 2443 763f fb51 493e 6ca6 febe
00000370: c4d0 253f a5fd f53e 0388 d3ba a50c 24bf
00000380: cb9d 863f 3ca1 a6be 64a0 1ebe 3148 cebf
00000390: 0cb7 bdbf bb19 d63e c8d8 7cbf 387d 273f
000003a0: d0a0 d13a 76a5 ccbe 258b 90bd 4a84 97bf
000003b0: 531a 8abf 1189 813f b216 cbbf 5808 5fbf
000003c0: 1423 123e f68a 89be b940 7e3e 017d 24be
000003d0: 74f0 56bf ee23 db3f 882b 6bbf 769a 493e
000003e0: 4a5d 40c0 c17f e43e 3876 68bf bf3f 80be
000003f0: 0c16 51bf 3f8c 4cbf 3af2 40be 32e8 a4bf

action_out.weight f4 [4, 256]
0.008569959 0.02884516 0.03167441 -0.02948163 -0.038259294 -0.051102627 -0.0024188575 0.028179243
-0.07882147 0.37199843 0.018988514 -0.0244163 0.0173594 0.025250565 0.016085844 0.047062334
0.010877365 -0.036842138 0.07541446 0.0046912134 0.0018354371 -0.00031024858 -0.36849013 -0.0053204815
0.028800314 -0.027264055 0.055844188 -0.002938581 -0.2500648 0.03773712 -0.011744032 -0.09400008
-0.021961914 0.008885732 -0.3643938 1.3331087 -0.005534055 -0.076621786 0.049358435 0.009797571
0.058923814 0.07480092 -0.015946688 1.7609892 -0.009912255 0.054783903 -0.008112965 -0.16145492
0.02036181 0.005151937 0.08140606 0.029190555 -1.7083861e-05 0.013600759 0.007992395 -2.0525038
-0.30301952 -0.009546639 -0.3391418 0.013334901 0.037730865 0.00214322 -0.02366219 0.029468413
0.037007175 -0.007651668 -0.0011982808 0.0054884735 -0.063493565 0.00083678425 -0.035049815 -0.019511595
-0.006379058 -0.022420382 0.0010096036 -0.7391503 0.59944 0.03801174 0.033317383 -0.07602625
-0.044440616 0.01755825 -0.064827636 -0.090513594 -0.02064464 0.01324052 -0.0023626199 -0.02626482
-0.0059550516 0.0035453597 0.00085678796 -0.10983137 1.1653166 -0.015654098 0.005515591 0.010195689
-0.118222795 0.009908334 -0.038569726 -0.11657536 0.035489798 0.0030660194 -0.008702836 0.013803542
0.0019416494 0.59761614 -0.046069045 -0.026135992 -0.015540746 0.024507897 -0.0061549726 0.06080567
-0.11900386 -0.010818018 -0.014679186 -0.039998043 0.006319562 -0.11425945 4.1403913 0.013004789
-0.055985387 0.07037835 -0.13161199 -0.008919543 -0.030769363 0.0016750187 -0.3123828 -0.13329929
-0.570195 0.04497634 0.041925922 -0.015403211 -0.027554844 -0.118279696 0.011563299 0.008729437
0.0049502254 -0.1326157 -0.012648295 -0.3076236 0.008003002 0.10116037 0.036707476 -0.051771604
-0.0046375934 0.0018887334 -0.22549999 0.012346421 -0.02922372 -0.06491825 0.05107615 -0.0614065
0.0886875 -0.031594895 -0.25740272 -0.0031838526 0.018872105 0.0053105205 -0.030097408 0.31146002
0.03868104 0.008429333 -0.09432183 -0.002624662 0.18800235 0.024277214 0.28600198 0.14223345
0.0644404 -0.035907075 0.002669348 -0.09388124 0.57009023 1.7116046 0.007485561 0.020981353
-0.05656109 0.0053705215 0.16699977 0.060499452 0.0065152976 0.009529914 -0.009823248 -0.058150142
-0.039315037 0.003088859 -0.038698856 -0.0030967502 -0.023781141 -1.751543 0.045523193 0.16498135
-0.015086498 0.017835775 -0.013113511 -0.16603592 0.018027859 -0.1608853 0.019665772 0.00506524
0.021734163 0.01668803 -0.0013257738 0.025980491 -0.036769 -0.016451286 0.0043204813 0.015431895
-0.01824222 0.51753724 -0.015140465 0.017603485 0.050548203 -0.00325612 -0.26745722 -0.032376997
0.0277059 -0.017459007 -0.06796551 -4.662365 -0.02567598 -0.017369427 -0.03973949 -0.02418177
0.02602177 -0.1581844 -0.62917274 0.48597214 -0.016695427 0.030960327 0.094598256 -0.019848337
0.00093051913 0.03878794 0.3007081 -0.012143283 0.012345701 0.07288799 -0.009024353 -0.026002852
-0.33552837 0.085604414 -0.027515333 0.31371105 0.2183656 -0.007143544 0.034416333 -0.031766783
0.0014070345 0.03513063 0.14183302 0.042381324 -0.02550834 -0.0058772336 -0.012903377 -0.022551155
00000000: 0369 0c3c af4c ec3c 07bd 013d 7683 f1bc
00000010: c7b5 1cbd fd50 51bd b285 1ebb 28d8 e63c
00000020: 276d a1bd 9476 be3e cd8d 9b3c b104 c8bc
00000030: 4d35 8e3c 46da ce3c 76c6 833c 6fc4 403d
00000040: fa36 323c c8e7 16bd e572 9a3d c0b8 993b
00000050: 0d93 f03a dca8 a2b9 bdaa bcbe 6f57 aebb
00000060: a3ee eb3c de58 dfbc e0bc 643d 3595 40bb
00000070: 7e08 80be 3d92 1a3d 0a6a 40bc 1d83 c0bd
00000080: 79e9 b3bc 7695 113c d391 babe 4ea3 aa3f
00000090: 0557 b5bb e2eb 9cbd 122c 4a3d fe85 203c
000000a0: 195a 713d 3a31 993d a1a2 82bc 1868 e13f
000000b0: 0367 22bc 1665 603d 3eec 04bc 7054 25be
000000c0: d0cd a63c 94d1 a83b 38b8 a63d 0821 ef3c
000000d0: 504f 8fb7 b8d5 5e3c 89f2 023c 395c 03c0
000000e0: 6025 9bbe 8269 1cbc fea3 adbe a17a 5a3c
000000f0: ae8b 1a3d 4475 0c3b 36d7 c1bc be67 f13c
00000100: d694 173d d8ba fabb a20f 9dba a7d8 b33b
00000110: ea08 82bd a45b 5b3a 6590 0fbd c8d6 9fbc
00000120: 6b07 d1bb f3aa b7bc ad54 843a f438 3dbf
00000130: e674 193f 33b2 1b3d cf77 083d a7b3 9bbd
00000140: 5d07 36bd 52d6 8f3c 5ac4 84bd 315f b9bd
00000150: f31e a9bc c4ee 583c 2fd6 1abb 5229 d7bc
00000160: 9822 c3bb 4459 683b 119a 603a 45ef e0bd
00000170: 1829 953f 063d 80bc 21bc b43b d20b 273c
00000180: cb1e f2bd 9156 223c 4afb 1dbd 10bf eebd
00000190: c05d 113d 45ef 483b 5796 0ebc 4028 623c
000001a0: f17e fe3a 5ffd 183f e5b2 3cbd 261b d6bc
000001b0: 9d9e 7ebc c9c4 c83c a7af c9bb 5e0f 793d
000001c0: 4cb8 f3bd 0e3e 31bc f880 70bc fdd4 23bd
000001d0: 5414 cf3b dc00 eabd 167e 8440 0a12 553c
000001e0: ef50 65bd 8622 903d 4bc5 06be 4623 12bc
000001f0: 0810 fcbc 4d8c db3a a3f0 9fbe 9c7f 08be
00000200: 4df8 11bf 1c39 383d 84ba 2b3d c05d 7cbc
00000210: b2ba e1bc a03c f2bd fe73 3d3c ea05 0f3c
00000220: 8035 a23b 69cc 07be cb3a 4fbc d780 9dbe
00000230: 061f 033c 2b2d cf3d 945a 163d 760e 54bd
00000240: f4f6 97bb 608f f73a 78e9 66be a548 4a3c
00000250: 9566 efbc dcf3 84bd 3a35 513d 6285 7bbd
00000260: cba1 b53d a669 01bd 4aca 83be 2fa8 50bb
00000270: ac99 9a3c e003 ae3b d78e f6bc b077 9f3e
00000280: 0370 1e3d 2f1b 0a3c ce2b c1bd 8502 2cbb
00000290: b083 403e 02e1 c63c da6e 923e a5a5 113e
000002a0: 54f9 833d 4c13 13bd 3af0 2e3b cf44 c0bd
000002b0: 6ff1 113f dc15 db3f 7049 f53b 16e1 ab3c
000002c0: 9aac 67bd 33fb af3b fd01 2b3e 46ce 773d
000002d0: 477e d53b 5b23 1c3c b0f1 20bc d82e 6ebd
000002e0: ce08 21bd 746e 4a3b b182 1ebd d9f2 4abb
000002f0: abd0 c2bc 9032 e0bf 8776 3a3d dff0 283e
00000300: 5c2d 77bc 551c 923c 0dda 56bc 5205 2abe
00000310: 29af 933c 1ebf 24be 1d1a a13c 50fa a53b
00000320: d80b b23c 56b5 883c 96c5 adba 0ad5 d43c
00000330: 179b 16bd d9c4 86bc d392 8d3b 0fd6 7c3c
00000340: b570 95bc 527d 043f b70f 78bc 2f35 903c
00000350: a20b 4f3d a164 55bb 27f0 88be be9d 04bd
00000360: 7cf7 e23c 3106 8fbc 8031 8bbd 1832 95c0
00000370: 6f56 d2bc 544a 8ebc e0c5 22bd d918 c6bc
00000380: 9b2b d53c 17fb 21be 7711 21bf 57d1 f83e
00000390: d9c4 88bc 83a0 fd3c bbbc c13d fb98 a2bc
000003a0: 15ee 733a 1ae0 1e3d 69f6 993e 9ff4 46bc
000003b0: a045 4a3c 4c46 953d e1da 13bc ef03 d5bc
000003c0: 60ca abbe 5e51 af3d d667 e1bc bc9e a03e
000003d0: 3b9b 5f3e 6414 eabb 24f8 0c3d e31d 02bd
000003e0: 3e6c b83a 23e5 0f3d ad3c 113e 0a98 2d3d
000003f0: def6 d0bc cf95 c0bb b068 53bc 33bd b8bc

action_out.bias f4 [4]
0.012029869 -0.0009800381 -0.035912823 0.0018793899
00000000: ed18 453c 9f74 80ba 5319 13bd dc55 f63a
