examples/saved_models/PandaPickAndPlace-v0/approach.pt (torch_old, 562115 bytes, 8 tensors)

fc1.weight f4 [256, 28]
000000 b6 6c 4f 3c 95 bf 04 3e 89 3b 95 bd 00 0e 91 3d
       0.012660196 0.12963708 -0.07286746 0.070827484
000010 91 fa 0e be 5c a1 a6 be 97 e5 3a be 8b 46 83 be
       -0.13962771 -0.32544982 -0.18251644 -0.25639758
000020 b8 1d 14 be bf 8e 11 3e cd 71 99 bc e7 28 20 bd
       -0.14464462 0.1421461 -0.018731022 -0.039101508
000030 d6 69 78 be 1a 17 5b 3d 5c 8d dc bc 3b 88 be bd
       -0.24259123 0.05348883 -0.026922874 -0.09303328
000040 1b 9c 3f be 97 87 8e 3d 27 5b 4f be 39 8d 85 3e
       -0.18711893 0.069594555 -0.20249616 0.26084307
000050 79 66 16 3d 56 31 ae 3d 3c ab d6 3d 38 47 3a 3e
       0.03671882 0.08505504 0.10481879 0.1819123
000060 c2 08 df 3d 9f 62 3b 3d 2f 3c b7 be b4 cb 14 3e
       0.10890342 0.04574835 -0.35788104 0.14530832
000070 99 e5 8a 3e a5 1e 32 bd 8a b8 89 3e 04 07 03 be
       0.27128294 -0.043486256 0.26898605 -0.12795645
000080 ed 65 16 3e ae 22 d7 3e c8 87 89 be 65 28 c2 3d
       0.14687319 0.42018646 -0.26861405 0.09480361
000090 71 70 87 be 61 1a 02 3d 91 5c 84 bd e8 da 1f bd
       -0.26452973 0.031763438 -0.06462968 -0.039027125
0000a0 81 ac 8f bd f8 29 ab bc d7 91 3f 3d 83 47 73 3d
       -0.070153244 -0.020894036 0.046769943 0.05939437
0000b0 a1 be 71 bd 83 21 af 3d 14 b7 4f 3d fd 30 5a 3d
       -0.05901969 0.08551314 0.050711706 0.053269375
0000c0 56 90 3e 3d f4 4c 11 3d 64 24 e6 3d d2 36 5e 3d
       0.04652437 0.03547378 0.1123741 0.0542515
0000d0 a6 25 28 3e 5b 30 f8 bd 54 ee cf bc f3 a3 9c bf
       0.16420612 -0.12118598 -0.025382198 -1.2237533
0000e0 81 6f fe bc b3 be 1b 3e 2b 88 98 bb c2 44 06 be
       -0.031059029 0.15209465 -0.0046549044 -0.13112167
0000f0 74 05 e7 3d 9f 80 a2 be a7 4a 89 be af 77 42 bd
       0.11280337 -0.31738755 -0.26814768 -0.04747742
000100 52 05 78 bd 86 e8 a2 3c b5 8e 04 bd 0a d3 13 be
       -0.06055195 0.019886266 -0.03236266 -0.14435974
000110 3b a1 36 bc bc 9e f2 3e 79 26 d2 3d 34 15 48 bd
       -0.011146839 0.4738673 0.10261244 -0.048848346
000120 3f 34 64 be d9 70 16 be f6 b0 cf 3c 5f 15 53 3c
       -0.22285555 -0.14691485 0.025352936 0.012883513
000130 42 c1 17 3e 1c 65 c3 bd 1f 1a bf 3d 9a c2 89 bc
       0.14819816 -0.095407695 0.09331154 -0.016816426
000140 2d 7f ed bc 7a f9 9f bd 44 f2 c1 bd 21 b8 13 3d
       -0.028991306 -0.07811256 -0.094700366 0.03606427
000150 5f 19 4c 3e 4e 8c 9f be bb be 0b be c8 32 f0 3d
       0.19931553 -0.3116173 -0.13646977 0.11728436
000160 a2 61 4f 3c ed 36 9a bd 3e e5 d1 be a7 18 b0 3e
       0.012657555 -0.075300075 -0.4099521 0.34393808
000170 a7 71 af 3d 0f d3 80 3d 72 7c 02 be 01 6a 85 bd
       0.08566599 0.06290256 -0.12742785 -0.06514359
000180 26 e9 14 3e e1 23 9f 3e 7e c2 23 3d f3 f6 26 3d
       0.14542064 0.3108206 0.039980404 0.040762853
000190 e2 de 17 3e ee b3 67 be c0 51 5f 3d ea bc 4e bd
       0.14831117 -0.22627231 0.054521322 -0.05047313
0001a0 f8 0b 64 bb 61 56 c1 bd 8c e6 23 bc 38 4d 1f 3e
       -0.0034797173 -0.094403036 -0.010003697 0.155568
0001b0 78 4f 8b 3d 80 13 dd bd 88 19 a1 3e 96 c6 c6 bd
       0.06802267 -0.10794735 0.3146479 -0.09705846
0001c0 be 61 b1 3d f2 cc b3 3d 33 61 ee bd 12 3b 13 3d
       0.08661221 0.087793246 -0.11639633 0.035945006
0001d0 7f 2d 9c bd d3 d5 03 bc e2 fd fd 3d d8 53 5c 3e
       -0.07625865 -0.008046585 0.1240194 0.21516359
0001e0 32 50 b3 3c 06 5e fe bd 9d b9 2b bc 05 8e 62 be
       0.021888826 -0.12420277 -0.010481265 -0.22124489
0001f0 61 c3 83 3e 3c 9f d6 3d 67 8f ef bd 68 9b 3c 3e
       0.25735 0.1047959 -0.11697274 0.18418658
000200 4a 37 3c 3d fe ef 4b 3e b9 43 48 3d 52 42 c7 bc
       0.045951165 0.19915769 0.04889271 -0.024323616
000210 84 86 cb 3c 22 a2 7c be c0 bf fa bc 94 9a 21 be
       0.024844415 -0.24671224 -0.030609012 -0.15781623
000220 7f a9 d1 3d cd 61 97 3c 31 ba 27 be 7b 44 9e bd
       0.10237407 0.018479252 -0.1637962 -0.07727905
000230 dc be 48 3e 5e c3 a3 3d c3 1e 74 3e fe 81 6f 3e
       0.19604057 0.07996248 0.2383986 0.23389432
000240 3b 11 80 3e fe 3b e4 be 09 08 a4 be 92 71 86 3e
       0.25013146 -0.4457702 -0.3203738 0.26258522
000250 5a 02 a5 be 44 ef 36 bd ef dd ea bc f5 03 7c 3d
       -0.32228357 -0.044661775 -0.02867028 0.06152721
000260 9c 65 a9 be 76 2a ff 3e aa c5 14 3e 6a da b8 3e
       -0.33085334 0.49837083 0.14528528 0.36104137
000270 50 3c 11 be 74 0f 78 bd 89 b5 88 be 3e e4 ba 3e
       -0.14183164 -0.060561612 -0.26701 0.3650226
000280 0c 2f be bc e2 17 43 3e dc 51 e8 bd 1b cb 96 3e
       -0.023215793 0.1905208 -0.113437384 0.29451832
000290 84 4c a6 3e 56 50 59 3c 69 74 5d 3e f4 a1 80 3d
       0.32480252 0.0132637825 0.21626438 0.0628089
0002a0 8b b3 40 3e 52 6a fe 3d 72 88 b6 3d fe 5a e5 be
       0.1881849 0.12422623 0.08912744 -0.44795984
0002b0 0b b5 f3 bd 5a 55 64 3d 6f 64 1d bf e4 f4 9c be
       -0.118997656 0.05574546 -0.61481375 -0.30655587
0002c0 ec 31 8f be 16 90 d8 bd 95 f9 01 3e 0b 61 43 3e
       -0.27967775 -0.10574357 0.12692864 0.19079988
0002d0 f2 2e 8d bd 5c 5c 18 3e c8 5e aa 3d 7f 32 7a be
       -0.0689372 0.14878982 0.08318859 -0.24433325
0002e0 ca a3 10 be 95 a0 9e 3c 06 c0 f8 bc e8 b1 49 3e
       -0.1412498 0.01936368 -0.030365001 0.19696772
0002f0 58 e4 06 3e b0 e5 4d be d6 41 15 be 94 81 05 be
       0.13173044 -0.2010715 -0.14575896 -0.13037711
000300 c7 c0 0b 3e 10 cd 05 3e ad 32 83 be 62 31 a2 be
       0.13647757 0.13066506 -0.256246 -0.316783
000310 e5 9c 06 be 55 2c eb bd 49 fd 9c 3e d4 ad f7 3d
       -0.13145788 -0.11483065 0.3066199 0.12093702
000320 b5 03 ba 3d 96 8b 12 be 94 36 91 3e 08 10 ac 3d
       0.09082738 -0.1431106 0.28361952 0.08401495
000330 a2 0b 95 be 98 c3 41 3d 2b fe 60 3d 16 da 64 3e
       -0.29110438 0.047305673 0.054929893 0.22348818
000340 5f b7 64 be 30 b3 bc 3d ff cd de bc 2e 4c 19 bd
       -0.22335576 0.09213865 -0.027197836 -0.037426166
000350 eb 1a 1d 3d 21 c1 01 be 81 e3 26 be a3 7f 23 3d
       0.03835575 -0.12671329 -0.16297723 0.039916646
000360 96 96 fa 3d 5a 36 a7 bd 74 42 1a 3d 24 67 0e 3e
       0.12235753 -0.081646636 0.03766103 0.13906533
000370 6f 79 05 be a1 06 da be 31 a6 35 3f e8 7a 65 3d
       -0.13034604 -0.42583182 0.7095671 0.056025416
000380 4e 45 c1 bd fd e1 d9 be 04 91 67 be 18 da 77 be
       -0.09437047 -0.42555228 -0.22613913 -0.2420429
000390 f9 15 0a 3d 94 72 ba bd 41 30 df 3d cb 7c ed 3d
       0.03371236 -0.09103885 0.108978756 0.11596068
0003a0 0c d9 94 bc 73 a5 7f 3d 73 0f 0d 3c 8c 1d c6 bd
       -0.018169902 0.062413644 0.00860964 -0.09673604
0003b0 e8 3e 96 3d f4 a1 ee be fd 01 92 bc 3e 68 45 3e
       0.07336217 -0.46607935 -0.017823214 0.19278046
0003c0 30 94 23 3d fe 40 0b bd 0a 5e f8 3d 12 32 79 bc
       0.039936244 -0.03399753 0.121273115 -0.015209692
0003d0 2a 71 07 3d 17 02 29 3d 3a 5d 93 bd 76 c5 93 ba
       0.033066906 0.04126176 -0.07195516 -0.0011274058
0003e0 77 4b 82 3e 7b 39 af bd 6b 38 87 3e 86 d6 90 be
       0.254482 -0.085558854 0.2641023 -0.28288668
0003f0 fc e9 8c 3d 22 95 2c be c6 66 43 3e 3f 3e 7d bd
       0.068805665 -0.16853765 0.19082174 -0.06182694

fc1.bias f4 [256]
000000 47 a1 92 be 22 55 28 bd c6 90 f5 be 50 72 fa be
       -0.2863867 -0.041096814 -0.47962016 -0.4891534
000010 31 d3 b4 be 0c 76 bf be 66 4f 1c be 8e 4a 20 be
       -0.35317376 -0.3739475 -0.15264663 -0.1565344
000020 24 9c f2 be 9e ba 90 3e 84 c0 05 3f 72 6e c6 be
       -0.4738475 0.28267378 0.5224688 -0.38756138
000030 76 26 8d bd 52 0e 18 bf 48 11 2e bf 95 a8 93 3e
       -0.068921015 -0.5939685 -0.6799512 0.28839555
000040 a8 d8 04 3d dd 1f 0d bf 3b 4b 75 be 67 8d 0f bf
       0.032433182 -0.55126745 -0.2395448 -0.5607514
000050 28 13 d2 be 26 d4 e1 3c 37 8e 08 bf 60 c7 95 3e
       -0.4103024 0.02756698 -0.53342 0.29253674
000060 1d 7e 06 bf 42 a1 77 3d d6 5a 38 bd 44 80 1a be
       -0.52536184 0.06045652 -0.045008503 -0.15087992
000070 d8 08 9f be 63 89 82 3e e8 77 00 bf 9d 70 1d bd
       -0.31061435 0.25495443 -0.5018296 -0.038437475
000080 52 09 25 be cf b7 6c 3e f2 c0 e4 be 11 da 44 3e
       -0.16116837 0.23116992 -0.44678456 0.1922381
000090 23 50 d8 be ba da bd bd 5a 97 ee be 04 43 db be
       -0.4224864 -0.092702344 -0.46599847 -0.42824566
0000a0 00 75 c2 be 4a 50 4c 3b f1 d2 ea be 8a d5 9e be
       -0.3797989 0.0031175786 -0.4586406 -0.31022292
0000b0 c9 ae d1 be ff d2 bc 3e aa 62 24 3f d8 63 49 be
       -0.40953663 0.36879727 0.6421305 -0.19666994
0000c0 e5 c7 f5 be d2 56 bc bd b4 df b6 be a6 23 ed be
       -0.4800407 -0.09196247 -0.35717547 -0.4631626
0000d0 d3 99 59 be 9f d4 f8 be 49 9a 88 bd 5b 5a c8 be
       -0.21250086 -0.48599717 -0.066700526 -0.39131436
0000e0 f3 f1 d7 be 7a e8 0a bf f1 43 36 bd 71 b7 01 bf
       -0.4217678 -0.5426098 -0.044498388 -0.50670534
0000f0 2a cc a0 be 30 e5 16 bf d9 83 aa be 0c a4 c8 be
       -0.31405765 -0.5894346 -0.33303717 -0.39187658
000100 e1 7e 1c be e9 b6 59 be d4 17 0f bf 20 b9 0a 3a
       -0.15282775 -0.21261181 -0.55895734 0.0005291868
000110 60 df 2e be f4 f7 07 bf c6 71 33 bd 97 7c 0d 3e
       -0.17077398 -0.5311272 -0.043809675 0.13817059
000120 fd 89 39 be e3 a3 63 be d7 7f 21 3f 3e b1 d9 be
       -0.18119045 -0.22230487 0.63085693 -0.42518038
000130 1c 50 ca be 49 24 11 bf b9 9b 17 bf 16 6f 26 bf
       -0.39514244 -0.5669599 -0.5922199 -0.65013254
000140 45 95 3e be ee 0f e4 be 67 78 b3 be 07 58 58 be
       -0.1861163 -0.44543403 -0.35052797 -0.2112733
000150 f2 49 22 bf a6 fa 07 bf 6b 24 56 be c1 f8 07 bf
       -0.6339408 -0.53116834 -0.2091233 -0.53113943
000160 91 fc ac 3d 36 e8 d5 be b3 a5 bc 3c 36 d5 c3 be
       0.08446611 -0.41778725 0.02302823 -0.38248605
000170 63 5b eb be 51 38 bd be d1 4c 2a be 25 88 f4 be
       -0.4596816 -0.36957029 -0.16630866 -0.4776012
000180 18 55 e6 bd fe f3 e8 3d 3c fd c2 3d 8a 34 8d be
       -0.11246699 0.11374663 0.09520957 -0.27579147
000190 ac a6 00 bf 2e d8 bb be bf 99 a6 be e7 63 e9 be
       -0.5025432 -0.3668837 -0.32539174 -0.45584032
0001a0 da 17 d6 bd 66 b1 06 bf a1 e7 11 be be 46 74 3e
       -0.10453768 -0.5261444 -0.14248516 0.23855111
0001b0 04 9e c5 be 7c b2 00 bf 92 47 33 bd 10 d7 4d 3e
       -0.3859712 -0.50272346 -0.043769427 0.20101571
0001c0 96 94 bd be e4 06 1c bf ed ee f7 be ee df 94 3c
       -0.37027425 -0.60948014 -0.48424473 0.018173184
0001d0 8b 48 f6 be 50 cb c3 be 2b e5 13 3e c2 b0 f5 be
       -0.4810222 -0.38241053 0.1444289 -0.47986418
0001e0 fa 2b 0e bf 12 31 1d bf 87 5e 47 be dc c8 dc be
       -0.5553585 -0.61403 -0.19469653 -0.43121994
0001f0 4f fa 22 bf 52 71 69 3c 56 3a 6e be 2f 3f 4e be
       -0.6366319 0.014248209 -0.23264441 -0.2014129
000200 36 5e 16 bf bb 17 80 be 38 02 46 be 9e 37 e0 3b
       -0.58737504 -0.25018105 -0.19336784 0.0068425676
000210 50 e0 7f be 43 16 8b bd 2c 69 d5 be bb e9 16 bf
       -0.24987912 -0.067913555 -0.41681802 -0.58950394
000220 8b e7 1f 3e 9b 25 f3 be 91 1e 98 be 9f 06 03 3f
       0.1561567 -0.47489628 -0.2971082 0.5118198
000230 83 e6 aa be 7c 9a 05 bf ad f0 fb 3d 1e 4f 01 bf
       -0.3337899 -0.5218885 0.12301765 -0.5051135
000240 14 50 d4 be ba 32 40 be 7d d7 e8 be d2 7e b9 be
       -0.41467345 -0.1876935 -0.45476905 -0.3622957
000250 6f e5 7f be 23 82 81 3d 62 b7 41 be 64 36 40 3c
       -0.24989866 0.0632365 -0.18917611 0.011731718
000260 c9 cb fb be e7 16 49 be 1d e2 06 be 66 a5 07 bf
       -0.49178913 -0.19637643 -0.13172193 -0.52986753
000270 e1 60 2e be 19 be 9e be 17 9c e6 be 8a 3b 0e bf
       -0.17029144 -0.31004408 -0.45040962 -0.555596
000280 14 19 25 3f cd c3 12 be ac 5c 68 3e 7a d2 b5 be
       0.6449139 -0.14332505 0.22691602 -0.35512143
000290 1c da e1 be 15 76 e8 be f3 d0 50 be 6b 2b 46 3e
       -0.44111717 -0.4540259 -0.20392208 0.193525
0002a0 8c 24 03 bf a5 7a 07 bf 0c f8 31 be 1c c7 24 bf
       -0.5122764 -0.52921516 -0.17379779 -0.64366317
0002b0 e3 d9 30 bf 60 67 c0 be d9 44 ec be a5 04 23 bf
       -0.6908247 -0.3757887 -0.46146277 -0.6367896
0002c0 3d 05 03 be f1 98 17 bf 14 3d 0f be 93 df 0a 3e
       -0.12794967 -0.59217745 -0.13988143 0.1356185
0002d0 86 d2 ef be 5d fc a8 be 02 6a bd be 47 52 ab be
       -0.46840304 -0.33005038 -0.3699494 -0.3346121
0002e0 84 bc b7 be 6b e3 b0 be c9 87 fe be 66 67 14 bf
       -0.35886014 -0.34548506 -0.4971297 -0.57970273
0002f0 bb a7 c2 be cc d7 9d be c6 2d 34 be 99 a8 d4 be
       -0.38018593 -0.30828702 -0.17595586 -0.4153488
000300 ea fa 09 bf 11 9d 6d 3e 52 e6 26 bf 2e e1 70 be
       -0.5389849 0.23204447 -0.6519519 -0.23523399
000310 00 bc f8 be 0c c5 0c bf 57 2c 08 bf cc 75 15 bf
       -0.48580933 -0.5498817 -0.5319266 -0.5838287
000320 26 05 82 be 1f 1e 93 3e ea 3d d0 bc 2d 82 f5 bd
       -0.25394553 0.28733918 -0.025420148 -0.1198772
000330 d2 19 cd be 47 19 eb bd 48 5e c7 be d9 e4 0e bf
       -0.40058762 -0.11479431 -0.38939118 -0.55817944
000340 4e 2b e3 be f0 92 df be 48 e5 0c bf e9 05 11 3f
       -0.44368976 -0.43666792 -0.55037355 0.56649643
000350 a4 38 2a bc d2 9c e1 be f8 47 9c be ae 63 24 bf
       -0.010389481 -0.44064957 -0.30523658 -0.642146
000360 d9 64 28 bf 89 0d 07 bf c2 af 8b be 98 09 00 3c
       -0.6577888 -0.5275503 -0.2728253 0.007814787
000370 bd d9 a5 be 20 ac 02 bf 53 a1 a2 bd 03 a4 6a 3e
       -0.32392684 -0.5104389 -0.079409264 0.22914128
000380 11 c6 0f bf fe c9 2c be 26 ea 0f 3e 01 07 16 be
       -0.561616 -0.16873929 0.14054164 -0.1465111
000390 99 9a cc be ae 00 f3 be 1a 93 09 be db da e3 3b
       -0.399617 -0.47461456 -0.13435021 0.00695358
0003a0 ff c6 69 bd 06 b0 e2 be 51 71 d7 bd 4c 4f 71 3e
       -0.057074543 -0.4427492 -0.1051966 0.23565406
0003b0 3f 07 ee be 85 ba de be 7e 39 f2 be 7a 1b 06 bf
       -0.46489903 -0.43501678 -0.47309488 -0.52385676
0003c0 89 56 94 3e 4b 1b c5 bc 46 aa 15 bf 6d bc b4 be
       0.2897227 -0.024060866 -0.5846294 -0.35300007
0003d0 db 48 0a bf 60 75 c8 be e7 71 7c 3e 2e b6 dc be
       -0.5401742 -0.3915205 0.24652825 -0.43107742
0003e0 3e 99 ce be 60 78 f4 be 13 7a 0a bf ac 0b 06 bf
       -0.4035129 -0.4774809 -0.5409252 -0.5236156
0003f0 60 19 fa 3d e9 2b 4f 3d 5a fe 0e bf 4a da a2 be
       0.12211871 0.050578985 -0.5585686 -0.31807166

fc2.weight f4 [256, 256]
000000 cb b9 91 be 74 e8 28 bd c8 92 05 3e b9 5f 93 bd
       -0.2846206 -0.04123731 0.13044274 -0.07195992
000010 5e 7c e9 bd fd 4e e8 bd 72 c9 bc be ff 16 67 bd
       -0.11400674 -0.11343191 -0.3687244 -0.056418415
000020 b9 8c 80 be 0a 83 62 be 03 f7 9d 3d fc 9a c1 be
       -0.25107363 -0.221203 0.07713129 -0.37813556
000030 20 f8 a0 bd 6a 8f a3 3e 5e cf c3 3e db 4e d6 3d
       -0.07859826 0.31945354 0.38244146 0.10464259
000040 e6 71 88 be 7d bc 09 3e cc 24 e9 3b 56 7b b2 3d
       -0.26649398 0.13450809 0.007114982 0.08714931
000050 d2 7c ca be 5d 78 91 be f6 66 1b be 19 4f 31 bd
       -0.39548355 -0.28412142 -0.15175995 -0.043288324
000060 f8 c9 05 3e 61 77 9a 3d 2b 2b 91 be 21 4b 76 be
       0.13065326 0.07542301 -0.28353247 -0.24052097
000070 b3 fb 0e be 75 fb a8 be f3 f5 ff bc b0 e2 77 bd
       -0.13963203 -0.33004346 -0.031245207 -0.06051892
000080 07 23 f3 bd ff bc 33 3d fa 85 e6 3d 1c fb 4f 3e
       -0.11871915 0.043881413 0.11256023 0.20310634
000090 ef 20 e4 be 13 76 18 3e 03 c9 a1 be 8d 09 18 3e
       -0.44556376 0.14888792 -0.31598672 0.14847393
0000a0 31 63 9c bb 1b e7 0d be 43 5b ce bd 34 d1 23 3d
       -0.0047725667 -0.13857691 -0.100760005 0.039994434
0000b0 63 97 ee 3d 40 9f 70 bd 0a 10 0c 3e 8a 4f ef bb
       0.116499685 -0.058745623 0.13677993 -0.007303183
0000c0 59 45 25 be 05 23 4f 3e 58 df 2d be d3 b2 6b be
       -0.16139735 0.20228203 -0.1697973 -0.23017435
0000d0 be 39 33 3d b8 98 12 be cc b6 3b bd fd 8b b3 bd
       0.04375624 -0.1431607 -0.045828626 -0.08766935
0000e0 1f 65 c2 bc dd 16 d5 3c 30 27 95 3e 27 da 98 3d
       -0.023729859 0.026011879 0.2913146 0.07463484
0000f0 cb 9b 81 bd 95 12 e4 bd 10 02 6c 3e 0e 57 bc bd
       -0.06328543 -0.11136357 0.23047662 -0.09196292
000100 51 76 ba be 96 87 92 bc 32 b3 e3 bc 7d 7b 1d be
       -0.36418393 -0.017886918 -0.027795408 -0.15379138
000110 e8 08 32 bd 89 6b 00 bf c6 1e 25 be 12 d1 45 3e
       -0.043465525 -0.50164086 -0.1612502 0.19318035
000120 30 88 74 be cc 8a bd be 64 f3 11 3c b5 d7 0b bd
       -0.23880076 -0.37019956 0.0089081265 -0.03414126
000130 30 66 c0 3d 07 25 cb 3d 14 bb 19 be 28 97 ab be
       0.09394491 0.09919172 -0.15012771 -0.3351376
000140 ea b8 71 3d ad 92 8f bc 24 ff 98 3d 5c 75 00 bd
       0.05901424 -0.017525995 0.07470539 -0.031361923
000150 49 90 81 3c b8 16 6c 3e 47 fc a4 3d aa ae 03 3e
       0.01581587 0.23055542 0.080559306 0.12859598
000160 aa c3 ae bd 5f be 80 be 35 24 68 3e 80 b0 bd bd
       -0.08533414 -0.25145242 0.22670062 -0.0926218
000170 1f 6d f8 bd 1a cb 45 3d 0f 60 ad bd 09 e6 06 be
       -0.12130188 0.048289396 -0.08465587 -0.13173689
000180 a4 a0 0b bd 83 d3 aa bb f0 21 cd 3d 1a 5f 4a be
       -0.034088746 -0.0052132024 0.10016239 -0.19762841
000190 c1 ba ec bc 68 61 7a be 9d f8 d9 bd df 1c f3 bd
       -0.028897645 -0.2445122 -0.10643122 -0.11870741
0001a0 2e 36 6a 3d 19 5b aa b8 2e b7 9b be 10 e2 8b bc
       0.057180576 -8.1232e-05 -0.30413193 -0.017075568
0001b0 6a 02 c9 39 52 32 80 3d 30 df 1e 3e 5c d5 2e be
       0.00038339506 0.06259598 0.15514827 -0.17073578
0001c0 e8 e5 b9 be 64 60 82 be 11 d0 2a 3e 0b ee 4f 3d
       -0.36308217 -0.25464165 0.16680934 0.050764125
0001d0 f8 0b 0c be fa 17 27 be 5d 46 1a bd 6d 92 0e be
       -0.1367644 -0.1631774 -0.03766476 -0.13923045
0001e0 e6 48 4b be 88 2f ea bd c0 f8 24 3e ce 79 4c 3d
       -0.19852027 -0.11434847 0.16110516 0.04992085
0001f0 f8 8a 29 be d4 41 3d be 49 f9 62 3d 77 f7 91 3d
       -0.16556919 -0.18482143 0.055413518 0.07127278
000200 c5 65 dd bd 8f 6a a3 3d 62 62 e2 bd 16 6f 8a be
       -0.108104266 0.07979309 -0.11053921 -0.27037877
000210 46 20 86 be 22 c0 f5 be df 6b c0 be ca 1e 4f 3e
       -0.26196498 -0.47998148 -0.375823 0.20226589
000220 6a 2f 2e 3b 71 b2 da bd 10 aa f6 3d 14 bc e3 be
       0.0026578554 -0.10678566 0.120441556 -0.4447943
000230 37 44 57 be 09 ea 86 bd 2f 71 3a 3d 9e 6a 4d 3e
       -0.21022116 -0.065876074 0.045518097 0.20060202
000240 98 75 b4 3d 73 3d e8 3d 7b 68 87 3d 67 5a 7c 3c
       0.08811492 0.113398455 0.06611725 0.015402413
000250 30 4b dd bd 9d d8 bb be 01 13 a4 3d 30 3d 88 3c
       -0.108053565 -0.366887 0.08011437 0.016630739
000260 a6 9e 31 3e 4c 76 07 3e 55 39 b1 bd eb c5 27 bc
       0.17345676 0.1322872 -0.08653513 -0.010240058
000270 c3 f0 1a be fb d1 9d 3d 05 e2 b1 be c7 2c fe bd
       -0.15130906 0.07706066 -0.34742752 -0.12410884
000280 94 02 bd bd 44 bd 01 bd c7 38 54 be e4 d4 a8 be
       -0.09229007 -0.03167464 -0.20724784 -0.32974923
000290 59 51 ad bb 51 53 a6 3d 8a 46 0a bd d7 c1 e4 3b
       -0.0052892384 0.0812136 -0.033758678 0.0069811153
0002a0 e0 b6 89 be 0c 74 79 be cb 6e a8 3d 9f 6d 8d be
       -0.26897335 -0.24360675 0.08224257 -0.27622697
0002b0 3d bc 5f 3d 7c ba 0d bd 5a c4 a2 3d 07 48 a3 bd
       0.054622877 -0.034601673 0.07947607 -0.079727225
0002c0 6d 02 50 bc 10 a3 eb bd d1 2a 26 bf 2e 03 18 3e
       -0.012695891 -0.11505711 -0.6490908 0.14844963
0002d0 e2 02 20 bd 60 58 ec bc 9f 2a ab bd 6e b0 0c bd
       -0.03906525 -0.028850734 -0.08357739 -0.034347944
0002e0 a3 b5 f9 bd 62 7d 1c be b0 77 13 3e 5c ed aa bd
       -0.121928476 -0.15282205 0.14401126 -0.08346054
0002f0 6c 7d ce 3d be 0c ae be 1b 2b 91 3e c1 da fd bd
       0.10082516 -0.33994097 0.283532 -0.123952396
000300 31 f6 30 bd 63 26 13 3e c8 36 23 3e 88 d9 b5 3d
       -0.043203536 0.14370112 0.15938866 0.088793814
000310 d0 c3 31 3d 0b a9 ad bd ef 08 88 3d 3a 83 18 be
       0.043399632 -0.08479508 0.06642329 -0.14893809
000320 6d 9e 59 3e 43 8d da be 0e 03 18 3e 3d f0 d3 bd
       0.21251841 -0.426859 0.14844915 -0.10348556
000330 1c e7 96 be b9 91 91 be 78 cc 3e be 3e c9 db bd
       -0.29473197 -0.2843149 -0.18632686 -0.10731743
000340 0a 9f 5f be 35 e3 11 3d e7 24 90 3d f6 c5 f1 3d
       -0.21838012 0.035617072 0.070382886 0.11805336
000350 f0 56 23 3e 9f 0e 2c 3d 97 e5 c8 be ba ff ea bd
       0.15951133 0.04200613 -0.39237663 -0.11474557
000360 3b 0d ee 3d 82 b8 31 bc 3e 35 e3 bd a4 8a ca bd
       0.11623617 -0.010847213 -0.110941395 -0.09889725
000370 e0 dd 9a be b1 6a ac bd 72 c5 ba be eb cb 78 be
       -0.30247402 -0.08418787 -0.36478764 -0.24296539
000380 68 6d bf bc 81 f0 0e be 8d a0 19 be 40 49 d4 bd
       -0.023367599 -0.13958932 -0.15002652 -0.10365534
000390 58 93 b2 3c fe 89 42 bd 9e 5b 35 3e 1b 75 1f 3e
       0.021798775 -0.04749488 0.1771073 0.15572016
0003a0 82 61 34 bd 2d 9c a5 bc 97 3e 88 ba ef f4 a9 be
       -0.044038303 -0.020216072 -0.001039463 -0.33194682
0003b0 39 98 05 bc ec 99 90 3b fe 08 9a bd 33 f2 87 be
       -0.0081539685 0.00441288 -0.075212464 -0.2655197
0003c0 1c 44 81 bd 40 ef 05 3d dc 4e bf bd ef 97 68 3d
       -0.06311819 0.03269887 -0.09341213 0.05678552
0003d0 a5 37 3b be bc a6 15 3e 71 c5 94 bd 40 d3 dc bd
       -0.18282945 0.14614385 -0.072642215 -0.1078248
0003e0 df f6 a8 3d dd 68 18 3d 30 a3 b5 be 53 e2 20 be
       0.08250212 0.03720938 -0.35476065 -0.15711336
0003f0 dd 8d bf 3d 1f a9 ec bd e5 05 86 be 19 13 b1 bd
       0.0935323 -0.11555695 -0.26176372 -0.08646221

fc2.bias f4 [256]
000000 1f 2e 29 3e 7b 08 e2 bd a3 fe d1 bd 50 30 ae bd
       0.165215 -0.11036774 -0.10253646 -0.08505309
000010 a6 ff 7d 3d 1f d3 a7 3d 59 3f 6a 3d f7 84 87 bd
       0.062011383 0.08194565 0.05718932 -0.06617158
000020 29 99 2d bb d5 ff b4 bc ab 3a fc 3b c3 67 26 3d
       -0.0026488996 -0.022094646 0.0076974235 0.0406263
000030 82 a1 8c 3e 9e ff 5c be 1d aa 8e 3c b1 79 5c bd
       0.2746697 -0.21581885 0.0174151 -0.05382699
000040 91 07 c6 be 8f a7 9f 3d 1a da 41 bd 8c 88 bd bd
       -0.38677648 0.07795631 -0.04732714 -0.0925456
000050 73 62 07 3e e4 4c 1e bd 1f 11 8b bd 42 68 54 3e
       0.13221149 -0.038647547 -0.06790375 0.20742896
000060 c5 7d f6 3c ca 3e 17 bd 97 40 c7 bd e9 f8 88 be
       0.030089268 -0.036925115 -0.097291164 -0.26752403
000070 73 d4 06 3d 3f 81 58 bb 16 65 01 be f5 8d e4 bd
       0.03291745 -0.003303602 -0.12636217 -0.11159889
000080 e9 53 4d 3e bc 19 3c 3d 04 db 8a 3c fe b0 8f bd
       0.2005154 0.04592298 0.016950138 -0.070161805
000090 f8 52 80 bd e8 23 e9 3d ea e0 2f 3e 82 7f 11 3c
       -0.06265825 0.11383802 0.17175642 0.008880498
0000a0 f1 23 2e 3d fe 0a cd be 7d b3 35 3e ec 43 e3 3c
       0.042514745 -0.4004745 0.1774425 0.027742349
0000b0 a4 f0 f5 3d 4f ff 3e 3d a3 88 01 bd 4b 86 4b be
       0.12008789 0.0466302 -0.031624448 -0.19875447
0000c0 59 58 00 be b1 a4 40 bd 50 a3 fc bd a8 a7 66 bd
       -0.12533702 -0.047032062 -0.12335837 -0.056312233
0000d0 21 31 67 3d a6 73 01 bc d7 47 cf 3c 77 e0 f0 3d
       0.056443337 -0.007901108 0.02530281 0.11761563
0000e0 34 f8 46 bd 45 96 f7 bb 14 b3 35 3e ae c9 c4 bd
       -0.04857655 -0.0075557553 0.17744094 -0.0960878
0000f0 5f 13 b6 bd 07 a7 ed bd 48 90 9a 3e c2 8e 84 3d
       -0.088904135 -0.116041236 0.30188203 0.064725414
000100 f3 6e 60 be b0 74 47 be fb 37 de 3b cd 94 12 bd
       -0.21917324 -0.19478106 0.0067815757 -0.03578644
000110 0d 4c 79 3d b7 5e 0b be 4b 06 dd 3d 5f c4 c2 bc
       0.060863543 -0.1361035 0.10792216 -0.023775278
000120 c1 c7 04 bf 53 a2 9d bc 17 40 81 3e fb af 5a 3d
       -0.518673 -0.019242441 0.2524421 0.053390484
000130 52 a3 db 3d 0c bd 37 3c 79 bf 42 be 61 a1 af 3d
       0.1072451 0.011214506 -0.19018354 0.085757025
000140 21 b7 7c 3d 89 a5 f1 bd 68 12 bc bd f7 a3 8c 3e
       0.061698083 -0.117991515 -0.09183198 0.27468845
000150 58 02 36 bd b9 53 14 bd 2e a5 c8 3c da 92 1f 3c
       -0.04443583 -0.036212657 0.024492826 0.009739602
000160 62 21 b1 be 90 3d 38 be 85 bd 52 be b8 d9 1c bd
       -0.34595782 -0.17992234 -0.20580108 -0.03829357
000170 96 ae 2d bd db de 52 be f3 39 f6 bd 88 03 16 bd
       -0.042402826 -0.20592825 -0.12022772 -0.03662446
000180 fd 1f 69 bd c7 d0 e5 3d a9 6c 4f 3d c3 83 1b bc
       -0.056915272 0.11221462 0.050640736 -0.009491864
000190 dc 19 96 3d dc 1f a9 bc 09 fe ab 3d 69 9d a0 3d
       0.07329151 -0.020645075 0.08398063 0.078425236
0001a0 3c 1f 39 3e 4e d7 a3 bc cd 45 31 3c 59 10 ba bc
       0.18078321 -0.020000126 0.010819864 -0.022712873
0001b0 03 39 6d 3c 9c b6 2d bd 95 65 2c 3e ad 99 31 bf
       0.014478925 -0.042410478 0.16835625 -0.69375116
0001c0 c6 88 8a bd 46 dd 5f 3d 7a ea 4e bd b1 a7 9b 3c
       -0.06764369 0.054654382 -0.050516583 0.01900086
0001d0 2c 79 10 be 2f c5 a9 3e a6 92 bb 3c 75 cc 95 3d
       -0.14108723 0.33158252 0.022897076 0.07314388
0001e0 70 99 48 3e a8 d5 60 3d 5c 3d 54 be 85 b3 97 bc
       0.19589782 0.05489126 -0.20726532 -0.018518219
0001f0 9c 69 bf 3d d0 53 40 3e d3 39 ed bd b7 c1 a3 3d
       0.09346315 0.18781972 -0.11583295 0.079959325
000200 e2 63 d3 bd b6 5a 46 bd 21 65 d5 bd a0 ab e4 be
       -0.103217855 -0.048426352 -0.104196794 -0.4466219
000210 ac 18 39 bd 43 6a 05 bf bf 42 92 3e a4 11 24 3e
       -0.045189545 -0.5211527 0.28566548 0.16022354
000220 a2 df 12 be 0c db b2 bd e0 04 9e 3d f1 79 68 be
       -0.14343122 -0.08733186 0.077157736 -0.22702767
000230 55 fe 1d 3e 97 d9 fb 3c 8e 51 8c bd 08 7f b8 be
       0.15429051 0.030743403 -0.06851493 -0.36034417
000240 a0 13 da bd 51 67 ca 3b 72 dd 84 3c e0 77 32 3d
       -0.106482744 0.006176867 0.016218875 0.043571353
000250 04 c9 93 3d dd 49 d9 bd 00 f5 0d be 69 da 4d bd
       0.07216075 -0.106097914 -0.13862991 -0.05025712
000260 48 c2 a1 3d 7f c6 ba bc 78 6b 96 be 7f 58 d2 3d
       0.07898384 -0.022799728 -0.29378867 0.102707855
000270 51 3c 84 bd ef fd c6 be 52 44 1b bc 5e 34 28 be
       -0.06456817 -0.3886561 -0.009476738 -0.16426226
000280 f0 01 af 3d 9b 39 1d be ab ab c1 bd 0d 10 90 bc
       0.085452914 -0.15354006 -0.09456571 -0.017585779
000290 e3 26 72 be 84 20 a9 bb 1a 2f c3 bc c6 44 50 3d
       -0.23647647 -0.005161347 -0.02382617 0.050846837
0002a0 c2 bb 23 3d 7f f9 4f bd 00 46 fa bd 94 44 02 be
       0.03997398 -0.050775047 -0.12220383 -0.12721473
0002b0 a3 d5 82 bd 2a bf ff bc 69 43 ce 3d f1 99 ae bd
       -0.06388404 -0.031219084 0.10071451 -0.08525456
0002c0 df f8 13 bd 2c 93 05 bc 8d 3c 84 3e 83 e6 19 be
       -0.036126014 -0.008152764 0.25827447 -0.1502934
0002d0 5a 72 64 be ce c5 8b be e9 60 0f bc aa 81 a4 bd
       -0.22309247 -0.2729935 -0.0087511325 -0.08032544
0002e0 41 99 01 3d df 92 81 3b d0 ef 5f be fa 4b 93 3d
       0.031640295 0.003954276 -0.21868825 0.07192226
0002f0 24 1f 85 bd b5 a4 3a be ce 0b 8b 3e ae 13 d3 3d
       -0.0650008 -0.18226893 0.27157444 0.10306488
000300 89 80 90 bd 9f fc 14 3d 4e 95 40 be 35 85 51 bc
       -0.07055766 0.03637373 -0.18806955 -0.012788107
000310 4f 1e e1 bd fa 3e ef be 7f bb de bc 34 8a 66 3e
       -0.10992109 -0.46727735 -0.027189014 0.22513658
000320 36 b9 dd 3c 3e 6f 97 bd 9f f8 b5 bd e9 f4 45 3d
       0.027065855 -0.07394265 -0.08885311 0.048329268
000330 16 8a 2e 3b a4 1a 46 be d2 6b d4 bd 41 f3 40 be
       0.0026632599 -0.193461 -0.103721276 -0.18842794
000340 c6 ef ad bb 64 e7 b3 bd be 33 ee bd 56 37 ec bc
       -0.0053081242 -0.08784369 -0.11630963 -0.02883498
000350 26 f4 20 be 3c 91 2c 3e 9b 4d 02 3e dc a3 12 bd
       -0.15718135 0.16852278 0.12724917 -0.0358008
000360 18 7e 10 be 66 e0 3c 3d 94 26 26 be 2b be 85 bc
       -0.14110601 0.04611244 -0.16225654 -0.01632603
000370 fa fd b3 be 5e 9c ab bd 20 11 00 bd 38 0d 2f bd
       -0.35154706 -0.08379434 -0.03126633 -0.042737216
000380 21 28 c7 bd e9 10 80 bc 4f ab 2d be 3f ca 81 3d
       -0.09724451 -0.015633063 -0.1695988 0.063374035
000390 48 ef a2 3d bd 5c 82 be a4 87 b5 3c d7 b5 56 3d
       0.079557955 -0.2546138 0.022159405 0.05241951
0003a0 dd 44 56 3d 25 d9 21 3d 4b d8 89 3d 9c 93 ff bd
       0.052311767 0.039513726 0.06730708 -0.12479326
0003b0 06 22 a5 3d 91 da d9 bd 77 b9 2a be 5f 09 f1 bc
       0.0806313 -0.10637391 -0.16672312 -0.029423414
0003c0 42 19 02 bc 96 b6 aa 3e 14 f2 8c be 12 fe 02 be
       -0.007940592 0.33342427 -0.2752844 -0.12792233
0003d0 3c 27 54 bd b2 f9 d3 bd 84 1d 00 be b5 fe 39 3d
       -0.05179523 -0.1035036 -0.1251126 0.045408923
0003e0 6e 48 08 be 8c 46 8d 3e 0f 39 95 be 93 15 14 be
       -0.1330888 0.27592885 -0.29145095 -0.14461355
0003f0 20 1b 44 bd da f1 72 3c 77 c8 dc 3e b6 3e ce bd
       -0.04787743 0.01482817 0.43121693 -0.10070555

fc3.weight f4 [256, 256]
000000 db 65 21 be 36 50 30 be c1 fd 45 bd f9 c0 81 bd
       -0.15761511 -0.17218098 -0.0483377 -0.06335635
000010 5a 86 fe bd 5b db 41 bc e1 ad 4b be 1e a0 c5 bd
       -0.12427969 -0.011832084 -0.19890548 -0.096496806
000020 0a 4a 7e bd 82 0c 30 3d 11 80 33 bd 56 d3 b1 bd
       -0.062082328 0.04298068 -0.043823306 -0.08682887
000030 09 b5 42 be 15 b6 6a bd 3e 6f 04 be 2c 7c c9 bc
       -0.19014372 -0.057302553 -0.1293306 -0.024595343
000040 e0 9c ce 3d 76 c3 1b 3d 50 ae 18 be 0c db 99 bd
       0.10088515 0.038028203 -0.14910245 -0.07512483
000050 c6 8a fc 3d ea 95 15 be c8 b5 1a 3d e6 fc 34 be
       0.123311564 -0.14607969 0.037771016 -0.17674598
000060 6e 86 8c bc a5 50 11 be 47 ab 1f bd 98 ea 21 be
       -0.017153945 -0.1419092 -0.038981702 -0.15812147
000070 de 2a dc 3d bf 2d 12 3d 61 65 22 bc 03 8b bb 3d
       0.10750364 0.035688158 -0.009911866 0.09157374
000080 28 ed a2 be c5 c1 56 3d c3 87 4e 3e 30 62 da 39
       -0.3182156 0.052430887 0.20168976 0.00041653356
000090 cc 8b 9c 3c cd 9c c8 3d c6 85 17 bf 45 20 9c be
       0.01910963 0.097955324 -0.591885 -0.3049337
0000a0 fe 0d a6 3d 1b 33 08 bf da b2 5f be 4d cb 75 3d
       0.081081375 -0.5320298 -0.2184557 0.060008336
0000b0 5a 88 3d 3d 7a 7d dc bd d1 27 28 3d 7d 0d 98 3d
       0.046272613 -0.1076612 0.041053597 0.07424448
0000c0 b9 8f f3 bd cb 22 d0 3d 16 5b 68 be 41 2b 91 3c
       -0.11892647 0.10162886 -0.22690997 0.01772082
0000d0 d3 50 d2 bd a4 98 cf bd fa d3 ca 3c 93 4b c5 bd
       -0.10269322 -0.10136536 0.024759281 -0.09633555
0000e0 86 10 9a be 6f 82 82 3c a6 60 72 be fa 81 c7 bc
       -0.3009073 0.015931336 -0.23669681 -0.02435397
0000f0 b5 40 88 bd dd 9f 0d 3e 4a cc 9d 3e b5 84 47 3e
       -0.06652967 0.13830514 0.30819923 0.19484217
000100 28 c6 e1 3c 9f 8c 9e bd 4c a3 ee 3c 95 49 1a 3e
       0.027560309 -0.07741665 0.0291306 0.15067132
000110 10 d2 81 be 2f 68 25 bd ce 2a 10 be 1d 81 a1 bd
       -0.25355577 -0.04038256 -0.14078829 -0.078859545
000120 86 9f 78 be e7 4a f8 3c e1 48 0c be 9f 2c d3 3d
       -0.24279603 0.030309154 -0.13699676 0.10311245
000130 94 06 72 3e d2 d9 8a bc 26 7a 98 bd 23 51 fd bd
       0.23635322 -0.016949568 -0.07445173 -0.12368991
000140 c6 20 e4 bc d7 a4 6f 3d 3f 30 dd bb af 2e e1 3d
       -0.027847659 0.058506813 -0.006750136 0.10995232
000150 1d 7a 83 bb 71 dd 3a bd cf 19 90 3d 65 d1 a2 bd
       -0.00401236 -0.04562134 0.070361726 -0.07950095
000160 a1 e3 0b bd 46 2b d4 3c 4a 2d ab be d5 fa 9c be
       -0.03415263 0.02589954 -0.3343299 -0.3066012
000170 7b b2 19 3e 4d de 27 be 2b ed 74 be 97 2e 17 be
       0.15009491 -0.16393395 -0.23918597 -0.14763866
000180 a5 2d 9c 3d fb f2 65 3e 03 21 06 3e b1 9c 40 bd
       0.076258935 0.22455971 0.1309853 -0.047024433
000190 dd 06 63 be 2b 19 94 be 7c a8 04 be 33 45 57 bd
       -0.22170587 -0.28925452 -0.12954897 -0.052556228
0001a0 31 93 c1 be 70 31 0a be f6 74 d1 be 50 f8 21 3e
       -0.3780761 -0.13495421 -0.40909547 0.1581738
0001b0 57 fd 64 be f3 fb 4c 3e a3 24 c9 bd ee 0d 83 be
       -0.22362266 0.20017986 -0.09821441 -0.25596565
0001c0 54 a2 62 bc da 54 1b be e4 20 eb bc 38 3e 40 3d
       -0.013832647 -0.15169087 -0.028702207 0.046934336
0001d0 6a 7a 2b be 65 11 00 3d f4 57 10 be 46 4e 80 3e
       -0.16745916 0.03126659 -0.14096051 0.25059718
0001e0 8c 04 95 3e cf 03 b7 be b2 e6 5c 38 70 b1 b5 ba
       0.29105031 -0.35745093 5.266694e-05 -0.0013862085
0001f0 b8 51 42 be 84 56 1e 3e c2 e6 a1 bd 30 ae d6 be
       -0.18976486 0.1546269 -0.07905342 -0.4192977
000200 94 9d b9 3d 8a 40 2d be 71 45 e9 3c c5 db a9 3d
       0.09063259 -0.16919151 0.028475495 0.08293871
000210 cd 20 61 bd b6 ca 26 be e4 46 28 be f2 73 d7 bd
       -0.054962922 -0.16288266 -0.16433293 -0.10520162
000220 80 e8 98 be cc f8 d8 bd de ee 95 3c 81 74 87 be
       -0.29864883 -0.10594329 0.018302377 -0.26456073
000230 23 13 e1 3d 1e aa 52 3e b1 1a 40 bd d1 b0 92 be
       0.10989978 0.20572707 -0.046900455 -0.28650525
000240 fa d6 24 be 4f 91 68 be 8b fd 8f bc a0 84 75 3e
       -0.16097632 -0.22711681 -0.017576953 0.23976374
000250 9b 47 bc bd 1b d3 a8 3d f1 23 55 bd ac 91 05 be
       -0.09193345 0.0824339 -0.05203623 -0.1304385
000260 61 27 00 be e5 fe bd 3c a4 65 09 3e 0a 0d 01 be
       -0.12515022 0.023192832 0.13417679 -0.1260263
000270 49 d1 90 bd 04 4b ce be 6a 16 ba be 04 38 67 be
       -0.07071168 -0.40291607 -0.36345226 -0.22579962
000280 d0 f0 14 be ea d9 d1 3d 6d f5 60 3e b4 90 84 3c
       -0.14544988 0.10246642 0.21968623 0.016182281
000290 ea 25 9b be 2b f2 1b 3d 88 5c a6 bd 12 37 92 3e
       -0.30302364 0.038072746 -0.08123118 0.2855764
0002a0 db 58 cc 3e 03 fe 61 3c 71 df 9d bd 7f 79 58 3c
       0.3991154 0.013793471 -0.07708634 0.013212561
0002b0 ce d0 ec 3c 85 cc 35 be 16 fe 9d bc ef 14 63 3d
       0.02890816 -0.177538 -0.019286197 0.055439886
0002c0 83 3e de bd a7 69 3c bb 79 40 ae bd 1b 43 df 3d
       -0.10851767 -0.0028749497 -0.08508391 0.10901471
0002d0 6e 52 95 bd 25 39 30 bd 00 58 35 3d 49 9c a0 3c
       -0.07291113 -0.043023247 0.044273376 0.019605773
0002e0 df 74 b7 3c fa 76 a0 bd 00 47 ef be c3 82 34 be
       0.022394596 -0.07835193 -0.46733856 -0.17628007
0002f0 ce b3 07 be a1 69 9c bd a1 f9 a0 be aa bb 75 be
       -0.13252184 -0.076373346 -0.31440452 -0.2399737
000300 e4 38 e9 3d 68 25 34 3d 54 5f e9 bc e9 8f 61 3e
       0.11387804 0.043980986 -0.028487839 0.22027554
000310 d1 4f c6 be f7 42 36 3d 78 36 be be a9 89 bb 3e
       -0.3873277 0.044497456 -0.3715093 0.36628464
000320 9d 74 ef bc a8 30 fe bc 25 16 22 3d 1a d3 8c be
       -0.02923041 -0.03102906 0.0395719 -0.27504808
000330 ac 61 fb 3b aa 5a 23 3c 1d c9 a2 3c 76 58 66 3d
       0.0076715555 0.0099703465 0.019871289 0.056236707
000340 85 9e 28 be 7b 85 14 3d 96 8c cd 3d 6c 16 72 3b
       -0.1646672 0.03626011 0.1003658 0.0036939634
000350 01 2c 95 3d fa 9c 7f bd 7b 05 19 bd 6e 51 a1 be
       0.07283784 -0.062405564 -0.037358742 -0.31507438
000360 7d a7 23 be 7a 6f 02 be 7c 78 21 3e 39 3a 8a bd
       -0.1598186 -0.12737837 0.15768617 -0.06749386
000370 3f d5 49 be ed 4f 7c bd 5e a5 51 bd e7 63 21 3d
       -0.19710253 -0.06159966 -0.051183097 0.039401915
000380 b5 3f 95 be 82 3b ad 3d ae 1b 86 bc f3 7e 74 3e
       -0.29150167 0.08458616 -0.01637062 0.23876552
000390 d0 b9 8c 3e 69 13 d5 3e 94 ad 4a 3d 99 be 47 bd
       0.27485514 0.4161637 0.049481943 -0.048765752
0003a0 6a 65 9b 3e d1 f4 96 3d 9f 63 05 3d eb d0 75 bd
       0.3035081 0.07370914 0.03256571 -0.060013693
0003b0 db b2 b5 bc 2c 61 b9 3e eb d6 81 3d 7b af 26 3d
       -0.022180011 0.3620695 0.063398205 0.040694695
0003c0 df b7 ac bc 7f 8e e3 bd 2b c6 95 be e8 cc 7d bd
       -0.02108377 -0.11111163 -0.29252753 -0.061962992
0003d0 28 62 d9 bd 74 ce 56 3c 7a 68 58 bd c3 f7 ab bd
       -0.10614425 0.013110746 -0.05283401 -0.08396866
0003e0 a7 aa 6b be 48 62 a2 be ec 52 f9 3d 30 e3 f8 bd
       -0.23014317 -0.31715608 0.12174019 -0.121527076
0003f0 37 2e 3e 3c e7 c8 09 bd e1 24 fe bc f2 62 66 be
       0.011607698 -0.03363886 -0.031023445 -0.22498682

fc3.bias f4 [256]
000000 eb 01 b3 3d 76 5d 26 bb 5e 14 b6 3d ce 82 da 3d
       0.087406 -0.0025385297 0.088906035 0.1066948
000010 c1 79 e5 3e d0 80 a3 bd 6b 7c df 3d 68 28 9b be
       0.44819453 -0.079835534 0.10912403 -0.30304265
000020 7d 3d 96 bd 79 23 11 3e 18 33 38 3e 43 c1 5e be
       -0.07335947 0.14173688 0.1798824 -0.21753411
000030 7d 76 00 3f 16 1f 71 3e 86 d7 44 3d cb aa 33 bd
       0.501808 0.23547015 0.0480571 -0.043864053
000040 ae dd 1b 3d d3 71 ba bd ad b9 c7 be 04 0b 2a bd
       0.038053207 -0.091037415 -0.39008847 -0.04151441
000050 aa c7 14 be 80 be bc 3d d7 c2 77 be 1a 6f aa 3e
       -0.14529291 0.092160225 -0.24195419 0.3328789
000060 88 be c5 bd c5 55 91 3d 18 b9 50 be 2a 25 0a 3d
       -0.096554816 0.07096437 -0.20383108 0.03372685
000070 75 da 44 be 5e 99 da 3d 89 dc 12 3e 06 0b 47 be
       -0.1922396 0.10673784 0.1434194 -0.19437799
000080 bf 35 68 3d 46 89 af 3d 98 3b bd 3e 0a 3c a1 bd
       0.05669188 0.08571105 0.3695953 -0.0787278
000090 ca 9e 41 bd 40 14 4c be cc af a1 bd 13 44 d2 bd
       -0.047270574 -0.199296 -0.07894859 -0.102668904
0000a0 5a d7 40 3e 50 8d ab 3d 03 a3 52 bd 3a 37 84 bd
       0.1883215 0.083765626 -0.05142499 -0.06455846
0000b0 f2 af 2a 3e 2d e4 5d 3e 5d 4f d5 3e 41 a9 25 3d
       0.1666868 0.21669073 0.41662112 0.040444616
0000c0 8a 6b 3e 3e 8f d7 9a bd 73 a6 e4 bd f5 a8 ce bd
       0.1859571 -0.07560646 -0.1116456 -0.1009082
0000d0 df ca 02 3e 01 55 44 be 3c bd ab be db 9c 43 3d
       0.12772702 -0.19173051 -0.33542812 0.04775701
0000e0 37 df a8 3d 7f 53 0e be 38 d6 e4 3d 06 e3 8b 3d
       0.082457 -0.13899039 0.111736715 0.06830411
0000f0 f3 2a 29 be d2 c4 95 be 8c 02 de bd 33 47 d7 3e
       -0.1652029 -0.29251724 -0.108403295 0.42046508
000100 32 12 80 3d 44 f4 92 3e 0f 0f 7d 3e 9b 62 bb bc
       0.062534705 0.28701985 0.24712776 -0.022874167
000110 2b cd 42 3d 39 66 31 bc 5c 84 7c 3e 14 16 69 bc
       0.047558945 -0.010827594 0.24659866 -0.014226455
000120 16 95 21 bd 6d 2e 04 bd 2d a9 8f be bb c9 90 3d
       -0.03944882 -0.032270838 -0.28058758 0.07069727
000130 f2 b4 8b 3e b8 cc 21 be 58 97 30 bd 66 40 69 be
       0.27286488 -0.1580075 -0.043113083 -0.22778472
000140 c8 57 42 3d 75 92 ab 3e ea a0 84 3e d0 a0 68 be
       0.047446996 0.33510175 0.25904018 -0.22717595
000150 7e 37 ba bb 21 9b 04 3e 31 82 4e bc 08 2e ef bd
       -0.0056828847 0.12949802 -0.012604282 -0.11678702
000160 7f 15 33 3e 59 0f 05 3f 4d df 3b be 57 4c c4 bd
       0.17488669 0.51976544 -0.18346901 -0.09584873
000170 5c 05 3e bd b5 d8 ba be 73 e3 d4 bd 84 a2 64 bc
       -0.04639183 -0.3649346 -0.10394945 -0.013954762
000180 1a 24 b1 3e bd 7e 9d 3e c4 96 45 3e 78 e4 81 bd
       0.34597856 0.30760756 0.19295794 -0.06342405
000190 87 32 02 bd 46 5d c1 bc b7 c9 f2 bd 35 b1 ce 3d
       -0.031786468 -0.023604047 -0.1185488 0.10092393
0001a0 6f c2 14 be 97 a3 b0 3e 7a 6f 1a be 80 15 b7 be
       -0.14527296 0.3449981 -0.15081587 -0.3575859
0001b0 88 33 33 3d 24 7b 1c 3c 98 ba 45 3e 58 73 35 3e
       0.043750316 0.009550843 0.19309461 0.17719781
0001c0 01 d2 3f ba 64 12 c0 bd 6b 16 04 3e 66 bf 41 3e
       -0.0007317365 -0.09378508 0.12899177 0.18920669
0001d0 55 48 5a be 13 e4 d2 3e 3d 73 71 3e de 95 d9 3e
       -0.21316655 0.41189632 0.23579116 0.42497152
0001e0 b9 05 82 be 1d 0e e8 bd 4e d3 70 3c a9 a2 4e bc
       -0.2539499 -0.11330817 0.014698816 -0.012612023
0001f0 ec d1 63 3e 16 6d 77 be 25 51 03 be a7 71 88 bd
       0.22248048 -0.24162707 -0.12823923 -0.066623025
000200 b8 ce 48 3b 03 1a b4 be 23 ad 0f be cb a3 de bd
       0.0030640792 -0.35176095 -0.1403089 -0.10871085
000210 34 a5 61 be bf c5 51 3e 4e d9 02 3d 69 83 17 3e
       -0.22035676 0.2048559 0.03194552 0.14796223
000220 56 da 3f be 7a 66 fb 3c 50 4d de bc 5b 8b 82 3d
       -0.18735632 0.030688513 -0.027136475 0.06374236
000230 55 64 0c be d7 22 17 be aa 40 71 3d ae 53 20 be
       -0.13710149 -0.14759384 0.05889956 -0.15656921
000240 e7 79 49 3d 41 d7 24 3d 9c 51 45 be 73 af 7b bd
       0.04918852 0.040244345 -0.19269413 -0.06144662
000250 1f 9c 8b 3e 22 af 0b bd c1 1f 9f 3e c8 8b 32 3e
       0.27267548 -0.034102567 0.31078914 0.17436135
000260 ed f3 0a 3d 37 1f 80 3e 36 c5 e7 3d a8 35 10 be
       0.033924032 0.25023815 0.11316912 -0.14082968
000270 7a fb 8e 3e 35 ea 49 be e2 3a 79 bd 25 15 9b bd
       0.27926236 -0.19718249 -0.06084717 -0.075723924
000280 cc 43 96 3e 90 85 a5 bd 4a 52 1f be d1 05 79 be
       0.293486 -0.08082116 -0.15558735 -0.24318625
000290 10 18 29 bd 29 1c 82 bd 75 4a ba 3e 8d f1 1a be
       -0.041282713 -0.063530274 0.3638493 -0.15131207
0002a0 10 ef 1f 3d 8a af 27 be 30 66 7d 3d f7 5b 04 bd
       0.039046347 -0.16375557 0.06186503 -0.032314267
0002b0 1d 77 8d be 00 38 2c be 98 ac aa bd fa 2a 52 bd
       -0.2762994 -0.16818237 -0.08333701 -0.051310517
0002c0 90 b1 88 3d c6 9d b6 be ff bd d1 3d 4e bb 0d be
       0.06674492 -0.35667247 0.10241317 -0.13840982
0002d0 73 f6 b8 bd 2f ad b7 3e 4b 1c ce 39 40 79 84 be
       -0.090313815 0.35874316 0.00039312462 -0.25873756
0002e0 06 e6 01 3e bf 36 d8 3b 54 a9 1e be 32 85 0a be
       0.12685403 0.006598323 -0.15494281 -0.13527372
0002f0 70 18 36 3e 49 ca df bc 2f 7d 94 be 8e 6c 8f 3c
       0.1778276 -0.027318137 -0.29001758 0.017507818
000300 86 ae 63 be fa 19 ca 3d 68 0c 51 be 4f 87 8b 3d
       -0.22234544 0.09868236 -0.20414889 0.068129174
000310 1f 59 53 3e ed ee f9 bd 8f 78 37 3e f1 14 13 3e
       0.20639466 -0.122037746 0.17917083 0.14363457
000320 cc 92 f1 bd b3 3f 94 3d 6a 34 00 3d 80 36 84 bd
       -0.117955774 0.07238712 0.031299986 -0.064557076
000330 5e 0e 2d be bd 16 90 be bd 03 2d 3c b6 a3 4d 3c
       -0.16900012 -0.28142348 0.010559973 0.012551239
000340 83 43 43 be 41 c5 53 3e 3f 91 f1 3a a4 35 cf 3d
       -0.19068722 0.20680715 0.0018430128 0.10117653
000350 50 9e de 3e ec 12 78 be 77 bd f6 3d 73 19 21 be
       0.43480158 -0.24225968 0.12047856 -0.15732364
000360 d7 fd 1a be 2a b7 07 3e fe fe 7f bb 9e fc 14 be
       -0.15135895 0.13253465 -0.00390619 -0.14549491
000370 44 80 96 be 3d 71 23 be 43 d6 3a 3e 08 e8 c3 3d
       -0.29394734 -0.15961166 0.18245797 0.09565741
000380 c7 39 8d bd 5d 7f 24 be b5 99 07 3d 2b 45 03 3b
       -0.06895786 -0.1606421 0.03310557 0.002003024
000390 e9 dd 7c be c2 a2 3f 3e e2 1b bd be f1 06 1d be
       -0.24694027 0.18714431 -0.36935335 -0.15334679
0003a0 5a b6 44 3c fa 60 41 3e 93 87 8f 3d d9 9c 90 be
       0.012006367 0.1888465 0.070082806 -0.28244665
0003b0 7b af 4f bd c9 7e 6f 3c 60 d5 39 bc e8 be bd be
       -0.05070446 0.01461763 -0.0113423765 -0.37059712
0003c0 0f 10 d6 bd 4d 7f 1f 3c be 9b 14 be f9 ad 64 be
       -0.10452282 0.009734941 -0.14512536 -0.2233199
0003d0 b1 d8 99 bc 70 f6 ad 3e 39 c0 dc bd cb ba 3d be
       -0.018780084 0.3397708 -0.10778851 -0.18528287
0003e0 5d e9 90 3e 1f 89 d2 3d e9 0e e8 bd a5 17 04 3d
       0.28303042 0.1028006 -0.11330969 0.03224911
0003f0 fa 8b ab be 3c 77 f1 bd e3 ef 13 be 2d 92 88 bd
       -0.3350523 -0.1179032 -0.14446978 -0.06668506

action_out.weight f4 [4, 256]
000000 58 14 48 bc 6d c1 b7 3d b8 4c 03 3b 18 4f 28 be
       -0.012211882 0.0897244 0.0020034742 -0.16436422
000010 9c af 22 bd 19 a2 cb bc 59 83 46 bd d6 bf 81 3b
       -0.039718255 -0.024857568 -0.048465107 0.003959636
000020 50 3f 57 be f1 e5 1b 3d 3d 5f db bc 28 9d 4b 3d
       -0.21020246 0.038061086 -0.026778812 0.049710423
000030 e4 d5 86 3c 6b f5 b3 3c df bf 76 bc 14 9e 17 bd
       0.016459413 0.02196761 -0.015060394 -0.03701599
000040 7f d5 05 3d a3 ec 28 3e a8 6d 47 bc c2 3f ba 3d
       0.03267431 0.1649652 -0.01217214 0.09094192
000050 a7 fb e2 3b 02 25 42 3d 67 26 e4 bd 08 1c 16 3d
       0.006926972 0.047398575 -0.11140137 0.036647826
000060 11 8e b5 3d 32 bf 8b 3c 93 70 b6 bc 15 54 e5 3c
       0.08864988 0.017058942 -0.022270476 0.027994195
000070 47 00 8a 3d b7 fd dd 3d 6d b0 73 bd 35 c0 88 bc
       0.06738334 0.10839408 -0.059494425 -0.016693214
000080 af ee 11 be ae 61 94 bd b9 2a 4f bd e1 ad 3c 3d
       -0.14251207 -0.072451934 -0.050577853 0.04606426
000090 9b b2 9f bb 18 14 6e 3d 9c c8 ea 3d 38 e1 ca bc
       -0.0048735864 0.05812463 0.114640445 -0.024765596
0000a0 02 7e 4f 3d 65 54 e3 3c 10 b5 ba 3d 27 9c 26 bc
       0.05065728 0.027750203 0.09116566 -0.010169066
0000b0 50 77 b2 bd 80 70 a2 38 52 50 b3 3c 2e 1e 67 3d
       -0.08714163 7.745717e-05 0.021888886 0.056425266
0000c0 00 d3 c7 3c f4 65 11 3e a0 45 9b bb f7 19 1a 3c
       0.024392605 0.14199048 -0.0047385246 0.009405605
0000d0 f1 8c b2 bd 16 6a 48 3e 3e 27 22 be ca 7e 50 bc
       -0.08718289 0.19571719 -0.15835282 -0.012725541
0000e0 e8 cc 70 3b 7b a6 db bc 12 65 a0 3d 7f 98 b2 bd
       0.0036743227 -0.026812783 0.07831778 -0.087204926
0000f0 a3 71 4a 3d 5f 39 d1 bd ab 41 9a 3c 7d 6e 51 3d
       0.04942478 -0.10216021 0.018830141 0.05113076
000100 4e 3b 77 bb 83 0d f2 bb 61 a3 50 3c 1b b6 21 bb
       -0.0037724557 -0.0073868646 0.012734265 -0.0024675194
000110 49 6a 0e bd 07 0f 36 3e 7f b4 27 3d 51 55 c1 bd
       -0.03476933 0.1777917 0.04094362 -0.09440101
000120 72 02 93 3d 48 c3 29 be d8 9b 40 3c f4 94 c4 bc
       0.07178201 -0.165784 0.011755906 -0.023996808
000130 73 cf a6 bc 3d be f9 3d 1a 6e 87 3d 42 2a c0 3c
       -0.020362591 0.12194488 0.06612797 0.02345765
000140 c6 8f a6 3c 62 d8 4f 3c 5e 32 72 bc 1a cb c7 bd
       0.020332228 0.012685867 -0.014782516 -0.097555354
000150 fd 4f e5 3c 3c 0c 02 3d 35 61 7e be 94 6e f8 3c
       0.027992243 0.03174995 -0.24841769 0.030326165
000160 4f 4d a7 3d 18 1a b2 bc 6c c6 69 be 6e 33 90 bc
       0.08169042 -0.021740958 -0.22829598 -0.017602649
000170 9f da 1b bd 4f 9d f0 3b 9a 8f 16 3d 4a 7c 01 be
       -0.03805029 0.0073429714 0.036758043 -0.12645069
000180 86 58 b8 bc a6 06 61 bd 5f 41 dc 3d ff b9 29 3e
       -0.022503149 -0.05493798 0.10754656 0.16574858
000190 a8 d3 88 3b e0 7c 16 bd ca 23 63 3d 64 59 d1 3d
       0.004175622 -0.036740184 0.055454053 0.10222128
0001a0 f1 63 91 bd c0 6c a9 3d b6 31 af 3d e9 d4 1f ba
       -0.070991404 0.082726955 0.085544035 -0.0006097095
0001b0 29 5e d1 3c 20 3a 34 3e ed 58 2e 3e d3 a3 66 3d
       0.025557594 0.17600298 0.1702611 0.05630858
0001c0 77 91 22 be c4 17 d1 3d 12 32 90 bc 9c 97 16 bd
       -0.15875803 0.10209611 -0.017602 -0.03676568
0001d0 9a 1e 1a bb dc bf 0e bc 25 48 2b 3d d9 09 5c bd
       -0.0023516775 -0.008712735 0.04181685 -0.05372033
0001e0 8c 8a 13 be 4d 95 3f 3d 5b fe ca 3d 46 d2 d2 bc
       -0.1440832 0.046773244 0.09911796 -0.025735032
0001f0 ca 1f c4 ba 05 c1 f5 bd 79 64 b9 3d 65 43 fe bd
       -0.0014963087 -0.11999706 0.09052367 -0.12415198
000200 83 48 22 be 59 ed 2b bd bf a3 26 be f0 3a 07 3c
       -0.15847974 -0.0419744 -0.16273402 0.008253798
000210 ea 14 24 3e 6d ba e6 3b 79 c5 a8 3d 37 9a e3 bd
       0.16023603 0.0070412667 0.0824079 -0.111133985
000220 de 0b 52 be 4d 70 a3 bd dc e1 8b 3b 6d f7 c6 bc
       -0.2051234 -0.07980404 0.004268868 -0.024287904
000230 7b f9 0c be c0 d3 87 3e 91 bd 5d 3d 9b 45 8f 3d
       -0.13767044 0.2652874 0.054135863 0.06995698
000240 94 ae 33 3d 19 c1 65 bd e2 12 70 3d 01 ed e7 bd
       0.043867663 -0.056092355 0.058611758 -0.11324502
000250 60 5d 94 bd 65 5b 0d be 4d ed a3 bc de fc a1 bc
       -0.07244372 -0.13804395 -0.020010615 -0.019773897
000260 43 c6 c7 bc 15 c9 1f bc 34 8a 2e 3d 1e 89 18 bd
       -0.02438653 -0.009752532 0.04261227 -0.03724014
000270 53 7b 93 bc e8 b0 90 bd ac 02 cc 3e 44 f0 b2 3c
       -0.018003142 -0.07064992 0.39845788 0.021843083
000280 b4 bf 9a bd a8 af 45 bd 25 4b b8 bd 55 f2 03 bd
       -0.07556096 -0.048263222 -0.08998708 -0.032213528
000290 2e 03 26 bc 0f d1 77 bb d1 2b 52 3d 1c 72 07 be
       -0.010132594 -0.0037813818 0.051311318 -0.13227123
0002a0 c8 fd 40 bc a7 65 67 bd 95 0b 0d 3d b0 ca 0a 3d
       -0.011779256 -0.056493428 0.034434874 0.033884704
0002b0 0f d2 73 bd af cd b2 bd b7 c6 86 3b c4 0b fc 3c
       -0.0595265 -0.08730637 0.004113044 0.030767329
0002c0 28 a7 f2 3c 58 0f 6d 3d 2e f8 01 be 9e c5 6f bd
       0.029620722 0.05787596 -0.1269233 -0.05853807
0002d0 57 32 eb bc 72 33 b7 ba 51 60 b9 bd ae e2 b0 bd
       -0.028710527 -0.0013977124 -0.09051574 -0.08636986
0002e0 87 f5 1a 3d 97 80 1c bc cf 23 4d 3d ad 1a 3f bd
       0.03783181 -0.009552143 0.050082978 -0.0466563
0002f0 88 84 16 bd 9a c3 b1 3d 4c 48 8d bc b7 2b 3a 3d
       -0.036747485 0.08679886 -0.017246388 0.045451846
000300 dd 10 1a be 06 a8 9b bc 1b 61 4b be 87 50 ad bc
       -0.15045495 -0.019001018 -0.19861262 -0.021156562
000310 56 45 0c 3e 86 b7 82 3c e0 68 8a bc 42 c3 b5 bb
       0.13698325 0.015956651 -0.016895711 -0.005546958
000320 db 08 8a 3c 34 67 96 3d 22 28 08 bc ff 60 2f bd
       0.016849926 0.07343903 -0.00831035 -0.042817112
000330 d3 7b 52 3e 12 dd c9 3c a5 39 cb 3b 97 fd 4f bd
       0.20555048 0.024641547 0.00620194 -0.05077895
000340 78 74 dc 3d 3e 2b 80 ba 45 63 c1 bd 66 12 c5 bd
       0.10764402 -0.0009778512 -0.09442762 -0.0962265
000350 82 27 3d 3c 2d f2 92 3d e9 cd 3c 3d 50 78 9e 3c
       0.011545064 0.071750976 0.04609481 0.019344479
000360 1d 46 26 bd 66 76 1c bc ef 1d 55 bd a8 2e 9b 3d
       -0.04059421 -0.009549713 -0.0520305 0.07577258
000370 1a 92 53 be d5 3e d9 3c 81 b9 2c 3d b1 df fb 3d
       -0.20661202 0.026519218 0.042169098 0.12298525
000380 a9 93 86 3c 3f b3 8b bd 22 14 27 bd 53 24 9d bb
       0.016427832 -0.06821298 -0.040790685 -0.00479559
000390 c1 a8 71 3d 8d cf 02 bd 68 82 c6 bc 3c 7d 03 bd
       0.058998827 -0.031936217 -0.024232104 -0.032101855
0003a0 45 5b 10 3e a2 a1 1e 3c 8d 34 8e bb 6e 38 22 be
       0.14097317 0.009682091 -0.0043397606 -0.15841839
0003b0 c4 00 96 3d be f2 a6 bd d1 dc 64 3d ff 2d 68 3c
       0.07324365 -0.08151768 0.05587465 0.014171123
0003c0 0d e7 25 3d 3e 83 0e be 36 0f 8e bd a1 f2 fc bc
       0.04050355 -0.13917252 -0.06936495 -0.030877413
0003d0 ba 2e 07 be 29 d7 50 3d e3 fe e7 3d f8 bf 2d bd
       -0.13201419 0.050986443 0.11327913 -0.042419404
0003e0 00 59 c2 3d 69 77 4a 3e e7 04 81 bd 28 1f 3d bd
       0.09489632 0.19772114 -0.06299763 -0.04617229
0003f0 69 45 ef bb fb 99 83 3d d7 ef 4a 3d c1 21 d5 3d
       -0.0073019755 0.06425854 0.049545135 0.10406829

action_out.bias f4 [4]
000000 09 13 da bc 5d 61 0b 3d da 9b 64 bd 81 2a 23 3d
       -0.026620405 0.0340284 -0.055812694 0.039835457
