scripts/ai/saved_models/PandaPickAndPlace-v0/manipulate.pt (torch_old, 562117 bytes, 8 tensors)

fc1.weight f4 [256, 28]
0	0xbe084735	-0.13308413
1	0x3cb480ef	0.022034137
2	0xbd2cad24	-0.042157307
3	0x3d604a37	0.054758277
4	0xbdbb88c2	-0.09156944
5	0x3c9b82fa	0.018983353
6	0xbd661ac8	-0.056177884
7	0xbd2e22a4	-0.042513505
8	0xbe297683	-0.16549115
9	0x3e4159f4	0.1888197
10	0x3c860bc8	0.01636304
11	0x3da036f4	0.078229815
12	0xbe217662	-0.15767816
13	0xbd9549d4	-0.07289472
14	0x3a85175f	0.001015406
15	0x3cc5da86	0.024152052
16	0xbdfea808	-0.12434393
17	0x3dec1a14	0.115284115
18	0xbbeeb044	-0.007284196
19	0x3d51f7c3	0.051261675
20	0x3d824b89	0.063620634
21	0xbcfe549a	-0.0310462
22	0x3d0cd6ff	0.034384724
23	0x3e421caf	0.18956254
24	0xbc67a093	-0.014137405
25	0x3e0eefd2	0.13958672
26	0xbe173495	-0.14766152
27	0x3e08f1c1	0.13373472
28	0x3d82b65f	0.06382441
29	0xbe2ad0c8	-0.16681206
30	0x3e92910d	0.2862629
31	0xbcdc1757	-0.026866598
32	0x3e0fc3c4	0.14039522
33	0x3e4ce07e	0.20007512
34	0x3dffc98e	0.124896154
35	0x3c12e1f6	0.008965006
36	0xbe657eb6	-0.22411618
37	0x3d31b23e	0.043382876
38	0xbcebcde1	-0.028784694
39	0x3c9c8e46	0.01911081
40	0x3d59e250	0.053194344
41	0xbe01e618	-0.1268543
42	0x3ddd528a	0.10806759
43	0x3e15706f	0.14593671
44	0x3bbc5d52	0.0057484293
45	0x3ce7096f	0.02820274
46	0xbd54a699	-0.051916692
47	0x3bdc0aa8	0.0067151375
48	0x3da5f8b1	0.08104075
49	0x3e1e8b9e	0.15482947
50	0x3daa7fc3	0.0832515
51	0x3e05eb37	0.13078009
52	0x3d8cc5b3	0.06873646
53	0xbc71dffd	-0.014762876
54	0x3df384a8	0.118905365
55	0xbf026cda	-0.50947344
56	0x3c57f0ce	0.013179971
57	0x3e2a87e4	0.166534
58	0x3d07e84b	0.033180516
59	0xbc88ab5a	-0.01668327
60	0x3d88ed90	0.066859365
61	0x3e27e6f7	0.163967
62	0xbe133ec9	-0.1437942
63	0xbd4ad0db	-0.049515586
64	0xbdb8d575	-0.09025089
65	0x3bcc7bc8	0.006240342
66	0xbb95fc29	-0.004577179
67	0x3c18357a	0.009290094
68	0xbe370400	-0.1787262
69	0x3d7524f8	0.05984971
70	0x3e145350	0.14484906
71	0x3cca2be6	0.024679136
72	0xbda97836	-0.082748815
73	0xbe193bbe	-0.14964196
74	0x3db3f1c8	0.087863505
75	0x3cf90d82	0.030401949
76	0x3e0f9d0d	0.14024754
77	0xbe1fd2c6	-0.15607747
78	0xbd51549f	-0.05110609
79	0x3e59fa0a	0.21286789
80	0x3dbf35ca	0.09336431
81	0x3c8d7000	0.01726532
82	0xbe11c894	-0.1423667
83	0xbced59b5	-0.02897344
84	0xbd677306	-0.05650618
85	0xbe5402f3	-0.2070425
86	0xbdb7f93b	-0.08983084
87	0x3e526d59	0.20549525
88	0xbd080306	-0.03320601
89	0x3d010b0b	0.031504672
90	0xbe165195	-0.14679559
91	0x3dfa2d42	0.122156635
92	0x3cdbef03	0.026847368
93	0x3da1f4c8	0.079080164
94	0xbddb3b8c	-0.10704717
95	0x3d9ed44f	0.077553384
96	0x3df4f098	0.11959952
97	0x3e251d7e	0.16124532
98	0x3df89dbe	0.12139462
99	0xbca448d3	-0.020054257
100	0x3de67435	0.112526335
101	0xbd655630	-0.055990398
102	0xbc4bbd64	-0.012435291
103	0xbb12fe7e	-0.0022429521
104	0xbbf3cbe5	-0.0074400776
105	0xbe016ee2	-0.12639955
106	0xbc8068b4	-0.015674926
107	0x3e16a2af	0.14710496
108	0x3df3c4ac	0.119027466
109	0xbe0e0501	-0.13869096
110	0x3e89ec75	0.26938215
111	0xbdd2ce65	-0.10293273
112	0x3cb636b0	0.022242874
113	0xbcf50cda	-0.029913355
114	0xbdbcb515	-0.09214226
115	0xbd6be37e	-0.05759
116	0xbe2fea35	-0.17179187
117	0xbd83429f	-0.06409191
118	0x3d038e09	0.032117877
119	0x3e1f737d	0.15571399
120	0xbd1e894f	-0.038705166
121	0xbcf3228e	-0.029679563
122	0x3e322937	0.17398535
123	0xbd89b816	-0.06724565
124	0x3d893137	0.0669884
125	0xbdb1ee96	-0.08688085
126	0x3cd70cab	0.026251158
127	0x3d9e5b01	0.07732201
128	0x3d867b07	0.06566434
129	0x3e1b70f6	0.1517981
130	0xbd390fb1	-0.04518098
131	0x3abdeffc	0.0014491077
132	0x3c013cd1	0.007888035
133	0xbe0c9cda	-0.13731709
134	0xbdbdd50c	-0.09269151
135	0xbe2370e7	-0.15961038
136	0x3e27b6a4	0.16378266
137	0x3dd838b6	0.10557692
138	0x3d8d5d0d	0.06902514
139	0xbdf358f7	-0.11882203
140	0xbe5b63a1	-0.21424724
141	0xbdbf2e7c	-0.09335038
142	0xbb948bf3	-0.004533285
143	0xbd0032df	-0.031298514
144	0x3c7c3ac3	0.015394869
145	0xbdcccd00	-0.10000038
146	0xbdd12e0e	-0.10213862
147	0x3d979ffc	0.074035615
148	0xbdcedd67	-0.10100823
149	0xbe00430a	-0.12525573
150	0xbdaf90df	-0.08572554
151	0xbdcdae66	-0.100430295
152	0xbd17f568	-0.037099272
153	0x3e1cf085	0.15326126
154	0x3d838f9c	0.06423876
155	0x3e2343bd	0.15943809
156	0xbdfa48ad	-0.12220893
157	0xbc79d8f4	-0.01524948
158	0xbe0a00a0	-0.13476801
159	0x3e1ea486	0.15492448
160	0x3dc05fdb	0.09393283
161	0x3e16a404	0.14711004
162	0xbe1776c3	-0.14791398
163	0x3deea178	0.116518915
164	0x3ddc5fd7	0.107604675
165	0x3e6ef078	0.23333919
166	0x3de40705	0.11134151
167	0x3e951a2e	0.29121536
168	0x3da5e212	0.0809976
169	0x3df66ded	0.120326854
170	0x3d8cb017	0.06869524
171	0xbe087524	-0.13325936
172	0x3c4214ae	0.011845751
173	0x3d848e33	0.06472435
174	0xbcfb9b4b	-0.030713698
175	0xbb5f00f1	-0.003402766
176	0xbe5afbe7	-0.21385156
177	0xbe25721a	-0.16156808
178	0x3e4d53d6	0.20051512
179	0x3e0fd454	0.1404584
180	0xbe07a4ff	-0.13246535
181	0xbcfee7ed	-0.03111645
182	0x3d843197	0.06454771
183	0xbdb3fe3e	-0.08788727
184	0xbe50556f	-0.2034509
185	0xbd2ec321	-0.04266656
186	0xbda35980	-0.07976055
187	0x3dda191b	0.1064932
188	0x3db9a3de	0.09064458
189	0xbdf32077	-0.118714266
190	0xbe0f1945	-0.13974483
191	0xbe319953	-0.17343645
192	0x3e14d8bf	0.14535807
193	0x3e05d79f	0.13070534
194	0xbe448023	-0.19189505
195	0xbe24ed80	-0.16106224
196	0x3e665439	0.22493066
197	0xbd99f6c7	-0.07517772
198	0x3e2e09d6	0.1699594
199	0x3e353feb	0.17700164
200	0x3b01eb71	0.0019824172
201	0x3a9a055b	0.0011750864
202	0xbdc3378e	-0.095320806
203	0xbd42baf2	-0.047541566
204	0xbe0d5fe1	-0.13806106
205	0xbd0a330d	-0.033740092
206	0x3ca601db	0.020264557
207	0xbd8123b3	-0.06305637
208	0xbd041f17	-0.032256212
209	0x3d7f6362	0.06235064
210	0xbd927dc7	-0.071528964
211	0xbcc64dee	-0.024207082
212	0x3daea074	0.08526698
213	0xbd320bdc	-0.04346834
214	0xbcda4280	-0.026643038
215	0xbd3833cc	-0.044971272
216	0x3dfd194c	0.123583406
217	0xbda7cd88	-0.08193499
218	0xbcfe1c71	-0.031019421
219	0x3d2e0267	0.04248276
220	0x3d3dad46	0.046307825
221	0xbe2debe4	-0.16984516
222	0x3e35cb21	0.17753269
223	0xbe642115	-0.22278245
224	0x3d4069d0	0.04697591
225	0xbe47c915	-0.195103
226	0xbdf60ebb	-0.12014528
227	0xbe630ac8	-0.22172081
228	0x3db0f37b	0.0864019
229	0xbe0aea02	-0.1356583
230	0xbd2fb6d3	-0.042898964
231	0x3cf8b0bf	0.030357717
232	0xbe1ede28	-0.15514433
233	0x3d526092	0.051361628
234	0xbd729141	-0.059220556
235	0xbdaa876b	-0.0832661
236	0xbd8c655d	-0.06855271
237	0xbd3ba584	-0.045812145
238	0xbdfc3072	-0.12313928
239	0x3e052aa1	0.13004543
240	0x3dc5ad94	0.09652248
241	0xbc7ecccf	-0.01555176
242	0xbdf24c1f	-0.11830925
243	0x3ca4e6b3	0.020129537
244	0x3dc1fa2e	0.09471546
245	0x3e7e67f3	0.24844341
246	0xbdd5d506	-0.104410216
247	0xbd91df1e	-0.07122634
248	0x3e8380dc	0.2568425
249	0x3d7743ee	0.060367517
250	0x3e555afd	0.2083549
251	0xbe7f6b16	-0.24943194
252	0x3e513dc9	0.20433725
253	0xbd0244c3	-0.031803858
254	0x3d647297	0.055773344
255	0xbcdd25ac	-0.026995502

fc1.bias f4 [256]
0	0xbe27f655	-0.16402562
1	0xbda40593	-0.08008876
2	0xbdd3efb2	-0.10348453
3	0xbde4f4cd	-0.111795045
4	0xbe11293e	-0.14175889
5	0xbe291062	-0.16510156
6	0xbe053050	-0.13006711
7	0xbe54f40f	-0.20796226
8	0xbe630ff3	-0.22174053
9	0x3d20ff67	0.03930607
10	0x3e070c43	0.13188271
11	0xbd9f62ec	-0.0778254
12	0xbe23445b	-0.15944044
13	0xbe11618d	-0.14197369
14	0xbe2f132f	-0.17097162
15	0x3b929455	0.004473249
16	0x3d3a5c90	0.04549843
17	0xbe182499	-0.14857711
18	0x3d7adb1c	0.061244115
19	0xbe21d76e	-0.15804836
20	0xbd534585	-0.05157997
21	0x3dae401b	0.08508321
22	0xbe04eb0f	-0.12980293
23	0xbd53554a	-0.05159501
24	0xbe655a0a	-0.22397628
25	0x3dd0e011	0.10198987
26	0xbe4554c5	-0.19270618
27	0xbd21eda1	-0.03953326
28	0xbe15d8d0	-0.14633489
29	0x3d89b476	0.06723873
30	0xbd9ceefa	-0.07662769
31	0xbbf0cb4d	-0.007348454
32	0xbd57ed76	-0.052716695
33	0x3e0de119	0.13855399
34	0xbdea70f1	-0.11447323
35	0xbde55eef	-0.11199748
36	0xbd4b9e35	-0.049711425
37	0xbe015a50	-0.12632108
38	0xbd90b997	-0.070666485
39	0xbe3d45d5	-0.1848367
40	0xbe505efb	-0.20348732
41	0x3d486d35	0.048932273
42	0xbd965e42	-0.07342197
43	0xbe4d438e	-0.20045301
44	0xbd589d14	-0.052884176
45	0x3aadc9c6	0.0013258986
46	0x3e144980	0.14481163
47	0x3c4ed1cf	0.012623264
48	0xbda13706	-0.07871823
49	0xbdf62972	-0.12019624
50	0xbde391ca	-0.111117914
51	0xbe5cfe09	-0.21581282
52	0xbd3a2cc5	-0.04545285
53	0xbe098a04	-0.13431555
54	0x3bfb1990	0.0076629594
55	0xbbb441d4	-0.0055010114
56	0xbd2c0df0	-0.04200548
57	0xbe5f5956	-0.21811423
58	0x3cef0e22	0.029181544
59	0xbe12d954	-0.14340717
60	0xbe55ff61	-0.208982
61	0xbe288c51	-0.16459776
62	0xbdd8c17d	-0.1058378
63	0xbe11cfd0	-0.1423943
64	0x3ca3a9b4	0.019978382
65	0x3cf86ed7	0.03032629
66	0xbe2432e1	-0.16035034
67	0x3c1a4e04	0.009418014
68	0x3de5d51f	0.1122229
69	0xbdf87449	-0.12131555
70	0xbd3c132c	-0.04591672
71	0x3c4c6fd6	0.012477836
72	0xbe29df54	-0.16589099
73	0x3e05f8f2	0.13083246
74	0x3e312dcc	0.17302626
75	0x3da0f9dd	0.07860158
76	0xbda07659	-0.07835073
77	0xbe558f35	-0.2085541
78	0xbe36606c	-0.1781022
79	0xbe0d9243	-0.13825326
80	0xbe1786b4	-0.14797479
81	0xbe5bdd18	-0.2147106
82	0xbe662df5	-0.22478469
83	0x3d628bdc	0.05530916
84	0xbe765165	-0.24054487
85	0xbe6c0f8d	-0.23052807
86	0xbe1c6016	-0.15271029
87	0xbd9fa550	-0.07795203
88	0xb98db094	-0.00027025177
89	0xbdc460b7	-0.095887594
90	0x3da8bd81	0.0823927
91	0xbe4a4706	-0.19753656
92	0xbddbd64f	-0.107342355
93	0xbdb5e2ea	-0.08881171
94	0xbba5b7ba	-0.0050573023
95	0xbe092eed	-0.13396807
96	0xbc83deb9	-0.016097413
97	0x3e01d69c	0.12679523
98	0xbc958424	-0.018251486
99	0x3e2b2c31	0.16716076
100	0xbe47c8a3	-0.1951013
101	0x3d137399	0.035998914
102	0xbd8b3c22	-0.06798579
103	0xbe14cff7	-0.14532457
104	0x3e051ac9	0.12998499
105	0xbda43098	-0.08017081
106	0x3ddc640c	0.1076127
107	0x3cc9c0c8	0.024628058
108	0xbcfa2699	-0.030535983
109	0xbe54fa5a	-0.20798627
110	0xbda7d122	-0.08194186
111	0xbcbd956f	-0.023142545
112	0x3d670246	0.056398652
113	0xbde5778b	-0.11204442
114	0xbe1f3546	-0.15547666
115	0x3dc84601	0.09778977
116	0x3d88b613	0.06675353
117	0xbda70259	-0.08154745
118	0x3e0b9666	0.13631591
119	0xbe239342	-0.15974143
120	0xbe0e114e	-0.13873789
121	0xbdba3288	-0.09091669
122	0x3a9c0366	0.0011902868
123	0xbe83df74	-0.2575642
124	0xbe494691	-0.19655825
125	0x3d75f9df	0.06005275
126	0x3dadf04a	0.08493097
127	0xbdfe3d0a	-0.12413986
128	0xbe179a49	-0.14804949
129	0x3e036661	0.12832023
130	0xbda13a8c	-0.07872495
131	0xbdf0dc80	-0.11760807
132	0x3db77446	0.08957724
133	0x3ddcb728	0.10777122
134	0xbe013b5d	-0.12620302
135	0xbd9ed298	-0.07755011
136	0x3d57aa03	0.05265237
137	0xbe35a7dc	-0.17739815
138	0xbcd3a61f	-0.025836049
139	0x3d8366e6	0.06416111
140	0xbd4f9c1c	-0.050685987
141	0xbe6206b4	-0.2207287
142	0x3dcda3c5	0.10041002
143	0xbe0020d1	-0.12512518
144	0xbd119f8f	-0.035552558
145	0xbdf1d724	-0.11808613
146	0x3ce0d97a	0.02744745
147	0x3cf1d4b3	0.029520368
148	0x3e253ce0	0.16136503
149	0x3da91621	0.08256174
150	0x3e005601	0.12532808
151	0xbe50e13c	-0.2039842
152	0xbe74799c	-0.23874515
153	0x3c7d621e	0.0154652875
154	0x3d4520f2	0.048127122
155	0xbe601cca	-0.21885982
156	0xbdf2e16b	-0.11859401
157	0xbd966f1a	-0.0734541
158	0xbe0ecf7e	-0.1394634
159	0xbd2ff227	-0.042955544
160	0x3d84058c	0.064463705
161	0xbe12ca6e	-0.14335033
162	0x3d8ba41d	0.068184115
163	0xbc79bd90	-0.015242949
164	0xbd8dbdba	-0.06920953
165	0xbc850f7d	-0.016242737
166	0x3ac2cab9	0.0014861441
167	0x3d079f7b	0.033111077
168	0xbdf20c71	-0.11818779
169	0xbca5c745	-0.02023662
170	0xbe044fa0	-0.12921
171	0xbd98ebdb	-0.07466861
172	0x3d0a201d	0.03372203
173	0xbd80967c	-0.062787026
174	0x3ccc5603	0.024943357
175	0xbe61171d	-0.21981473
176	0x3da1a201	0.07892228
177	0xbe8030b9	-0.25037172
178	0x3b05a882	0.0020394628
179	0x3d9d76e3	0.076886915
180	0xbe724fe6	-0.23663291
181	0xbdc9547f	-0.098305695
182	0x3d0156f5	0.03157707
183	0xbe2450cf	-0.16046451
184	0x3d515c5b	0.051113468
185	0x3e13033d	0.14356704
186	0xbe73705c	-0.2377333
187	0xbe4939ee	-0.19651005
188	0xbd981bc3	-0.0742717
189	0xbd5f691e	-0.054543607
190	0xbde729c7	-0.11287265
191	0xbe830579	-0.25590113
192	0xbd6f8f37	-0.05848619
193	0x3e071c09	0.13194288
194	0xbe38d1c8	-0.18048775
195	0xbdf53e64	-0.11974791
196	0xbda0c5b6	-0.0785021
197	0xbe92d254	-0.28676093
198	0xbe399660	-0.1812377
199	0xbe885442	-0.26626784
200	0x3d4794ef	0.04872602
201	0xbcbec012	-0.023284946
202	0x3d8a7e0b	0.06762322
203	0x3e28b6a1	0.16475917
204	0xbe3a2223	-0.18177085
205	0xbd239161	-0.039933566
206	0xbe4b2fd8	-0.1984247
207	0xbe00ac2d	-0.1256568
208	0xbd346d62	-0.044049628
209	0xbe6ac188	-0.22925389
210	0xbe05a26e	-0.13050243
211	0x3dd0da3e	0.101978764
212	0xbd3f9a2f	-0.0467779
213	0xbdab72a3	-0.083714746
214	0x3d3ed26a	0.046587385
215	0xbe656b83	-0.22404294
216	0xbe132dfb	-0.14373009
217	0xbd942aa5	-0.07234696
218	0xbd456aa7	-0.048197415
219	0x3c84a693	0.01619271
220	0xbdd5a266	-0.10431366
221	0xbe11579e	-0.1419358
222	0x3dcdf51c	0.100565165
223	0x3dfc5ec5	0.12322763
224	0xbe6b29ca	-0.2296516
225	0x3d9ecd45	0.07753996
226	0xbafcb03c	-0.0019278596
227	0xbd786430	-0.06064242
228	0xbde7c6b8	-0.113171995
229	0x3b7d79f2	0.0038677421
230	0xbc0a3769	-0.008436062
231	0x3df420f2	0.11920346
232	0xbd08d57d	-0.033406723
233	0xbda9ea3a	-0.08296628
234	0x3cf0ed10	0.029409915
235	0x3dee6ff9	0.11642451
236	0xbe47e5f4	-0.19521314
237	0xbe2c274f	-0.1681187
238	0xbda6f20f	-0.08151638
239	0xbe8298ba	-0.25507146
240	0x3e2488c5	0.16067798
241	0xbe18ac1d	-0.14909406
242	0xbe61699d	-0.22012945
243	0xbd51bb33	-0.051203918
244	0xbe36171a	-0.1778225
245	0xbe503c2f	-0.20335458
246	0xbc87397a	-0.0165069
247	0x3d4b0f2b	0.049575012
248	0xbca83a96	-0.020535748
249	0xbe2483ca	-0.16065899
250	0xbe1da2cb	-0.15394132
251	0xbdded943	-0.10881283
252	0x3dabc6df	0.08387541
253	0x3d829911	0.06376851
254	0xbe2ac8f2	-0.16678217
255	0x3cfd1782	0.030894998

fc2.weight f4 [256, 256]
0	0xbc806ba3	-0.015676325
1	0x3d1052c6	0.03523519
2	0xbcebac06	-0.02876855
3	0xbd30adc5	-0.04313447
4	0xbda0fdf0	-0.07860935
5	0x3c94bd64	0.018156715
6	0xbbb16d31	-0.005414628
7	0xbdd64114	-0.104616314
8	0xbdbc8330	-0.092047095
9	0xbd84833d	-0.06470344
10	0x3d730ea7	0.059340145
11	0x3d0e054b	0.034673017
12	0xbc7ea2cc	-0.0155417435
13	0xbc1c8f87	-0.009555704
14	0xbdb558b2	-0.08854808
15	0x3a9461ef	0.001132069
16	0x3d54e05d	0.051971782
17	0xbd4924b8	-0.049107283
18	0xbc411baa	-0.011786381
19	0x3d1e5ff5	0.03866573
20	0xbd543363	-0.05180682
21	0xbda9d725	-0.08292989
22	0xbcf65256	-0.030068558
23	0xbd6c5be6	-0.05770483
24	0x3d14c1be	0.03631758
25	0x3c08d82f	0.008352323
26	0xbced1b9f	-0.028943835
27	0xbd4b59aa	-0.049646057
28	0xbdb63b4f	-0.08898031
29	0xbcee78e0	-0.029110372
30	0xbd0fe099	-0.035126302
31	0x3c6b37da	0.014356578
32	0xbd899144	-0.0671716
33	0xbc500328	-0.012696065
34	0x3cdb8cb9	0.0268005
35	0x3cfc9a43	0.030835276
36	0xbd536e4f	-0.05161887
37	0x3c63ba35	0.013899376
38	0xbcd0ad6d	-0.02547332
39	0x3b1ffa4d	0.0024410666
40	0xbd33a6fa	-0.043860413
41	0xbd89c7b0	-0.067275405
42	0xbd2d279b	-0.0422741
43	0xbd038deb	-0.032117765
44	0x3c6f7bef	0.01461695
45	0xbd638437	-0.05554601
46	0xbccca24e	-0.024979737
47	0xbd3dc3ab	-0.04632918
48	0xbac8e836	-0.0015327993
49	0x3d77532e	0.06038206
50	0x3d271f74	0.04080148
51	0x3c85281b	0.016254475
52	0x3b175df8	0.0023096781
53	0xbc891224	-0.016732283
54	0x3d814ce8	0.06313497
55	0x3dc9c76a	0.09852488
56	0x3d5c6c12	0.053814
57	0xbba2598a	-0.0049545215
58	0x3d75770a	0.059927978
59	0xbd6f327b	-0.05839775
60	0xbd333197	-0.043748464
61	0xbddab9d4	-0.10679975
62	0x3cf0f975	0.029415825
63	0xbd979287	-0.07400995
64	0xbbcfd105	-0.0063420557
65	0x3c80b45c	0.015711002
66	0xbd90ef86	-0.070769355
67	0x3d4412fa	0.04786966
68	0x3dc5d236	0.09659235
69	0xbd9a5e8d	-0.075375654
70	0xbd8f1b85	-0.06987671
71	0x3ca74a74	0.020421244
72	0xbdb58deb	-0.08864959
73	0xbc31c626	-0.010850465
74	0xbd0bba3f	-0.034113165
75	0xbd72e025	-0.059295792
76	0xbd47a6c7	-0.048743036
77	0xbdeef689	-0.116681166
78	0xbdb7d679	-0.08976454
79	0xbcca973c	-0.024730317
80	0x3b720921	0.003693171
81	0xbd88a449	-0.0667196
82	0xbd831b83	-0.06401732
83	0xbcec38b4	-0.028835632
84	0xbddc606f	-0.10760581
85	0xbd115535	-0.03548165
86	0xbbc5cf3d	-0.0060366676
87	0xbdde9406	-0.10868077
88	0x3bdaaef5	0.0066736885
89	0xbd9e21c0	-0.07721281
90	0x3c4dddb4	0.012565065
91	0xbd847083	-0.064667724
92	0xbd56c35e	-0.05243241
93	0xbd175813	-0.03694923
94	0x3cbc4191	0.022980483
95	0xbe10799c	-0.1410889
96	0xbc8707c6	-0.016483199
97	0x38b0009c	8.3924475e-05
98	0xbd44ad11	-0.04801661
99	0xbb6a8ad4	-0.0035788314
100	0x3d390e96	0.045179926
101	0xbc97ff9e	-0.018554505
102	0xbc22529f	-0.009907394
103	0x3c995c34	0.018720724
104	0xbd1e3e6f	-0.03863376
105	0xbd34fedd	-0.04418837
106	0xbd3563ac	-0.044284508
107	0xbd496885	-0.049171943
108	0x3cd90814	0.02649311
109	0x3d078e57	0.03309473
110	0xbc1c775d	-0.009549943
111	0xbc3c0329	-0.011475363
112	0xbd1713da	-0.036884166
113	0xbd949590	-0.07255089
114	0xbc0ff3fb	-0.008786197
115	0x3cb192a0	0.021676362
116	0x3c92e31c	0.01793056
117	0xbc7ed2f6	-0.015553227
118	0x3d8b4f82	0.06802274
119	0xbda0ecf6	-0.07857697
120	0xbc5f2882	-0.013620498
121	0xbb0a49ed	-0.0021101192
122	0xbc920f64	-0.017829604
123	0x3d556ad9	0.05210385
124	0x3d29df16	0.041472517
125	0xbdd48dc9	-0.10378606
126	0xbcce0251	-0.025147589
127	0x3b5e2495	0.0033896316
128	0xbe0d7efe	-0.13817975
129	0x3d973e61	0.07384945
130	0xbca424fc	-0.020037167
131	0xbc618737	-0.013765148
132	0xbd79e114	-0.061005667
133	0xbc960fc4	-0.018318065
134	0xbc8fbead	-0.017546976
135	0xbc67fa7a	-0.014158839
136	0xbd34765c	-0.04405819
137	0xbcff1017	-0.031135602
138	0xbd104438	-0.03522131
139	0x3d410655	0.04712518
140	0xbcd93581	-0.02651477
141	0xbcc4859b	-0.02398949
142	0xbd2c89eb	-0.042123716
143	0x3c2f8376	0.010712495
144	0x3d61ac57	0.055095997
145	0xbcb83ce8	-0.02248998
146	0x3ce5634e	0.028001454
147	0xbabaa963	-0.0014241155
148	0xbd16fb0c	-0.03686051
149	0xbd62b434	-0.055347636
150	0xbb083b97	-0.0020787471
151	0xbc582b1e	-0.013193874
152	0xbb9a735e	-0.00471346
153	0xbc04db87	-0.00810898
154	0xbd0a077b	-0.03369854
155	0xbd84dd07	-0.0648747
156	0x3d885203	0.066562675
157	0x3d38d0de	0.045121066
158	0x3c823f95	0.015899459
159	0xbd985fec	-0.07440171
160	0xbd64bf44	-0.055846468
161	0xbd05f4a7	-0.03270402
162	0xbcec2080	-0.028824091
163	0xbcf8bc43	-0.030363208
164	0xbd2676ec	-0.040640756
165	0xbc9e3314	-0.019311465
166	0x3d13a724	0.03604807
167	0x3ce0c33e	0.027436849
168	0x3c065b6e	0.0082005095
169	0xbd3d45c4	-0.04620911
170	0xbd824899	-0.06361503
171	0xbd9f4847	-0.07777458
172	0xbdbf90e5	-0.09353808
173	0x3cc0a95d	0.023518259
174	0x3c1420f7	0.009041063
175	0xbc0f15e0	-0.008733243
176	0xbc9c6b21	-0.019094052
177	0xbd77890e	-0.06043344
178	0xbcf09982	-0.029370073
179	0x3d852237	0.065006666
180	0xbd502cc2	-0.050823934
181	0x3cfa0052	0.03051773
182	0x3c35f8b4	0.011106659
183	0xbd93e021	-0.072204836
184	0x3d814c08	0.0631333
185	0xbd2433e6	-0.040088557
186	0xbc0923c1	-0.008370341
187	0xbdb3fffe	-0.08789061
188	0x3da9a510	0.08283436
189	0xbd0cbb79	-0.034358475
190	0x3d27d438	0.040973872
191	0xbd0cc7a3	-0.034370076
192	0x3c1e6c80	0.009669423
193	0xbc636705	-0.013879542
194	0x3d33fc8e	0.043942027
195	0x3cff86a9	0.03119214
196	0x3d04ccfc	0.03242205
197	0xbd20d378	-0.039264172
198	0xbdc92e2a	-0.09823258
199	0xbcd39564	-0.025828071
200	0x3d00332e	0.03129881
201	0x3d8eda93	0.069752835
202	0x3d88f740	0.06687784
203	0x3c93a4d7	0.018022938
204	0xbd19a4d6	-0.037510715
205	0x3d08e84f	0.03342467
206	0xbd6bcddb	-0.057569366
207	0xbca241d6	-0.019806784
208	0x3d35464b	0.04425649
209	0xbd50d71f	-0.050986405
210	0x3d2323a8	0.039828926
211	0xbc8657da	-0.016399313
212	0xbc35f070	-0.011104688
213	0x3bca736d	0.0061783106
214	0x3ad4595a	0.0016200945
215	0xbd495dda	-0.04916177
216	0x3dbe07c4	0.09278825
217	0xbbb356a3	-0.0054729744
218	0xbd1df1a0	-0.03856051
219	0xbc9c7ac0	-0.0191015
220	0xbcf86b06	-0.03032447
221	0xbd5c050d	-0.053715754
222	0x3c937c4d	0.018003607
223	0xbd2f19a7	-0.042749073
224	0xbe076006	-0.13220224
225	0xbcd5dcb5	-0.026106218
226	0xbbffa876	-0.0078020645
227	0xbc9097bd	-0.01765048
228	0xbd7f5b9c	-0.062343225
229	0x3d45427a	0.0481591
230	0xbdaa78ba	-0.08323808
231	0x3ccafd00	0.024778843
232	0x3d142e79	0.036177132
233	0x3cfa2dd0	0.030539423
234	0xbd7fcef6	-0.062453233
235	0xbd2f6743	-0.042823087
236	0xbc09ae10	-0.008403316
237	0xbd0e6e37	-0.034773078
238	0x3d2c9896	0.042137705
239	0xbc176dd0	-0.00924249
240	0x3d7883c0	0.06067252
241	0xbda40eb3	-0.08010616
242	0x3ca43f3e	0.020049687
243	0xbd86f9a7	-0.06590586
244	0xbd4aec5b	-0.049541812
245	0xbd1dadd9	-0.038495872
246	0xbe2a7246	-0.16645154
247	0xbc4ea1f5	-0.012611856
248	0xbb918b09	-0.004441623
249	0xbc74a71d	-0.014932421
250	0xbd6e4c07	-0.058177974
251	0xbdd87f7f	-0.10571193
252	0x3c289874	0.010290254
253	0xbbe62b59	-0.0070242104
254	0xbd2eb24d	-0.04265051
255	0xbd868943	-0.06569149

fc2.bias f4 [256]
0	0x3d1d880a	0.038459815
1	0xbb585ed4	-0.0033015506
2	0x3c7a23a6	0.015267288
3	0x3d36a688	0.04459241
4	0xbb9a0705	-0.004700544
5	0x3c3834fb	0.0112431
6	0x3da7d704	0.08195308
7	0x3c7753e1	0.015095682
8	0x3da19bcd	0.07891045
9	0x3dab4488	0.08362681
10	0x3d6ef948	0.058343202
11	0xbc55e0f6	-0.013054123
12	0x3cdd3619	0.027003335
13	0xbd288d10	-0.041150153
14	0xbcdf0017	-0.027221723
15	0xbd498a68	-0.04920426
16	0xbda6540b	-0.08121499
17	0x3ce367b7	0.027759416
18	0x3d4f01a0	0.05053866
19	0xbd1b8d07	-0.03797629
20	0xbcf00ef8	-0.029304013
21	0x3bf58c24	0.0074935127
22	0x3c9d3079	0.019188153
23	0x3d7e7f1b	0.062132936
24	0x3d0dc697	0.03461322
25	0x3d00c16a	0.031434454
26	0xbc9ccbd3	-0.01914016
27	0x3b869265	0.004106807
28	0xbd074b7f	-0.033030983
29	0x3d426342	0.04745794
30	0xbc743f46	-0.014907664
31	0xbd609581	-0.054830078
32	0x3dc5b5be	0.09653805
33	0x3c8b5448	0.017007962
34	0x3d6293cb	0.055316728
35	0x3ca7b40e	0.020471599
36	0xbd4fb963	-0.050713908
37	0x3d608f27	0.05482402
38	0x3dd7c861	0.10536266
39	0x3dc807e5	0.09767131
40	0x3c83fdf9	0.016112315
41	0xbdcbb411	-0.09946454
42	0x3dc23632	0.09482993
43	0x3db943cb	0.090461336
44	0xbc00067c	-0.007814046
45	0xbd21d165	-0.039506335
46	0x3c9a13c6	0.018808257
47	0x39d6e4ac	0.00040987635
48	0xbd7c3d6c	-0.061582014
49	0xbc831bcd	-0.016004467
50	0x3c1f1b33	0.009711075
51	0xbc7ae23d	-0.0153127285
52	0xbc1bc1b3	-0.009506631
53	0x3dc187a6	0.09449701
54	0x3c0be479	0.008538359
55	0xbc9d8365	-0.019227693
56	0xbd27c95c	-0.040963516
57	0x3c74f198	0.014950179
58	0xbc1e1e39	-0.00965076
59	0xbd9d11a3	-0.076693796
60	0xbcbc49d5	-0.022984425
61	0xbd44eff1	-0.04808039
62	0x3e0250b7	0.12726103
63	0xbc22d98a	-0.009939561
64	0xbd3d379c	-0.04619561
65	0x3cef3e18	0.029204413
66	0xbcbeb3b7	-0.023279054
67	0x3c4a7366	0.012356615
68	0x3d6b6310	0.05746752
69	0xbd1c4349	-0.038150106
70	0xbbbfc5cb	-0.005852436
71	0xbc27df3a	-0.010246092
72	0xbdd8a403	-0.10578158
73	0x3cac16c0	0.021006942
74	0xbaf736e6	-0.0018860966
75	0x3d3303e3	0.04370488
76	0x3d400e38	0.04688856
77	0x3d8e46d0	0.069471
78	0xbc47e267	-0.012199975
79	0x3c81bb5a	0.015836406
80	0x3da9df54	0.082945496
81	0xbc87bd01	-0.016569616
82	0xbcb70406	-0.022340786
83	0x3c52f6bb	0.012876208
84	0x3c8b994c	0.017040871
85	0x3cad4aa3	0.021153754
86	0xbd315393	-0.043292593
87	0x3be8c1b2	0.0071031684
88	0xbd0af644	-0.033926263
89	0xbb90a611	-0.004414328
90	0xbda47961	-0.08030964
91	0x3d5dea0d	0.054178286
92	0x3c9e18fe	0.019299027
93	0xbd2e070c	-0.04248719
94	0xbb704e01	-0.0036667588
95	0x3d3dea47	0.046366002
96	0xbd1a384a	-0.037651338
97	0x3d5645b7	0.05231258
98	0xbc55a333	-0.013039398
99	0x3d0ee07a	0.034882046
100	0xbc2f0a07	-0.010683543
101	0x3d9b7480	0.0759058
102	0x3d24352d	0.040089775
103	0xba8e3908	-0.0010850737
104	0x3d72d750	0.05928737
105	0xbd7071eb	-0.05870239
106	0xbd95d1e1	-0.07315422
107	0xbd46ac6e	-0.048504286
108	0xbd2bac75	-0.041912515
109	0xbdb2844f	-0.08716642
110	0x3d8c645f	0.06855082
111	0xbd643e65	-0.055723567
112	0xbd97a5e9	-0.07404692
113	0x3d66ab4d	0.05631571
114	0xbd25683a	-0.0403826
115	0x3d21382b	0.039360207
116	0xbd5016e3	-0.050803076
117	0xbdaad04c	-0.08340511
118	0x3c2eb4de	0.010663239
119	0x3a9e68e5	0.0012085704
120	0x3dd62452	0.10456146
121	0xbd2027d2	-0.039100476
122	0x3c5ed7fb	0.013601298
123	0x3d2533a5	0.040332455
124	0xbe00d821	-0.12582447
125	0x3d479a56	0.04873117
126	0xbd0e49a9	-0.034738217
127	0x3d03d2a5	0.03218331
128	0xbd6cc8cf	-0.057808693
129	0xbce52ccb	-0.02797546
130	0xbd992dde	-0.074794516
131	0xbd186be1	-0.037212256
132	0x3ce06d24	0.027395792
133	0xbd93c201	-0.07214738
134	0x3d860327	0.0654357
135	0x3c9f8097	0.019470496
136	0xbc9991e7	-0.01874633
137	0xbd41c56e	-0.047307424
138	0x3d84944c	0.06473598
139	0x3d485a6d	0.04891436
140	0x3d0cb021	0.034347657
141	0x3d7c8e6a	0.061659254
142	0xbce7bdd3	-0.028288757
143	0x3cc8ed80	0.024527311
144	0xbd173073	-0.03691144
145	0x3d9befbf	0.07614087
146	0x3b2bdd41	0.0026224407
147	0x3b985d36	0.0046497835
148	0x3da18068	0.0788582
149	0xbd8e3c90	-0.06945145
150	0xbd844a53	-0.06459489
151	0xbdbf4fed	-0.093414165
152	0xbde8d45b	-0.113686286
153	0x3d0a7c76	0.0338101
154	0xbb0bc861	-0.0021329152
155	0xbdff1778	-0.12455648
156	0xbd2da8c0	-0.04239726
157	0x3da30217	0.07959383
158	0x3d6c5c5f	0.05770528
159	0xbd2a004c	-0.04150419
160	0xbd11aa2a	-0.03556267
161	0xbdb70f01	-0.08938409
162	0xbd955730	-0.0729202
163	0x3cb88b48	0.022527352
164	0xbd585377	-0.052813973
165	0x3d942b8d	0.07234869
166	0x3d129639	0.035787795
167	0xbbab2c06	-0.005223754
168	0x3cb7cf94	0.022437848
169	0x399de257	0.0003011401
170	0xbda9246b	-0.08258899
171	0xbd848d11	-0.06472219
172	0x3b6464bc	0.0034850081
173	0x3ce23ee6	0.027617883
174	0x3d88d6f6	0.066816255
175	0xbd183b66	-0.03716602
176	0xbd7d7305	-0.06187727
177	0x3d41f66b	0.047354143
178	0xbd9666d3	-0.07343831
179	0xbd65489b	-0.055977445
180	0x3d18de86	0.03732159
181	0xbcd21aa2	-0.025647465
182	0x3cecba7b	0.028897515
183	0xbd4f6fc6	-0.050643705
184	0x3d8590e1	0.06521774
185	0x3ce01f55	0.02735869
186	0x3c27929e	0.010227827
187	0x3dd852ba	0.10562654
188	0x3b6d9532	0.0036252257
189	0x3b87d8f3	0.0041457354
190	0xbba603c2	-0.005066366
191	0x3cddf30b	0.027093431
192	0xbd304a2c	-0.043039486
193	0x3d848f58	0.06472653
194	0xbd7d2b2a	-0.061808743
195	0xbd4e26a2	-0.050329812
196	0xbd7e7f18	-0.062132925
197	0xbd8fb08e	-0.07016097
198	0xbd14803b	-0.036255103
199	0x3daf47f1	0.085586436
200	0x3cd8bd48	0.026457444
201	0xbd333a35	-0.043756682
202	0xbc95603b	-0.018234363
203	0xbb99c34f	-0.004692472
204	0x3c057f87	0.008148081
205	0xbcd44ea2	-0.025916401
206	0xbd5f8437	-0.05456945
207	0x3cf7d8d0	0.030254751
208	0x3cf605d3	0.030032074
209	0xbd6437c0	-0.05571723
210	0x3cc54735	0.024081806
211	0xbd61c81e	-0.055122487
212	0xbd465685	-0.048422355
213	0xbc044ada	-0.008074487
214	0x3c4aac6d	0.012370211
215	0x3d57cb59	0.05268416
216	0x3bbd5c42	0.0057788203
217	0xbb6a0d6e	-0.003571357
218	0xbd3846f8	-0.044989556
219	0x3d28201d	0.04104625
220	0xbd40a75b	-0.047034603
221	0xbd63d1e0	-0.055620074
222	0x3c9abb36	0.018888097
223	0xba59be8c	-0.0008306287
224	0x3cd6eeb9	0.026236879
225	0xbc99b4b3	-0.018762922
226	0xbcc1c0ce	-0.023651507
227	0x3bd0e81b	0.0063753254
228	0x3d19668d	0.037451316
229	0x3d582774	0.052772
230	0x3d063856	0.03276857
231	0x3d66f78e	0.05638843
232	0xbd7e232e	-0.06204527
233	0x3daf8963	0.08571126
234	0x3c645b46	0.013937777
235	0x3bdc234a	0.006718074
236	0x3db3e4a9	0.08783848
237	0xbd424cdc	-0.04743658
238	0xbc8acbea	-0.016942937
239	0x3aeffc5b	0.0018309461
240	0xbd66f029	-0.05638138
241	0x3c72f058	0.01482781
242	0xbcded996	-0.027203362
243	0xbd049059	-0.032364223
244	0xbcb9078e	-0.02258661
245	0xbc625c0d	-0.013815892
246	0xbd4e3137	-0.050339904
247	0xbe02849c	-0.12745899
248	0xbd080383	-0.033206474
249	0x3cb8d798	0.02256374
250	0xbd854744	-0.065077335
251	0xbd00e9cd	-0.03147297
252	0xbb758f9a	-0.0037469626
253	0xbb85e102	-0.004085661
254	0xbca1e261	-0.019761266
255	0x3c2a3b85	0.010390167

fc3.weight f4 [256, 256]
0	0x3d83208b	0.064026915
1	0xbd898556	-0.06714885
2	0xbd63b2b0	-0.05559033
3	0x3c00f06c	0.007869821
4	0x3d105bcd	0.035243798
5	0x3cd22202	0.025650982
6	0xbb66a4d3	-0.0035193458
7	0xbc97bf08	-0.018523708
8	0xbd7388b0	-0.059456527
9	0xbc97f0d2	-0.01854745
10	0xbd65bef7	-0.05609032
11	0xbd1fdb90	-0.03902775
12	0xbd2bdfb8	-0.0419614
13	0x3c2232f0	0.00989984
14	0xbd866be9	-0.06563551
15	0xbc7598d8	-0.014990054
16	0x3d65b954	0.056084946
17	0xbd1500c5	-0.036377687
18	0xbdabe03c	-0.08392379
19	0xbc33b4a1	-0.010968358
20	0x3cf77758	0.030208275
21	0x3c990dc8	0.01868333
22	0x3ced1326	0.028939795
23	0xbd1bfa8d	-0.03808074
24	0xbcba168c	-0.02271583
25	0x3c198c58	0.009371839
26	0xbd1eee14	-0.038801268
27	0x3d032bf8	0.032024354
28	0x3d478278	0.04870841
29	0x3d280efa	0.041029908
30	0x3d304c08	0.04304126
31	0xbbca2d94	-0.006169984
32	0x3d172e08	0.036909133
33	0x3d98bca1	0.07457853
34	0xbcf0eba9	-0.029409247
35	0x3c6bc306	0.014389759
36	0x3ce6fc1c	0.028196387
37	0xbc965829	-0.018352585
38	0xbd29c595	-0.041448195
39	0xbd22766a	-0.03966371
40	0xbce6acc0	-0.028158545
41	0xbcd584d9	-0.026064323
42	0x3a975f02	0.00115487
43	0x3c8a9dc2	0.016920928
44	0x3ca0d5e1	0.019633235
45	0xbd4d44f3	-0.050114583
46	0x3ca11e8f	0.019667892
47	0x3da0a4b1	0.078439124
48	0xbd2b598b	-0.04183344
49	0x3d5acca1	0.053417806
50	0x3b6e4138	0.0036354791
51	0xbd25fc18	-0.04052362
52	0xbd3c7e74	-0.046019033
53	0xba3cc120	-0.0007200409
54	0xbb2a004f	-0.0025940125
55	0x3d13bbe5	0.036067862
56	0x3d5766cd	0.052588273
57	0x3d273c6f	0.04082912
58	0xbccab572	-0.024744723
59	0x3b436f50	0.0029820986
60	0xbc8a42f7	-0.016877634
61	0xbc664f70	-0.014057025
62	0x3d1a0d44	0.037610307
63	0xbb93d4b6	-0.004511441
64	0x3d720a7a	0.059092022
65	0xbad9dffc	-0.0016622539
66	0x3c9d4bb0	0.01920113
67	0x3d465cd1	0.04842836
68	0xbcaf59a3	-0.021405047
69	0xbb76d095	-0.0037660946
70	0x3d55906c	0.052139685
71	0x3bf1c62d	0.0073783607
72	0xbc8240c6	-0.015900027
73	0xbbd219a5	-0.0064117485
74	0xbd5afb3c	-0.053462252
75	0xbd94a7ab	-0.072585426
76	0x3cab96e7	0.02094598
77	0xbbd88738	-0.006607916
78	0x3ca4d5a6	0.020121407
79	0xbc948ae0	-0.018132627
80	0xbc66dc1f	-0.014090567
81	0xbd3905b7	-0.045171466
82	0x3bdb1293	0.006685564
83	0xbd5762ed	-0.052584577
84	0x3cc80220	0.024415076
85	0xbd4a7d6d	-0.04943602
86	0x3d052697	0.032507505
87	0x3c85234c	0.016252182
88	0x3c6ba54c	0.014382672
89	0x3d097714	0.033560827
90	0x3b7014b3	0.0036633431
91	0x3d0b13e0	0.0339545
92	0x3d6ee493	0.058323454
93	0xbc7bb31d	-0.015362528
94	0xbd02825c	-0.0318626
95	0xbd867640	-0.06565523
96	0x3d94acfb	0.07259556
97	0xbd35d891	-0.044395987
98	0xbb85f4cb	-0.0040880195
99	0xbd1e379e	-0.03862726
100	0x3d3a1024	0.04542555
101	0x3d0e82c1	0.034792665
102	0x3d2819e9	0.041040335
103	0xbd62db4e	-0.055384926
104	0x3cee63f0	0.029100388
105	0xbd04790f	-0.032342013
106	0x3ca6f274	0.020379283
107	0xbcc1e568	-0.02366896
108	0xbd920f34	-0.07131806
109	0xbd6c0495	-0.057621557
110	0xb9879840	-0.00025862642
111	0x3d1eb885	0.03875019
112	0xbc5e51fd	-0.013569352
113	0x3d99fc0a	0.07518776
114	0x3c893fa2	0.016753975
115	0xbcfed805	-0.031108866
116	0xbd876288	-0.0661059
117	0x3d45162a	0.04811684
118	0xbd6771a1	-0.05650485
119	0xbd0aecc3	-0.0339172
120	0x3d29b34e	0.041430764
121	0xbc4bc434	-0.012436915
122	0x3dc94cf6	0.09829132
123	0x3d54dbbe	0.051967375
124	0xbc8d2fb6	-0.017234664
125	0x3d8535b0	0.06504381
126	0xbd2f5c62	-0.042812712
127	0x3c9817a2	0.018565957
128	0xbd50fd7d	-0.051022995
129	0x3cd9257f	0.026507137
130	0x3cc061ce	0.023484137
131	0x3d2bbce3	0.041928183
132	0xbcd59a96	-0.026074689
133	0x3d4986f7	0.049200978
134	0xbc1fcf0c	-0.009753954
135	0xbcf99fb1	-0.030471655
136	0x3d3e6d1a	0.046490766
137	0xbd176574	-0.036961988
138	0x3d2b3295	0.041796286
139	0xbd167b55	-0.036738712
140	0xbd8c9bbe	-0.06865643
141	0x3ceafe32	0.028685663
142	0xbd3d25b4	-0.046178535
143	0x3c7ea9f3	0.015543449
144	0x3d2477b7	0.04015323
145	0xbd15aa7c	-0.03653954
146	0xbd26e434	-0.040744975
147	0xbc61172f	-0.013738438
148	0xbdc69cb7	-0.0969786
149	0x3cf64fff	0.030067442
150	0xbd7eab7a	-0.06217525
151	0x3d37cd2b	0.044873398
152	0xbd02e139	-0.03195307
153	0xbb5d8aa7	-0.0033804567
154	0x3c8fd800	0.017559052
155	0x39d4f617	0.00040619142
156	0xbd86e08c	-0.06585798
157	0xbc68a287	-0.014198906
158	0xbd5202ff	-0.05127239
159	0x3cb758da	0.022381235
160	0xbd4d0b3f	-0.050059553
161	0x3cf0906c	0.02936574
162	0x3c1bef98	0.009517573
163	0x3d27b4d7	0.040943947
164	0xbcd8e59a	-0.02647667
165	0x3cff17b5	0.031139234
166	0x3c8f799c	0.017514043
167	0x3c91cf90	0.017799169
168	0xbd7993a2	-0.06093181
169	0x3d0592da	0.03261075
170	0x3ccc056b	0.024904927
171	0xbb773f84	-0.0037727067
172	0x3d5126e9	0.0510625
173	0xbd293bea	-0.041316904
174	0x3cea50ef	0.028603045
175	0x3d5f961e	0.054586522
176	0xbd16fdd2	-0.036863156
177	0xbd61abb6	-0.055095397
178	0xbcdeb3fc	-0.027185433
179	0xbd903b5f	-0.07042574
180	0x3d331144	0.043717638
181	0x3c5add44	0.013358418
182	0x3d4f7add	0.05065428
183	0x3d69603d	0.056976546
184	0x3d4a716b	0.04942457
185	0xbd20aae2	-0.039225467
186	0xbbba0878	-0.005677279
187	0x3c05adb7	0.008159093
188	0x3ab56870	0.0013840329
189	0x3d2ec550	0.04266864
190	0x3d1e24d9	0.03860936
191	0x3d5a01f5	0.053224523
192	0x3d26b7d1	0.040702645
193	0x3c8e6a3a	0.017384637
194	0xbd6280e5	-0.055298705
195	0x3c4b7148	0.012417145
196	0x3bd16de9	0.006391276
197	0xbca326ea	-0.019916017
198	0x3d1d85f9	0.038457844
199	0xbc472724	-0.012155328
200	0x3be64736	0.007027532
201	0xbd47ed25	-0.048810143
202	0xbcd29b26	-0.025708746
203	0x3c321f13	0.0108716665
204	0x3c439b39	0.011938863
205	0xbbbdb333	-0.0057891845
206	0x3c638f9c	0.01388922
207	0xbc3b2b1e	-0.011423854
208	0xbca5df70	-0.020248145
209	0x3c3f4a88	0.0116754845
210	0x3c8b80c1	0.017029168
211	0x3cc5a14d	0.024124766
212	0x3d2fab22	0.042887814
213	0xbd612bb1	-0.054973308
214	0xbcad91eb	-0.021187743
215	0xbc2b9538	-0.010472588
216	0xbd71bf11	-0.059020106
217	0xbd90df3a	-0.07073827
218	0x3b073959	0.0020633547
219	0x3c87e096	0.016586583
220	0xbceafc0d	-0.02868464
221	0xbbb6ec8a	-0.005582397
222	0xbbcbc32f	-0.006218336
223	0x3d54050e	0.051762633
224	0xbdc7622c	-0.09735522
225	0xb99cc582	-0.00029901793
226	0xbd478738	-0.04871294
227	0xbc0435ec	-0.008069497
228	0x3c10a245	0.008827751
229	0xbc882a5a	-0.016621757
230	0x3cde1e10	0.027113944
231	0x3cab2d4f	0.020895628
232	0x3d71acab	0.05900256
233	0x3d3522bd	0.044222582
234	0xbbc461d2	-0.0059931064
235	0xbd87370d	-0.06602297
236	0xbb9ad890	-0.0047255233
237	0x3d629ba5	0.055324215
238	0x3d2fecea	0.04295055
239	0x3d1b0d17	0.03785428
240	0xbd9b65d1	-0.07587779
241	0xbd810e72	-0.06301583
242	0xbd8d02f9	-0.068853326
243	0x3cffde33	0.031233883
244	0xbd0e25a6	-0.034703873
245	0x3ce86117	0.028366609
246	0xbd2265a0	-0.0396477
247	0x3caaaca0	0.020834267
248	0xbda191dc	-0.078891486
249	0x3d029176	0.031877004
250	0xbc8f35dd	-0.017481739
251	0x3c15413f	0.009109794
252	0x3cc27dc4	0.02374161
253	0x3d26dc70	0.04073757
254	0xba8752e4	-0.0010324386
255	0xbd66072d	-0.056159187

fc3.bias f4 [256]
0	0x3ced658b	0.028979084
1	0x3cde688f	0.027149467
2	0x3e011bf6	0.12608323
3	0x3d512d34	0.0510685
4	0xbd7a4473	-0.061100435
5	0xbb9b693b	-0.004742769
6	0x3cf37e91	0.029723438
7	0xbdae0a63	-0.08498075
8	0xbc33a4bd	-0.01096457
9	0x3c1954f3	0.009358632
10	0x3caa6f20	0.020804942
11	0xbdb34f77	-0.08755391
12	0x3dbe2fa1	0.09286428
13	0x3da97dac	0.08275923
14	0xbd0cafb4	-0.03434725
15	0xbb4c7ec7	-0.0031203495
16	0x3d0a4e6a	0.033766188
17	0x3da2c7ff	0.079483025
18	0xbd2d641b	-0.042331796
19	0xbda027c5	-0.078200854
20	0xbd495a5c	-0.04915844
21	0x3cca7ee7	0.024718715
22	0xbd9b5833	-0.07585182
23	0x3db5674c	0.08857593
24	0xbd6164e9	-0.055027876
25	0x3b91201a	0.0044288756
26	0xbd420a20	-0.047372937
27	0x3dd062b3	0.101750754
28	0xbd8bb7b8	-0.06822151
29	0x3d0113b3	0.031512927
30	0x3d32b4c0	0.043629408
31	0x3dc8ec34	0.09810677
32	0xbc0ebdaa	-0.008712212
33	0xbd1c8220	-0.038210034
34	0x3d1e2c71	0.0386166
35	0x3d048903	0.032357227
36	0xbdc863c7	-0.09784656
37	0xbbba0d7f	-0.0056778784
38	0xbcf10852	-0.029422913
39	0xbd29db83	-0.04146911
40	0x3cf17619	0.029475259
41	0x3d247252	0.040148087
42	0xbd76cc0f	-0.0602532
43	0xbd2dfb10	-0.04247576
44	0x3ccafe1f	0.024779378
45	0x3d6d7239	0.05797026
46	0x3d8784ba	0.066171125
47	0xbcb86577	-0.02250932
48	0x3d7029f7	0.05863377
49	0xbd816dd4	-0.06319776
50	0xbcbfebc8	-0.023427859
51	0xbd514baf	-0.051097568
52	0x3b9cd1f1	0.004785769
53	0xbd01efce	-0.031722836
54	0xbdf0b1d5	-0.11752669
55	0x3d41906a	0.047256865
56	0x3c22c42a	0.0099344645
57	0xbda03d68	-0.07824212
58	0x3d8c4db4	0.06850758
59	0x3cd310ff	0.02576494
60	0x3c832950	0.01601091
61	0xbd1ff979	-0.039056275
62	0xbd85312a	-0.06503518
63	0x3bf4ff14	0.0074766967
64	0x3cc37123	0.023857659
65	0x3d143270	0.036180913
66	0x3dc572f8	0.09641069
67	0xbd0ad265	-0.033892054
68	0x3c6fe5b9	0.0146421725
69	0xbd95b698	-0.073102176
70	0x3dc1cd9b	0.09463044
71	0x3dcd52c2	0.100255504
72	0x3d888062	0.06665112
73	0xbd1931d9	-0.037401054
74	0xbde8cc9b	-0.113671504
75	0xbc9dd774	-0.019267775
76	0x3dac79c9	0.08421666
77	0xbceb4d39	-0.028723346
78	0xbdb6dd2d	-0.08928905
79	0xbca23f64	-0.019805618
80	0xbe134145	-0.14380367
81	0x3d96b3c3	0.073585056
82	0xbb9aad96	-0.0047204
83	0xbda799cd	-0.08183632
84	0xbd20fcd3	-0.039303612
85	0x3d7a1fd2	0.061065502
86	0x3dbce76c	0.09223828
87	0xbd1a7c82	-0.037716396
88	0x3d97f4ec	0.07419762
89	0x3ce3762f	0.027766315
90	0xbbfeb888	-0.0077734627
91	0xbcec5e22	-0.02885348
92	0x3ccf7d64	0.025328346
93	0xbde94ea6	-0.11391954
94	0xbded6fe7	-0.11593609
95	0xbcb9024f	-0.022584109
96	0x3da43297	0.08017462
97	0x3d347c29	0.04406372
98	0x3cf4ac20	0.029867232
99	0x3d07b276	0.033129178
100	0xbd3ead41	-0.046551947
101	0x3d136801	0.035987858
102	0x3d90619e	0.07049869
103	0x3d1fb0cf	0.038986977
104	0xbdadda47	-0.08488899
105	0x3d89a5f4	0.06721106
106	0x3d99ad07	0.075037055
107	0xbd28bb0b	-0.041194003
108	0xbd7926a9	-0.060827885
109	0x3cbccda3	0.023047274
110	0x3de8f3fb	0.113746606
111	0x3c91839b	0.01776295
112	0xbc6655d1	-0.014058546
113	0x3c3a179a	0.011358166
114	0x3d1ff9f9	0.039056752
115	0x3cd0dcb0	0.025495857
116	0x3a4e1b38	0.0007862332
117	0x3dab10b1	0.08352793
118	0x3dbc1bb9	0.09184975
119	0x3dac6f5b	0.08419677
120	0xbd2220e4	-0.03958215
121	0x3ceeea11	0.029164346
122	0xbcf1bf44	-0.029510148
123	0x3d297cf0	0.041378915
124	0x3d7f04f6	0.06226059
125	0xbd6f8b6e	-0.05848258
126	0x3c830ab9	0.015996324
127	0xbda75bec	-0.081718296
128	0x3d957c59	0.07299108
129	0xbcddc74e	-0.027072575
130	0xbd7b6957	-0.061379757
131	0x3d3c9cbf	0.046047922
132	0xbd93cddc	-0.07216999
133	0x3d425346	0.047442697
134	0x3d78e008	0.060760528
135	0xb9653476	-0.00021858685
136	0xbdb69465	-0.08915023
137	0xbda2f5bd	-0.07957027
138	0xbbd6ebb9	-0.006558862
139	0x3cb0d84e	0.021587517
140	0xbd2da31b	-0.042391878
141	0xbd135104	-0.035965934
142	0xbe20e812	-0.15713528
143	0xbd63d397	-0.05562171
144	0xbcb9039f	-0.022584734
145	0xbc6b8b5a	-0.014376486
146	0xbd913159	-0.070894904
147	0xbd2f1775	-0.04274698
148	0x3da62848	0.08113152
149	0xbc8ee0ce	-0.01744118
150	0x3d9930f7	0.074800424
151	0x3ce87999	0.028378295
152	0xbcb8e632	-0.022570703
153	0x3d7d61f3	0.06186099
154	0x3d5c9134	0.053849414
155	0xbd71f6b6	-0.059073173
156	0x3daef2e7	0.08542424
157	0xbd1110ec	-0.03541653
158	0x3d8a2f73	0.067473315
159	0xbd1aad46	-0.037762903
160	0x3cdbd3f8	0.026834473
161	0xbca1d111	-0.019753011
162	0xbe06909a	-0.13141099
163	0xbab66951	-0.0013916885
164	0xbd1a3410	-0.037647307
165	0x3c4ebeab	0.012618701
166	0x3d88ff00	0.066892624
167	0x3baebf80	0.005332887
168	0x3d99dd63	0.07512929
169	0xbd3bcdaa	-0.045850433
170	0x3daec7b6	0.085341856
171	0x3d55f7ab	0.052238148
172	0xbd854f28	-0.065092385
173	0xbd626c6c	-0.05527918
174	0xbcc9afa4	-0.024619885
175	0x3db99a19	0.09062595
176	0x3de311cb	0.11087378
177	0xbda7922c	-0.08182177
178	0x3d9f06da	0.07764979
179	0x3bf5cf0f	0.00750149
180	0xbd018ef8	-0.031630486
181	0xbb0742f1	-0.0020639265
182	0x3d74090c	0.05957894
183	0xbdb106ab	-0.0864385
184	0x3d84d949	0.06486756
185	0xbe2faca5	-0.17155702
186	0xbd64ac10	-0.055828154
187	0xbde0bd32	-0.10973586
188	0x3d91ede8	0.07125455
189	0xbd0261a8	-0.031831414
190	0xbcaacb48	-0.020848885
191	0x3d5e68fc	0.05429934
192	0xbd8f588c	-0.06999311
193	0xbd2d7611	-0.042348925
194	0xbdbe46bd	-0.09290836
195	0x3d8346e4	0.06410006
196	0xbdf1e287	-0.11810785
197	0xbd61dd09	-0.055142436
198	0x3d63c54f	0.05560809
199	0x3cc29517	0.023752732
200	0xbd15b1c4	-0.036546484
201	0xbd8d83af	-0.06909882
202	0x3d085793	0.033286642
203	0xbde89c8e	-0.113579854
204	0xbd0e0a2c	-0.03467767
205	0xbd728c1c	-0.05921565
206	0x3cac6d86	0.021048319
207	0xbcdcbd0d	-0.026945615
208	0xbd0650a4	-0.03279175
209	0x3d85e55f	0.0653789
210	0x3d4bf3d2	0.049793072
211	0xbe00bd53	-0.12572221
212	0x3d6a1333	0.057147216
213	0x3cbe23d6	0.023210447
214	0x3aed6b91	0.0018113722
215	0xbcba1335	-0.022714237
216	0xbdcfed90	-0.10152733
217	0xbb8dcea3	-0.0043276115
218	0xbdb69a0a	-0.08916099
219	0xbcb3bc3d	-0.021940345
220	0xbdaa1a5e	-0.083058104
221	0xbdb26b19	-0.087118335
222	0x3d54a866	0.05191841
223	0xb8e96638	-0.000111293455
224	0xbd800acf	-0.062520616
225	0xbd49aa25	-0.049234528
226	0xbd86b57a	-0.06577583
227	0x3c9ea969	0.01936789
228	0x3d35b73b	0.044364195
229	0x3de73434	0.11289254
230	0xbd87e15f	-0.06634783
231	0xbc651e3d	-0.01398426
232	0xbb45e78c	-0.0030197827
233	0x3d828309	0.06372649
234	0xbd8f583c	-0.06999251
235	0xbc103049	-0.008800575
236	0xbd3853ad	-0.045001674
237	0xbcc71d0a	-0.02430584
238	0xbcd34c0e	-0.025793102
239	0xbd4eb315	-0.050463755
240	0xbd79195c	-0.0608152
241	0xbd7ef271	-0.06224293
242	0x3c736bde	0.0148572605
243	0xbd610d4a	-0.054944314
244	0xbcd7973a	-0.026317228
245	0x3dcd8332	0.10034789
246	0xbdad7349	-0.084692545
247	0xbda0cc2e	-0.07851444
248	0x3d975220	0.07388711
249	0x3d10dcc2	0.03536678
250	0xbcf7fdda	-0.030272413
251	0x3bf5174e	0.007479585
252	0xbd7546f5	-0.059882123
253	0xbdb6f96c	-0.08934292
254	0xbd9f2135	-0.077700056
255	0xbd10dff2	-0.03536982

action_out.weight f4 [4, 256]
0	0x3c280a7d	0.010256407
1	0x3cedeb66	0.02904291
2	0x3d5309fb	0.05152319
3	0xbd6ab8cb	-0.05730514
4	0x3c0b1dbc	0.008490976
5	0x3dc05890	0.09391892
6	0xbd1012d7	-0.035174217
7	0x3d00ea30	0.03147334
8	0xbc8030e9	-0.015648322
9	0x3ca9e9a0	0.020741284
10	0xbd82da6b	-0.06389316
11	0xbcaa948e	-0.02082279
12	0x3d2ef0c1	0.04271007
13	0x3d279207	0.040910747
14	0x3cc7e7d6	0.02440254
15	0x3c710cce	0.0147125255
16	0x3c6b8bab	0.014376561
17	0x3d69026e	0.056887083
18	0x3d4321de	0.04763972
19	0xbb77e974	-0.0037828358
20	0x3d1eb9ed	0.03875153
21	0xbb124ee9	-0.0022324866
22	0xbd1cfd34	-0.03832741
23	0x3d341efb	0.043974858
24	0x3d0fd44d	0.035114575
25	0xbd9c8257	-0.07642048
26	0xbd9e5336	-0.07730715
27	0x3bc76142	0.006084592
28	0x3d80aaec	0.06282601
29	0x3d1e5adc	0.03866087
30	0x3cc0d9a7	0.023541285
31	0x3da1fb72	0.079092875
32	0xbc8f714a	-0.017510075
33	0xbc2c0721	-0.010499747
34	0xbcf0e692	-0.02940682
35	0xbc386bc3	-0.011256161
36	0x3dc97f84	0.09838775
37	0xbc767565	-0.0150426375
38	0xbd43f945	-0.047845144
39	0x3d3bbd4b	0.04583482
40	0xbc22de19	-0.0099406475
41	0xbc1f068b	-0.00970615
42	0xbc73f8bb	-0.014890845
43	0x3d464b01	0.048411373
44	0xbd55c843	-0.052192938
45	0x3c2816ce	0.010259343
46	0x3cfe94ba	0.031076778
47	0xbd5f2051	-0.05447418
48	0x3c0ec741	0.008714498
49	0xbd88f384	-0.06687072
50	0x3af0eee2	0.001838174
51	0x3b9f73ce	0.0048661
52	0x3d2c5735	0.042075355
53	0x3d39d9f8	0.045373887
54	0xbd3952ad	-0.04524486
55	0x3cd81e74	0.026381709
56	0x3d06b21f	0.032884713
57	0xbd3081e0	-0.04309261
58	0x3d1c7a89	0.038202796
59	0xbd0169d6	-0.031595074
60	0x3e04d594	0.12972099
61	0x3a701b82	0.00091593724
62	0x3d0a0d29	0.033703957
63	0x3ccc4dcd	0.024939442
64	0xbcb22f63	-0.021751111
65	0x3d1d7c51	0.038448635
66	0x3d7417bc	0.059592947
67	0xbd6bf610	-0.05760771
68	0x3d5c1575	0.0537314
69	0xbd6160b8	-0.05502388
70	0x3d80766d	0.06272588
71	0x3da17b74	0.07884875
72	0x3d9a327b	0.0752916
73	0xbdc76480	-0.09735966
74	0x3c6ea271	0.014565096
75	0x3b802d9b	0.0039116866
76	0xbcf45d41	-0.029829623
77	0x3d2bf12c	0.041978046
78	0x3c3a70b1	0.011379407
79	0xbbf18d46	-0.0073715774
80	0x3cf48917	0.029850526
81	0xbb0a064e	-0.0021060887
82	0xbc278268	-0.010223962
83	0xbd87bc85	-0.06627754
84	0x3cb09567	0.021555616
85	0x3c1f5b28	0.009726323
86	0x3d009062	0.031387694
87	0xbc212c6f	-0.009837254
88	0xbd13c713	-0.036078524
89	0x3b62c441	0.003460184
90	0xbcc60df0	-0.024176568
91	0xbcc722c3	-0.024308568
92	0x3cab31e1	0.020897808
93	0xbc841563	-0.01612348
94	0x3b89a98c	0.0042011198
95	0xbd7afad3	-0.06127436
96	0xbd15c3fb	-0.036563855
97	0xbd71f0dd	-0.059067596
98	0xbccfe686	-0.025378477
99	0x3c4ce972	0.01250683
100	0xbcda94d1	-0.02668229
101	0xbcec86ee	-0.028872933
102	0xbcbc3fdd	-0.022979671
103	0x3d799919	0.06093702
104	0xbcc4331a	-0.023950148
105	0x3d36a5da	0.044591762
106	0xbc976407	-0.018480314
107	0x3b9dbd5e	0.004813834
108	0xbbb998ee	-0.0056639826
109	0x3cd4c084	0.025970705
110	0x3d8c63f0	0.06854999
111	0xbc9c7bb7	-0.01910196
112	0xbd154911	-0.036446635
113	0x3cf20b3d	0.029546374
114	0xbd0bdacb	-0.034144204
115	0xbd9f4c70	-0.07778251
116	0x3c30d87c	0.010793801
117	0xbc1fbd32	-0.0097496975
118	0x3d21d2cc	0.039507672
119	0xbd190239	-0.037355635
120	0xbd6b9330	-0.057513416
121	0xba335c91	-0.00068421016
122	0xbd04ea82	-0.032450207
123	0x3d844270	0.064579844
124	0xbc16b6a5	-0.009198819
125	0x3cedf494	0.029047288
126	0x3c867c81	0.01641679
127	0xbc79ec74	-0.015254129
128	0xbca4e382	-0.020128015
129	0xbce67e39	-0.02813636
130	0xbc762caf	-0.015025302
131	0xbd20e5f9	-0.03928182
132	0x3d45c537	0.04828378
133	0xbc565ad0	-0.013083175
134	0x3d45ba04	0.0482731
135	0xbcaa473d	-0.020785922
136	0xbc2ea96b	-0.01066051
137	0xbcd4807f	-0.025940178
138	0x3d7ecca1	0.062206868
139	0xbdcba94f	-0.099444024
140	0x3d095cd5	0.033535797
141	0x3b9d65df	0.0048034037
142	0xbd368be3	-0.044567
143	0x3d716370	0.05893272
144	0xbd2efa47	-0.04271915
145	0x3d72d7fb	0.059288006
146	0x3c07260f	0.00824882
147	0xbd44d03d	-0.048050154
148	0xbd5c3091	-0.053757254
149	0x3d5fde39	0.054655287
150	0x3c7cd388	0.015431292
151	0xbd4f37f3	-0.050590467
152	0xbc86eba1	-0.016469778
153	0xbd381499	-0.04494152
154	0xbcfd7f37	-0.03094445
155	0xbcc0bf44	-0.023528703
156	0xbd600c20	-0.054699063
157	0xbccde52b	-0.02513369
158	0x3d946f30	0.0724777
159	0x3d4387dc	0.047736987
160	0xbcfd3277	-0.030907853
161	0x3c91929d	0.017770106
162	0xbdddbfe5	-0.108276166
163	0xbca6c3a8	-0.020356968
164	0xbd0aea6e	-0.033914976
165	0x3cb913a1	0.022592368
166	0x3d19ab5e	0.037516944
167	0x3b8ca1aa	0.004291733
168	0x3cffb22a	0.031212885
169	0x3c40d664	0.011769865
170	0x3d13b100	0.036057472
171	0xbd11d87f	-0.035606857
172	0x3cbf5075	0.023353795
173	0x3d683580	0.056691647
174	0x3bd684c2	0.0065465877
175	0x3d383493	0.044972014
176	0x3d0913c9	0.033466134
177	0x3ba5a9f5	0.005055661
178	0xbd32bd45	-0.043637533
179	0x3cdba675	0.026812771
180	0xbcdc4109	-0.02688648
181	0x3d146e72	0.03623814
182	0xbcd3613c	-0.0258032
183	0xbc768600	-0.0150465965
184	0x3bc29264	0.0059378613
185	0x3d286582	0.04111243
186	0xbcedea5b	-0.029042413
187	0xbdb1f49d	-0.086892344
188	0x3b554406	0.0032541766
189	0x3d7ca106	0.061677
190	0x3babaafc	0.005238889
191	0x3c241bd5	0.010016401
192	0x3d00031d	0.03125297
193	0x3c5535ab	0.013013284
194	0xbd5c67d4	-0.053809956
195	0xbd9778ff	-0.07396125
196	0x3dea13bc	0.11429545
197	0xbd14eab3	-0.03635664
198	0x3c77c17f	0.015121817
199	0xbd3e426f	-0.046450075
200	0xbc379689	-0.011205324
201	0x3d275edb	0.040861946
202	0xbcaa9dc2	-0.020827178
203	0xbdbb5b86	-0.09148316
204	0x3d7dcc8b	0.061962646
205	0xbce1d70a	-0.027568359
206	0x3915e39c	0.00014294538
207	0x3b949648	0.0045345165
208	0x3d2e62ee	0.042574815
209	0xbc9bfd7e	-0.019041773
210	0xbc0d073c	-0.008607682
211	0xbdc561af	-0.09637772
212	0xbc841706	-0.01612426
213	0x3c81120e	0.01575568
214	0x3ce6cb25	0.028173039
215	0xbd403b8e	-0.046931796
216	0x3cf68ed5	0.030097404
217	0xbcd98f8a	-0.026557703
218	0xbd2cbaf4	-0.04217048
219	0x3ca7e1a1	0.02049333
220	0xba1127bb	-0.00055372313
221	0xbd44ac5c	-0.048015937
222	0x3cb0fb50	0.02160421
223	0xbbe5cca7	-0.007012922
224	0x3d0e6083	0.03476001
225	0xbcb8fb94	-0.0225809
226	0xbd6f16f5	-0.058371503
227	0x3cde99fb	0.027173033
228	0x3cda0bab	0.026616892
229	0x3d82e57d	0.06391428
230	0x3abcee1a	0.0014414222
231	0xbe014fcc	-0.12628096
232	0xbcf9fd5f	-0.030516325
233	0xbc135317	-0.008991978
234	0x3cc838dd	0.024441177
235	0xbd2b7f6e	-0.041869573
236	0xbcaf9720	-0.021434367
237	0xbd17ff3c	-0.037108645
238	0xba5b9fd0	-0.0008378001
239	0x3cad61a6	0.021164726
240	0x3dd02e5c	0.10165092
241	0xbbf434dd	-0.007452591
242	0x3d11aa6d	0.03556292
243	0xbc3f61e8	-0.0116810575
244	0x3c2a1761	0.0103815505
245	0x3d38fde1	0.045163993
246	0x3d800f1b	0.06252881
247	0xbd94105c	-0.07229683
248	0x3ceed93e	0.029156324
249	0xb9824c9f	-0.0002485262
250	0x3c39b1fb	0.011333938
251	0xbc76fbc2	-0.015074672
252	0x3d050fb8	0.032485694
253	0xbcaa2516	-0.020769637
254	0xbd24bca6	-0.04021897
255	0x3c9eab6c	0.01936885

action_out.bias f4 [4]
0	0xbbafb5c1	-0.005362243
1	0xbca51960	-0.020153701
2	0xbced7f5c	-0.028991394
3	0x3bc6b0c1	0.006063551
