scripts/src/ai/saved_models/PandaPickAndPlace-v0/retract.pt (torch_old, 562133 bytes, 8 tensors)

fc1.weight f4 [256, 28]
0	0x3db29fd4	0.08721891
1	0x3d982dce	0.074306116
2	0xbe103e29	-0.14086212
3	0x3e6631a4	0.22479874
4	0xbd7957e7	-0.060874846
5	0x3e210268	0.15723574
6	0xbd305cc1	-0.043057207
7	0xbd8fd2a0	-0.070225954
8	0xbdc302cf	-0.0952202
9	0x3e057bc6	0.13035497
10	0x3d2e7781	0.042594437
11	0x3ceee2ed	0.029160941
12	0x3de8c7d8	0.11366242
13	0xbd122f0e	-0.035689406
14	0xbd889bb7	-0.06670325
15	0x3db130be	0.08651875
16	0x3dba285d	0.0908973
17	0x3d2210c0	0.039566755
18	0x3dafdd8b	0.08587178
19	0xbbeb91a6	-0.0071889935
20	0x3e3f74cf	0.18696903
21	0x3c839ea7	0.016066862
22	0xbe542e3d	-0.20720764
23	0x3d741520	0.05959046
24	0xbd2be588	-0.041966945
25	0xbdc89b66	-0.09795265
26	0xbd326aa4	-0.04355873
27	0x3e7f536f	0.24934171
28	0xbd5f5c38	-0.054531306
29	0xbe37082d	-0.17874213
30	0x3dcd77d5	0.10032622
31	0xbdca00fe	-0.098634705
32	0x3e239827	0.1597601
33	0x3e4363c6	0.1908103
34	0xba8aad1a	-0.0010580153
35	0xbd37877d	-0.044806946
36	0xbb717582	-0.0036843722
37	0xbd372702	-0.044714935
38	0x3b08474b	0.0020794447
39	0x3b6de36e	0.0036298889
40	0xbd8c5e67	-0.06853943
41	0xbe4ed78a	-0.20199409
42	0x3e32af92	0.17449787
43	0x3e1092e9	0.14118542
44	0x3b61d41d	0.0034458705
45	0xbd553258	-0.052049965
46	0x3e86dfd7	0.2634265
47	0xbd2642d8	-0.04059109
48	0x3e81e490	0.25369692
49	0xbcddf86a	-0.027095992
50	0x3cc6a524	0.024248667
51	0x3d746d63	0.05967463
52	0xbccebfb3	-0.025237894
53	0x3df16b4d	0.11788044
54	0x3d2da2f6	0.04239174
55	0xbee5f805	-0.44915786
56	0xbd12a090	-0.035797656
57	0x3d9de479	0.07709593
58	0xbd1ac19c	-0.037782297
59	0xbdcf546f	-0.10123526
60	0xbd9855ef	-0.074382655
61	0x3dc92115	0.09820763
62	0x3d45b889	0.04827169
63	0xbca12f27	-0.019675804
64	0x3d52f9eb	0.05150787
65	0xbced4852	-0.02896515
66	0xbdb1b050	-0.08676207
67	0x3cae4cf8	0.021276936
68	0xbe3d110c	-0.18463534
69	0xbe1a343f	-0.15058993
70	0x3d370731	0.044684593
71	0x3db20c73	0.08693781
72	0x3e293c55	0.16526921
73	0xbe94c77f	-0.29058453
74	0x3e46338c	0.19355601
75	0x3d955246	0.07291083
76	0x3e05af80	0.13055229
77	0x3b44f95d	0.0030055859
78	0x3d870926	0.06593542
79	0x3db4dece	0.08831559
80	0x3ccaa30e	0.024735954
81	0x3dac6801	0.08418275
82	0x3d6e83d9	0.05823121
83	0xbee3bc95	-0.44479814
84	0xbd3e54b4	-0.046467498
85	0xbe1bc88b	-0.1521322
86	0xbe2bccff	-0.16777419
87	0x3e762b60	0.24039984
88	0xbd0b15f1	-0.03395647
89	0x3da4ea6e	0.080525264
90	0xbcd00fd3	-0.02539817
91	0x3d0bad6d	0.03410094
92	0x3e6858e9	0.22690167
93	0x3d09e672	0.033667035
94	0xbe062dca	-0.13103405
95	0x3ce1c9a8	0.027561978
96	0xbd02dcb0	-0.031948745
97	0xbcd3bfff	-0.025848387
98	0xbd767a38	-0.06017515
99	0xbda9e0f2	-0.08294858
100	0xbb8c652c	-0.0042845216
101	0xbd917352	-0.07102074
102	0xbbc4887d	-0.005997716
103	0xbd34cb87	-0.04413941
104	0x3d17bdd7	0.03704628
105	0xbe00a617	-0.12563358
106	0x3d2ea801	0.04264069
107	0x3df6f4cf	0.12058412
108	0x3e213cbb	0.15745823
109	0xbe32786c	-0.1742875
110	0x3f002d48	0.50069094
111	0xbdb65dab	-0.089045845
112	0x3de56dbb	0.1120257
113	0xbcc2a326	-0.023759436
114	0x3bfb5383	0.0076698675
115	0x3d28c2c2	0.04120136
116	0xbe4c889f	-0.19973992
117	0x3dac19fc	0.084033936
118	0xbb3b8218	-0.0028611477
119	0x3ad9daed	0.0016621031
120	0xbc43f2e9	-0.01195977
121	0x3d2f2076	0.042755567
122	0x3d7dc4d8	0.061955303
123	0xbc718a1a	-0.014742399
124	0x3d549315	0.05189808
125	0x3d10d42a	0.035358585
126	0x3e10b206	0.1413041
127	0xbe0118e5	-0.12607153
128	0xbdef3202	-0.1167946
129	0x3d66915e	0.056290977
130	0x3bd65bfb	0.0065417266
131	0xbd42e168	-0.047578245
132	0xb9a79b48	-0.00031968416
133	0xbefc67e6	-0.49298018
134	0x3b019dd2	0.0019777906
135	0xbd2ed47a	-0.042683102
136	0xbc3d2728	-0.01154498
137	0x3c5354ff	0.012898683
138	0x3e565fac	0.20934933
139	0xbde45b79	-0.111502595
140	0x3cd532d9	0.026025223
141	0xbd6368d5	-0.055519897
142	0xbe2f4c69	-0.17118992
143	0x3e590f09	0.21197142
144	0x3c6c4358	0.014420353
145	0xbe24944a	-0.16072193
146	0xbde62f23	-0.11239459
147	0x3c0a16d6	0.008428296
148	0xbd6572a6	-0.05601754
149	0xbc916dbd	-0.017752523
150	0xbcff83f3	-0.031190848
151	0x3cd4a98c	0.025959753
152	0x3ddf7b12	0.10912146
153	0x3dae2674	0.08503428
154	0x3e10e231	0.14148785
155	0xbb0ec42d	-0.002178441
156	0xbeb0fb29	-0.3456662
157	0xbcf4ed55	-0.029898325
158	0x3dd0fc08	0.10204321
159	0x3d9a5f6e	0.07537733
160	0x3e3fb5ed	0.18721743
161	0x3c0cf63e	0.008603631
162	0xbf020ab1	-0.50797564
163	0x3e3286fe	0.17434308
164	0x3e18efaf	0.14935182
165	0xbc2ba7b3	-0.010476994
166	0x3d640acb	0.055674355
167	0x3eb6e6cc	0.3572296
168	0x3e14bb8a	0.14524665
169	0x3e3e3999	0.1857666
170	0xbccfed14	-0.025381602
171	0xbe55d029	-0.20880188
172	0x3e3f0c89	0.18657126
173	0x3da74f51	0.08169425
174	0x3d47a267	0.048738863
175	0x3d24913f	0.04017758
176	0xbdf753cb	-0.12076529
177	0x3d4965ed	0.04916947
178	0x3d9f6a73	0.077839755
179	0xbce5b7cf	-0.028041748
180	0x3c4cc880	0.012498975
181	0xbdd6d994	-0.104907185
182	0x3d8111b8	0.06302208
183	0xbda6be69	-0.081417866
184	0xbe79d18e	-0.24396345
185	0xbe3f21a4	-0.18665177
186	0xbbbc9574	-0.005755121
187	0x3d5e3aa3	0.05425514
188	0x3e6f0ee5	0.23345526
189	0xbec27d8d	-0.37986413
190	0x3c2626ed	0.010141117
191	0xbe6f8090	-0.23388886
192	0xbd414a09	-0.047189746
193	0xbd1d9e60	-0.038481116
194	0xbd9e1cbf	-0.07720327
195	0xbde1d404	-0.11026767
196	0x3e281f2f	0.16418146
197	0xbe7efab5	-0.24900325
198	0x3e0007cd	0.12502976
199	0x3e8a27d0	0.269835
200	0xbebe15d1	-0.3712602
201	0x3e60e840	0.21963596
202	0x3dc71958	0.09721631
203	0xbdbd9e0a	-0.09258659
204	0x3e3e12a8	0.18561804
205	0xbc2768e8	-0.010217883
206	0x3c943354	0.018090881
207	0x3c063eda	0.008193696
208	0x3d0db502	0.03459645
209	0xbd4de038	-0.05026266
210	0xbd47752a	-0.04869572
211	0x3bba0e07	0.0056779417
212	0x3d193fc3	0.037414324
213	0x3ba4f5e8	0.005034197
214	0x3bd6a8c8	0.006550882
215	0x3cac547c	0.021036379
216	0x3bc2f801	0.0059499745
217	0xbd8eaa75	-0.06966106
218	0xbb7ed780	-0.0038885772
219	0xbd18d543	-0.037312757
220	0xbd3fce5d	-0.046827663
221	0xbef456bd	-0.47722426
222	0x3f1868b7	0.5953478
223	0xbf671d7c	-0.90279365
224	0x3de8db5a	0.11369963
225	0xbe9c935a	-0.3058117
226	0xbc49389c	-0.012281563
227	0xbeff36e5	-0.4984657
228	0x3e74b717	0.23897968
229	0x3df3ebdd	0.11910222
230	0xbddacdc0	-0.10683775
231	0xbd4ebb88	-0.050471812
232	0xbda0c321	-0.07849718
233	0xbdb96532	-0.090525046
234	0xbc11151e	-0.008855132
235	0xbc8691a2	-0.016426865
236	0xbdc33dbe	-0.09533261
237	0x3e0b3735	0.13595279
238	0xbeb4c3c8	-0.3530562
239	0x3dd04db4	0.10171071
240	0xbd300fa8	-0.04298368
241	0x3e15b21a	0.14618722
242	0xbe12f63c	-0.14351743
243	0xbe1072d3	-0.14106302
244	0xbdeaf7f3	-0.11473074
245	0x3d73de98	0.059538454
246	0x3d8f4365	0.06995276
247	0xbd11fdba	-0.035642363
248	0xbd8df3f9	-0.069313
249	0x3ea063f3	0.31326255
250	0xbc2cb5d6	-0.0105414
251	0xbded7b6a	-0.11595805
252	0x3e52ebe4	0.20597798
253	0xbd55cd62	-0.05219782
254	0xbda0ec53	-0.07857575
255	0x3de52720	0.11189103

fc1.bias f4 [256]
0	0xbf76a961	-0.963522
1	0xbf56153a	-0.8362614
2	0xbf309c29	-0.6898828
3	0xbf0337c7	-0.51256984
4	0xbf861397	-1.0474728
5	0xbf5e609a	-0.8686615
6	0xbd1e74bb	-0.03868554
7	0xbea84a37	-0.3286912
8	0xbf88a2a3	-1.0674633
9	0xbea37230	-0.31923056
10	0xbe79e84a	-0.24405017
11	0xbee7539c	-0.45180976
12	0xbf059d1b	-0.5219285
13	0xbf1de86e	-0.61682785
14	0xbf34c999	-0.70620114
15	0xbf3c69d1	-0.73598963
16	0xbef99c00	-0.4875183
17	0xbf221790	-0.63317204
18	0xbebbe36e	-0.36696953
19	0xbf313cec	-0.69233584
20	0xbf4ad177	-0.7922587
21	0xbd99bcb6	-0.07506697
22	0xbf40e4d2	-0.7534915
23	0xbf0e5636	-0.556003
24	0xbf4bd144	-0.7961619
25	0x3f0f6bbd	0.5602377
26	0xbf71ef06	-0.94505346
27	0xbf49c9a5	-0.7882331
28	0xbf3b9a23	-0.7328207
29	0xbec77cf5	-0.38962522
30	0xbf5f83c7	-0.8731045
31	0x3eaf2998	0.3421142
32	0xbf1632fb	-0.5867154
33	0xbecfa8b9	-0.40558413
34	0x3d1a9e05	0.037748355
35	0xbebcfc27	-0.36911127
36	0xbf1983fe	-0.5996703
37	0xbf0fef39	-0.562244
38	0xbf528139	-0.8222843
39	0xbf59f89e	-0.85144985
40	0xbf8692e7	-1.0513581
41	0xbea6dc68	-0.32590032
42	0xbf6aeba4	-0.9176581
43	0xbf89aeb1	-1.0756437
44	0xbeea8b4f	-0.4580941
45	0xbecf4af9	-0.40486887
46	0xbe4c9a6f	-0.19980787
47	0xbcf7947e	-0.030222174
48	0xbf26441b	-0.6494767
49	0xbf2673ea	-0.6502062
50	0xbefbd0d8	-0.49182773
51	0xbf68b7d9	-0.9090553
52	0xbecfd21c	-0.40589988
53	0xbf2adfc6	-0.667477
54	0xbefc3f2c	-0.49266946
55	0xbf35da73	-0.7103645
56	0xbf3ce725	-0.737902
57	0xbf55f78e	-0.83580863
58	0xbf08a9e6	-0.53384244
59	0xbf1c0d1c	-0.60957503
60	0xbe3f1146	-0.18658933
61	0xbe6d03d0	-0.23145986
62	0xbf125676	-0.5716318
63	0xbf31f1cf	-0.69509596
64	0xbc86efb2	-0.016471718
65	0xbc7f409a	-0.015579367
66	0xbed38a7a	-0.41316587
67	0xbf3090fc	-0.6897123
68	0xbd46b415	-0.048511583
69	0xbf853ae4	-1.0408597
70	0xbde385c9	-0.11109502
71	0xbdf524ef	-0.11969935
72	0xbf14df2b	-0.5815303
73	0x3e869138	0.26282668
74	0x3e1514c8	0.14558709
75	0xbf2952e4	-0.66142106
76	0xbee8b24a	-0.45448524
77	0xbf4d4b5a	-0.801931
78	0xbf33e05f	-0.7026424
79	0xbf44075b	-0.76573724
80	0xbf2fe28d	-0.68705064
81	0xbf8336e7	-1.025113
82	0xbf39d7a6	-0.7259468
83	0xbea74058	-0.32666278
84	0xbef675e9	-0.48136833
85	0xbf5c8fa5	-0.86156684
86	0xbf23c245	-0.63968307
87	0xbee40eeb	-0.44542632
88	0xbefe2fb8	-0.49645782
89	0xbf25cbe1	-0.6476422
90	0xbe4b5d2f	-0.19859765
91	0xbf37e405	-0.71832305
92	0xbf614660	-0.8799801
93	0xbf03f63b	-0.5154759
94	0xbd55bef8	-0.052184075
95	0xbf2b1545	-0.6682933
96	0xbee5c67a	-0.44877988
97	0xbf0066fa	-0.5015713
98	0xbf4a1e1c	-0.78952193
99	0xbdd0c539	-0.10193867
100	0xbf6a1b29	-0.91447693
101	0xbe915461	-0.28384688
102	0xbec4dbc8	-0.3844893
103	0xbf1ddd20	-0.61665535
104	0xbeba02a0	-0.36330128
105	0xbf68ca3d	-0.9093359
106	0x3e7135c0	0.2355566
107	0xbf2ae721	-0.66758925
108	0xbf5e3a0d	-0.8680733
109	0xbf53c5ff	-0.82723993
110	0xbf542ba7	-0.8287911
111	0xbef6fe44	-0.48240864
112	0xbddfbbc6	-0.10924487
113	0xbf3a776e	-0.72838485
114	0xbf77a707	-0.9673924
115	0xbec06187	-0.37574407
116	0xbf398e03	-0.7248232
117	0xbf8ba7de	-1.0910604
118	0x3d2f0452	0.04272873
119	0xbf25088f	-0.64466184
120	0xbf2ccb43	-0.6749765
121	0xbf2d8030	-0.67773724
122	0xbf27dfa1	-0.65575606
123	0xbf0b57a5	-0.5443061
124	0xbf5e01bf	-0.86721414
125	0xbddb3e06	-0.107051894
126	0xbec4609c	-0.38354957
127	0xbeb9482b	-0.36187872
128	0xbec27367	-0.3797867
129	0x3e1afeb7	0.15136229
130	0xbf06df14	-0.5268414
131	0xbf6bd43c	-0.9212072
132	0xbf0622b9	-0.5239673
133	0xbe528f5c	-0.205625
134	0xbf3ddba6	-0.7416328
135	0xbf19061c	-0.5977495
136	0xbeaac6dd	-0.33354846
137	0xbf817d8b	-1.0116438
138	0xbef070dc	-0.46961105
139	0x3d188262	0.037233718
140	0xbf4d65fc	-0.8023374
141	0xbf800a00	-1.0003052
142	0xbe877545	-0.26456657
143	0xbed9e1c4	-0.42555058
144	0xbf159bc4	-0.58440804
145	0xbf12b2cf	-0.5730409
146	0xbef7607e	-0.48315805
147	0xbeca6767	-0.39532015
148	0x3d8f6e88	0.07003504
149	0xbd8cbdf7	-0.068721704
150	0x3eb3fcb1	0.35153726
151	0xbf399d8d	-0.7250603
152	0xbf1e85e8	-0.61923075
153	0xbf06d78b	-0.5267264
154	0xbf4312d9	-0.76200634
155	0xbf438100	-0.76368713
156	0xbf7a11b8	-0.97683287
157	0xbf0bb893	-0.5457851
158	0xbf4752bf	-0.77860636
159	0xbf52fefb	-0.8242032
160	0x3dd10e56	0.102078125
161	0xbd97fe0c	-0.074215025
162	0xbf3be633	-0.7339813
163	0xbf30c158	-0.6904502
164	0xbe85d76d	-0.2614092
165	0xbed3bbf1	-0.41354325
166	0x3e9d0808	0.3067019
167	0xbed26209	-0.4109042
168	0xbf1cc91b	-0.6124436
169	0x3c9d8e39	0.019232856
170	0xbf0d43c8	-0.5518155
171	0xbf10a622	-0.565035
172	0xbf2aed03	-0.667679
173	0xbee99bad	-0.45626584
174	0xbe923b7a	-0.28561002
175	0xbeb38201	-0.35060123
176	0x3e8f0a14	0.27937376
177	0xbf506192	-0.8139888
178	0xbf14f3e2	-0.58184636
179	0xbf01ab5b	-0.5065209
180	0xbf34c964	-0.706198
181	0xbef7d3c9	-0.48403767
182	0xbf632169	-0.88722855
183	0xbf78a775	-0.9713052
184	0xbe1b7cfa	-0.15184394
185	0xbe964e0a	-0.29356414
186	0xbf448252	-0.76761353
187	0xbf144792	-0.5792171
188	0xbf132eb2	-0.57493126
189	0xbf27ef42	-0.65599453
190	0xbf83033f	-1.0235366
191	0xbe787538	-0.24263465
192	0xbe8fe362	-0.28103167
193	0x3e9c57c2	0.30535704
194	0xbe8def84	-0.27721798
195	0xbf5e8d22	-0.869341
196	0xbf1f7202	-0.6228334
197	0xbf69abe1	-0.9127789
198	0xbf3fcac3	-0.74918765
199	0xbf51db19	-0.8197494
200	0xbee9ba8b	-0.45650133
201	0xbf3f5e93	-0.74753684
202	0xbebc90c3	-0.36829194
203	0x3eea71a2	0.4578982
204	0xbdbddeeb	-0.09271034
205	0xbf306edc	-0.6891916
206	0xbf56a47c	-0.83844733
207	0xbf3292d0	-0.6975527
208	0xbe419b93	-0.18907003
209	0xbe921933	-0.2853485
210	0xbeaa7e59	-0.3329952
211	0xbefe85c4	-0.4971143
212	0x3ddc3323	0.10751941
213	0xbf44b7fa	-0.76843226
214	0xbe9392bc	-0.28822887
215	0xbf7e621d	-0.9936846
216	0xbf478338	-0.779346
217	0xbf0ff7ea	-0.5623766
218	0xbf0075e2	-0.50179875
219	0xbd627b55	-0.0552934
220	0xbf2652de	-0.64970195
221	0xbc91668a	-0.01774909
222	0xbd195f78	-0.03744456
223	0x3d9f8434	0.077888876
224	0xbef024ba	-0.4690302
225	0x3e49db05	0.19712456
226	0x3da90086	0.08252053
227	0xbe8231e6	-0.25428694
228	0xbf309a35	-0.689853
229	0xbf4fd82c	-0.8118923
230	0xbf456986	-0.7711414
231	0xbf34b729	-0.7059198
232	0xbf0a0662	-0.5391599
233	0xbf2c2fb9	-0.6726032
234	0xbf09dec7	-0.53855556
235	0x3e9e4bbc	0.30917156
236	0xbedf13e9	-0.43569878
237	0xbf465e07	-0.77487224
238	0xbf14c020	-0.5810566
239	0xbf8a79d3	-1.0818428
240	0x3e79c20d	0.24390431
241	0xbf7405f3	-0.9532158
242	0xbf4486dc	-0.7676828
243	0xbe02e1d2	-0.12781456
244	0xbf0b62f3	-0.5444786
245	0xbf4c47f9	-0.7979732
246	0xbf2b58b0	-0.669322
247	0xbf0d95e1	-0.5530682
248	0xbef12b20	-0.47103214
249	0xbf317435	-0.6931794
250	0xbf7e320e	-0.9929513
251	0xbf72c836	-0.9483675
252	0xbef0c295	-0.47023454
253	0x3e2c904f	0.16851924
254	0xbf23399e	-0.6375979
255	0x3e2c0709	0.16799559

fc2.weight f4 [256, 256]
0	0xbeddabd3	-0.43295154
1	0x3e1d3e3e	0.15355775
2	0x3e754773	0.23953037
3	0x3ecefdfe	0.40428156
4	0xbc15c70b	-0.009141694
5	0x3cb9ffcd	0.022704983
6	0x3da41b67	0.08013039
7	0xbbffd84e	-0.007807768
8	0xbc8c0406	-0.017091762
9	0xbee77c2c	-0.45211923
10	0xbeba161f	-0.36345002
11	0x3e2bebc5	0.16789158
12	0xbdb99219	-0.09061069
13	0xbdaffdc8	-0.08593327
14	0x3e57873a	0.21047679
15	0xbec02e2e	-0.37535232
16	0xbf106c04	-0.5641482
17	0xbe82b8fd	-0.2553176
18	0x3e066b84	0.13126951
19	0x3e10396c	0.14084405
20	0xbd2c4e39	-0.042066786
21	0xbe32af92	-0.17449787
22	0x3e85f8b0	0.26166296
23	0xbafa813e	-0.0019112004
24	0xbe753363	-0.23945384
25	0x3cc1c70d	0.023654485
26	0xbd9ded49	-0.07711274
27	0xbec31a57	-0.38106033
28	0xbe9af317	-0.30263588
29	0xbd2a9a0e	-0.041650824
30	0xbef1b255	-0.4720637
31	0x3d812d48	0.06307465
32	0x3cf5bee8	0.029998258
33	0xbebde85c	-0.3709134
34	0x3d47e1cf	0.048799332
35	0xbe452b55	-0.19254811
36	0xbe343ec2	-0.17602065
37	0xbe92319f	-0.28553483
38	0x3edd27af	0.4319434
39	0x3e44a40b	0.19203202
40	0xbd7db7b4	-0.06194277
41	0xbdd7b85e	-0.10533212
42	0x3d8d02a3	0.068852685
43	0x3ead4e39	0.33848742
44	0x3cf81b49	0.030286448
45	0x3dfe5149	0.12417848
46	0xbe8b263e	-0.27177614
47	0xbda9f3b4	-0.08298436
48	0xbd2c67f8	-0.04209134
49	0x3c0c13fb	0.008549686
50	0x3d36f8d7	0.044670906
51	0xbe03e4b2	-0.12880209
52	0x3dd7094a	0.104998186
53	0xbd27f4e9	-0.04100505
54	0xbe2c72bd	-0.16840644
55	0x3e8fffbb	0.28124794
56	0x3ea89fcf	0.32934424
57	0xbec9cf0a	-0.3941577
58	0xbe578b51	-0.21049239
59	0xbd4c8d7b	-0.049939614
60	0x3e939110	0.2882161
61	0xbdaea8cb	-0.085282885
62	0x3e23762c	0.15963048
63	0xbf110733	-0.5665161
64	0xbcc59981	-0.024121048
65	0xbdd64563	-0.10462453
66	0x3ddb8963	0.10719564
67	0xbe623a4e	-0.22092554
68	0xbdccad22	-0.0999396
69	0xbcf18dad	-0.029486502
70	0x3d7bca4d	0.061472226
71	0x3b06456a	0.0020488151
72	0xbcd86dae	-0.026419487
73	0xbe1e61be	-0.15466973
74	0x3e2d7a6a	0.16941229
75	0xbeb7d2fe	-0.35903162
76	0xbf49b836	-0.7879671
77	0xbdf4acdd	-0.119470336
78	0xbca509f0	-0.02014634
79	0x3dc57d19	0.09643001
80	0x3cc0e766	0.02354784
81	0xbeab0bfb	-0.33407578
82	0x3d8124b9	0.063058324
83	0x3db3e31d	0.08783553
84	0xbe234ea3	-0.15947966
85	0xbe279cf4	-0.16368467
86	0x3d8018b0	0.06254709
87	0xbe28d879	-0.16488828
88	0xbc6b82e1	-0.014374466
89	0x3de8f9c0	0.11375761
90	0xbe8f836a	-0.28029948
91	0x3cfb18d4	0.030651487
92	0x3ed57bb4	0.4169594
93	0xbecdacd3	-0.40170917
94	0x3d856252	0.06512894
95	0xbf06ebf3	-0.5270378
96	0xbdcc162c	-0.099651664
97	0x3dd61177	0.1045255
98	0x3e42723e	0.18988892
99	0x3c54a974	0.012979854
100	0xbe19fbd9	-0.15037479
101	0x3dc52cef	0.09627711
102	0xbc06980d	-0.008214963
103	0x3c80f70e	0.015742805
104	0xbd2c980d	-0.042137194
105	0x3daaf043	0.083466075
106	0xb9ac1358	-0.0003282081
107	0xbdd9fe72	-0.10644235
108	0xbcc167b9	-0.02360903
109	0xbceaac0e	-0.028646495
110	0x3e49e23e	0.19715211
111	0x3b54dca8	0.0032480154
112	0xbdf2c6f7	-0.11854356
113	0x3e66a7c1	0.2252493
114	0x3ba50304	0.00503576
115	0xbd8ec540	-0.06971216
116	0xbe045014	-0.12921172
117	0xbd2fad23	-0.042889725
118	0xbd73c52b	-0.059514206
119	0x3ddd8896	0.10817067
120	0x3f0ba94a	0.5455519
121	0x3e8991a0	0.26868916
122	0xbd45911e	-0.048234098
123	0x3de07ce5	0.10961322
124	0xbd0fb00d	-0.035080004
125	0xbe9d99e9	-0.30781487
126	0xbdda6f88	-0.10665804
127	0xbbf008eb	-0.007325282
128	0xbf088536	-0.53328264
129	0xbf0f10e2	-0.55885136
130	0xbe30a705	-0.17251213
131	0x3e34c92e	0.17654869
132	0xbe1399be	-0.14414117
133	0x3db56bfd	0.08858488
134	0x3d38b9b0	0.04509896
135	0x3ead0118	0.33789897
136	0xbdfc57dd	-0.12321446
137	0x3c3a20f8	0.011360399
138	0x3e1c8f06	0.15288934
139	0x3c44ff2f	0.012023731
140	0xbd03a265	-0.032137293
141	0x3e19ba07	0.1501237
142	0xbf0c18e8	-0.54725504
143	0xbdf2191f	-0.11821198
144	0x3ca2f493	0.019892013
145	0x3caf9ef5	0.021438101
146	0xbddb17b2	-0.10697879
147	0x3e14482f	0.14480661
148	0x3daeefa8	0.085418046
149	0x3c3ecdb1	0.01164572
150	0xbeeb46f6	-0.45952576
151	0xbe58268a	-0.21108451
152	0xbddfcbb9	-0.10927529
153	0x3e66ebb6	0.22550854
154	0xbf6ebeb2	-0.9325973
155	0xbb92c9f0	-0.004479639
156	0x3ecf9f7e	0.4055137
157	0x3dd15080	0.10220432
158	0xbc1a9517	-0.00943496
159	0xbdd74859	-0.10511846
160	0x3d6c4c78	0.057690114
161	0x3cb42af1	0.021993132
162	0x3d03bad2	0.032160588
163	0xbe03caaf	-0.12870286
164	0xbeb79418	-0.35855174
165	0xbccf1a8d	-0.025281215
166	0xbee5809e	-0.4482469
167	0xbe6f1639	-0.23348321
168	0x3d1a8b23	0.037730347
169	0xbe2f1c09	-0.17100538
170	0xbe4a8f91	-0.19781329
171	0xbce32429	-0.027727203
172	0x3d09fddd	0.03368937
173	0x3df76757	0.120802574
174	0xbd80d169	-0.06289942
175	0xbe9f8adc	-0.3116063
176	0xbdc9f8f7	-0.098619394
177	0xbdd7d35f	-0.10538363
178	0x3d7aa258	0.06118998
179	0x3de66455	0.112496056
180	0x3de90834	0.11378518
181	0xbefbf5a1	-0.49210837
182	0x3bf48f1c	0.007463349
183	0xbe7bc513	-0.24586897
184	0xbdd0daa0	-0.101979494
185	0xbe2f5ac1	-0.17124464
186	0x3e8a52cb	0.2701629
187	0xbe69e8d4	-0.22842723
188	0xbe15ad68	-0.1461693
189	0xbc80f217	-0.015740437
190	0xbeb9326a	-0.36171275
191	0xbe21a2f0	-0.15784812
192	0x3df3b996	0.11900632
193	0xbf206a5b	-0.62662286
194	0xbe45236b	-0.19251792
195	0x3e072f3e	0.13201615
196	0xbe245e06	-0.16051492
197	0x3e031eff	0.12804793
198	0xbe7efb32	-0.24900511
199	0xbdca1217	-0.098667316
200	0x3d9dfc7e	0.07714175
201	0x3cdaf919	0.026730107
202	0x3e1e6a65	0.15470274
203	0x3d06bb59	0.032893512
204	0x3e8130bf	0.25232503
205	0x3e3d18da	0.18466511
206	0x3e04c39e	0.12965247
207	0xbe239f8c	-0.15978831
208	0x3dec2f35	0.115324415
209	0xbd9f5f5c	-0.0778186
210	0x3d2fe08f	0.042938765
211	0x3e276f9f	0.16351174
212	0x3cc5d588	0.024149671
213	0xbe7a451d	-0.24440427
214	0xbcafdef4	-0.021468617
215	0x3e85673f	0.26055333
216	0x3e8418a5	0.25800052
217	0xbda6d23d	-0.081455685
218	0xbeecf8ca	-0.4628356
219	0xbf0c9bcb	-0.5492522
220	0x3e589d70	0.21153808
221	0x3e0afa00	0.1357193
222	0x3e7883b7	0.24268995
223	0xbe9752d4	-0.2955538
224	0x3e86d32a	0.2633298
225	0xbdcc6a73	-0.09981241
226	0x3dd4d9d6	0.103931114
227	0xbd420ba7	-0.047374394
228	0xbec2b5c2	-0.38029295
229	0xbe4ed7b9	-0.20199479
230	0xbe139b9d	-0.1441483
231	0x3e09552f	0.13411401
232	0x3ea07bd0	0.3134446
233	0x3e821962	0.2540999
234	0xbd775db0	-0.06039208
235	0xbdd054a0	-0.10172391
236	0x3e5a6c69	0.21330418
237	0xbe80f2c2	-0.2518521
238	0x3e59ba8e	0.21262571
239	0x3e62b0ca	0.22137752
240	0x3cfad3ae	0.030618515
241	0xbdf4d45e	-0.11954568
242	0xbdcf5bf4	-0.101249605
243	0x3d1bf80d	0.038078357
244	0xbdbba30b	-0.09161957
245	0xbc15d4a0	-0.009144932
246	0x3e5a7cbc	0.21336645
247	0x3e8a5d6d	0.27024403
248	0x3e8f2b11	0.27962545
249	0x3e1ac2b8	0.15113342
250	0xbe5da163	-0.21643595
251	0xbd36c02a	-0.044616856
252	0xbebb2b47	-0.36556455
253	0x3ca82393	0.020524776
254	0xbdf369a8	-0.11885387
255	0x3a974bd3	0.0011542983

fc2.bias f4 [256]
0	0xbe3c86a7	-0.18410741
1	0x3ede1803	0.43377694
2	0xbe0dd1fd	-0.13849635
3	0x3ef8e941	0.4861546
4	0x3dd31920	0.103075266
5	0xbd3d3d49	-0.046201024
6	0x3d36d63a	0.044637896
7	0xbba8d462	-0.005152271
8	0x3de05ea6	0.10955553
9	0x3eaf2596	0.34208363
10	0x3dea48c6	0.11439662
11	0x3cdd1033	0.026985263
12	0xbeaf1e84	-0.3420297
13	0xbe24ef99	-0.16107024
14	0x3e419e20	0.18907976
15	0xbe8d6382	-0.2761498
16	0xbef0700e	-0.4696049
17	0x3d1cd6d3	0.03829081
18	0x3e31ebf6	0.17375168
19	0xbe336b4f	-0.17521404
20	0xbd221ae2	-0.03957642
21	0xbeb1b1b4	-0.3470589
22	0x3d11185d	0.035423625
23	0xbe95a2b3	-0.29225692
24	0xbcd8b043	-0.026451236
25	0xbc4b71dd	-0.012417284
26	0xbf0a9369	-0.5413118
27	0xbf8910d4	-1.070826
28	0xbe0d2900	-0.13785172
29	0x3e6fdd33	0.23424225
30	0x3db9b546	0.09067778
31	0xbb084d17	-0.0020797902
32	0x3e301c60	0.17198324
33	0xbd90af31	-0.07064665
34	0xbe1b34ac	-0.15156811
35	0x3e16df4c	0.14733618
36	0xbd88144a	-0.06644495
37	0xbe09597f	-0.13413046
38	0x3f1a3c2d	0.6024807
39	0x3e8da96d	0.27668324
40	0xbf10c90d	-0.5655678
41	0xbe8c3c99	-0.27389982
42	0x3ea33ed8	0.31883883
43	0x3c191dc9	0.00934548
44	0x3ea249b5	0.3169686
45	0xbddbeea8	-0.107388794
46	0x3ed5034a	0.41604072
47	0xbe27db7d	-0.16392322
48	0xbd726bae	-0.059184723
49	0x3d09092d	0.033456016
50	0x3e293343	0.16523461
51	0xbecaa814	-0.39581358
52	0x3dc8c0b7	0.098023824
53	0x3ea39eea	0.3195718
54	0x3cd9cb80	0.026586294
55	0x3db66eb2	0.08907832
56	0xbcadb809	-0.021205919
57	0x3cb13e1e	0.021636065
58	0xbee7c8ad	-0.4527029
59	0xbdc192cc	-0.094518274
60	0xbd7fff96	-0.062499605
61	0xbe41481f	-0.18875168
62	0x3e041d33	0.12901764
63	0x3de760c1	0.11297751
64	0xbe76e12a	-0.24109331
65	0xbe1e50d3	-0.1546052
66	0xbf1a2ff8	-0.60229445
67	0x3e81c4ce	0.25345463
68	0x3e78f321	0.24311496
69	0xbe497ad9	-0.19675769
70	0xbd6c4a03	-0.05768777
71	0xbe113e83	-0.14184003
72	0xbf26fd85	-0.6523059
73	0x3e50a2be	0.20374581
74	0xbd063049	-0.032760892
75	0x3d8d582e	0.069015846
76	0xbd439c69	-0.047756586
77	0x3e6ae276	0.2293795
78	0xbf214c13	-0.63006705
79	0x3e73f89e	0.23825309
80	0xbc8ef116	-0.017448943
81	0xbe8606f8	-0.26177192
82	0xbf4cd20e	-0.8000802
83	0xbf1301a9	-0.5742441
84	0xbcd02e2e	-0.025412645
85	0x3e301c55	0.17198308
86	0x3d864862	0.06556775
87	0xbe51f387	-0.20503055
88	0x3ddfdff9	0.10931391
89	0xbd971386	-0.07376771
90	0x3e5634d5	0.20918591
91	0x3e04cb1a	0.12968102
92	0x3dd9fcf3	0.10643949
93	0x3d92fca6	0.07177095
94	0xbe3780e1	-0.17920257
95	0xbe0a6f25	-0.13518961
96	0x3dabc473	0.08387079
97	0x3d900aa7	0.07033282
98	0x3f02c9c2	0.5108911
99	0x3c323ac3	0.010878268
100	0x3d87f56c	0.066386074
101	0xbd9b66d0	-0.07587969
102	0xbdebc35e	-0.11511873
103	0xbdf5a7cb	-0.119948946
104	0xbe772463	-0.24134974
105	0x3e04fc7c	0.1298694
106	0xbf23af90	-0.6393976
107	0x3d052328	0.03250423
108	0xbeccb7f0	-0.39984083
109	0xbdf507d1	-0.119643815
110	0x3d08f907	0.033440616
111	0xbeafea9e	-0.34358686
112	0xbe4ce894	-0.20010597
113	0x3eea1117	0.45716164
114	0xbf0c6f5d	-0.54857427
115	0x3decc59b	0.11561128
116	0xbe88d27b	-0.26723084
117	0x39d37f27	0.00040339792
118	0x3e193e45	0.1496516
119	0xbe1ec418	-0.15504491
120	0xbe1e0521	-0.15431644
121	0x3d52df45	0.051482458
122	0xbd913523	-0.07090213
123	0x3e84dd7e	0.25950235
124	0xbdc8e629	-0.098095246
125	0x3e07fe13	0.13280515
126	0x3e3be22b	0.18347995
127	0x3f0ce7a9	0.55040985
128	0xbd96e4ac	-0.073678344
129	0xbdba646b	-0.091011845
130	0xbdb09983	-0.0862303
131	0xbe759b83	-0.23985104
132	0x3cb89f3f	0.022536872
133	0xbe980e04	-0.29698193
134	0xbe870352	-0.2636972
135	0xbdeff6c4	-0.11716989
136	0xbe6727d1	-0.22573783
137	0xbe71bbdd	-0.2360682
138	0xbd1cc771	-0.03827614
139	0x3e8681e9	0.2627099
140	0x3e8bf7e2	0.27337557
141	0x3de7941b	0.11307546
142	0xbd96f152	-0.07370247
143	0xbd47feae	-0.048826866
144	0xbdaad666	-0.083416745
145	0x3d936c8c	0.07198438
146	0x3edc95b9	0.4308298
147	0x3e787667	0.24263917
148	0x3c84fb03	0.016232973
149	0xbe0229b5	-0.12711222
150	0xbde2f339	-0.11081547
151	0xbec6a12a	-0.38794833
152	0xbbfc5f8a	-0.007701819
153	0xbdd31f60	-0.10308719
154	0xbd583446	-0.052784227
155	0x3d86a8af	0.065751426
156	0xbda96c62	-0.082726255
157	0xbd152dc2	-0.03642059
158	0x3e395577	0.18099009
159	0xbe172d0f	-0.14763282
160	0xbe5140ac	-0.20434827
161	0x3d6afde3	0.05737103
162	0x3dc9a5f7	0.098461084
163	0x3e9e41da	0.30909616
164	0xbeaac314	-0.33351958
165	0xbd80fff5	-0.0629882
166	0xbea1e922	-0.3162318
167	0xbd009e62	-0.031401046
168	0x3f095753	0.5364887
169	0xbe46ccd7	-0.19414078
170	0xbf202e1e	-0.6257037
171	0x3e7e0b9e	0.24809119
172	0xbc7adcb7	-0.015311412
173	0xbd6513bb	-0.05592702
174	0x3ef39257	0.47572586
175	0xbd79afce	-0.060958676
176	0xbd8eb665	-0.06968383
177	0x3c8692f8	0.016427502
178	0xbf07185a	-0.5277153
179	0xbf023b2b	-0.50871533
180	0xbe664274	-0.22486287
181	0xbd84958b	-0.064738356
182	0x3e4b19b3	0.19834022
183	0xbd891ece	-0.06695329
184	0xbdaa270f	-0.08308231
185	0xbd10ba28	-0.035333782
186	0x3be104db	0.006867034
187	0x3d8d6566	0.06904106
188	0x3e819949	0.2531226
189	0xbf17d9f6	-0.59316957
190	0xbec584dd	-0.3857793
191	0xbe104ce9	-0.14091839
192	0x3f11aae3	0.5690138
193	0xbbaa701e	-0.0052013537
194	0xbf0dddfc	-0.55416846
195	0xbd89df34	-0.06732026
196	0xbe94b5ba	-0.29044896
197	0xbe217ce3	-0.15770297
198	0xbe90c8ef	-0.282783
199	0x3eb2559a	0.34830934
200	0xbe0226e3	-0.12710147
201	0xbeccbb41	-0.39986613
202	0xbbaebeec	-0.0053328183
203	0x3e05e429	0.13075317
204	0x3dac7beb	0.08422073
205	0xbea3d0b9	-0.3199518
206	0xbe144079	-0.1447772
207	0x3e29f7c3	0.1659842
208	0xbe781ef9	-0.24230565
209	0xbdb1d7e8	-0.08683759
210	0xbc01926f	-0.007908448
211	0xbf10d296	-0.5657133
212	0xbd896eea	-0.06710608
213	0xbceea1f8	-0.029129967
214	0x3e1de129	0.15417923
215	0xbe5d4f91	-0.21612383
216	0xbdb0b9d1	-0.08629192
217	0xbeb035fa	-0.3441618
218	0xbd957368	-0.072974026
219	0x3e7f365c	0.2492308
220	0xbda1599a	-0.07878418
221	0xbf268c98	-0.6505828
222	0x3db6ff6f	0.08935439
223	0xbeac89c2	-0.3369885
224	0x3e7718ea	0.24130598
225	0xbd21d63d	-0.039510954
226	0xbec11529	-0.37711456
227	0x3f280143	0.65626925
228	0x3ded0c49	0.11574609
229	0x3e928930	0.2862029
230	0xbf08a721	-0.5338002
231	0x3e13707f	0.14398383
232	0x3dcad1ef	0.09903323
233	0xbe24ef7b	-0.1610698
234	0x3e3f37e2	0.18673661
235	0xbf049707	-0.5179295
236	0xbe4a6e12	-0.19768551
237	0x3e26b810	0.16281152
238	0xbd93307a	-0.071869805
239	0xb909f6c8	-0.00013157271
240	0xbda2c11f	-0.07946991
241	0xbdd18d5c	-0.1023204
242	0xbe11eb0f	-0.14249824
243	0x3e6a969e	0.22909018
244	0xbd7e1002	-0.062026985
245	0x3df61568	0.12015802
246	0x3d118826	0.035530232
247	0x3e7e1345	0.24812038
248	0x3ddab23c	0.10678527
249	0xbe89e532	-0.26932675
250	0xbe959089	-0.29211834
251	0xbd8c3926	-0.06846838
252	0x3d9900dc	0.07470867
253	0xbe102f0b	-0.14080445
254	0xbf4d0888	-0.8009114
255	0x3e89030b	0.26760134

fc3.weight f4 [256, 256]
0	0xbe7160b7	-0.2357205
1	0x3d6f24e9	0.05838481
2	0x3e51dc03	0.20494084
3	0x3ce575f5	0.028010348
4	0x3ceb7db7	0.028746469
5	0xbe85976e	-0.26092094
6	0x3e890164	0.26758873
7	0x3e4cc3a3	0.19996504
8	0xbdfc2a28	-0.12312728
9	0xbcb7f66a	-0.022456367
10	0xbdf4715d	-0.11935685
11	0xbdf172a3	-0.11789443
12	0xbee6bd1c	-0.45066154
13	0xbdb0b98d	-0.08629141
14	0xbec236b1	-0.3793235
15	0x3d4064df	0.0469712
16	0x3e5b358a	0.21407142
17	0x3da99eaf	0.082822196
18	0x3d2e4750	0.042548478
19	0x3e5f2813	0.21792631
20	0x3cfb49ab	0.030674776
21	0xbe657941	-0.22409536
22	0xbd44fb88	-0.04809144
23	0xbe8e7c3e	-0.27829164
24	0xbe032b57	-0.12809502
25	0x3e7c02ea	0.24610487
26	0xbe22a325	-0.15882547
27	0xbd41b89c	-0.047295198
28	0x3d813514	0.06308952
29	0x3e47b08f	0.19500946
30	0x3e1629ee	0.14664432
31	0xbd4b59e5	-0.049646277
32	0xbea0a2ab	-0.31374106
33	0x3d159b37	0.036524978
34	0xbd588941	-0.05286527
35	0xbd90de7d	-0.07073686
36	0x3c277ec8	0.010223098
37	0xbe0529bb	-0.130042
38	0xbeb86406	-0.36013812
39	0xbe939053	-0.28821048
40	0xbdb38234	-0.08765069
41	0x3dcc7faf	0.09985291
42	0xbe098562	-0.13429788
43	0x3d6ac8f5	0.057320554
44	0xbebc2975	-0.3675038
45	0xbd46a216	-0.04849442
46	0x3dfb3429	0.12265808
47	0x3da737b1	0.08164919
48	0x3da40b4b	0.080099665
49	0xbd73a53e	-0.05948376
50	0xbf2cfc63	-0.6757261
51	0xbeb212b6	-0.347799
52	0x3e03c97f	0.12869833
53	0xbf22dc47	-0.63617367
54	0xbeb896bc	-0.360525
55	0x3df632fc	0.12021443
56	0x3dd09d12	0.10186209
57	0x3d0bc106	0.03411963
58	0xbd08d34e	-0.03340464
59	0x3c01cd7e	0.007922528
60	0xbca99842	-0.020702485
61	0x3d091337	0.03346559
62	0xbd9c0dc8	-0.07619816
63	0xbd65fb8a	-0.05614809
64	0xbe6e84fa	-0.23292914
65	0xbca862d5	-0.02055494
66	0xbe950ba6	-0.2911045
67	0xbe5d7e34	-0.21630174
68	0xbc9d43db	-0.019197395
69	0xbe97e8eb	-0.2966989
70	0x3c74ee05	0.014949326
71	0xbad42b86	-0.0016187287
72	0xbe63d545	-0.22249325
73	0xbe5542b4	-0.20826226
74	0xbe16cef2	-0.14727381
75	0xbd22a681	-0.03970957
76	0x3d7bd2a4	0.06148018
77	0xbea80ec0	-0.32823753
78	0x3e288b70	0.16459441
79	0xbeb088a1	-0.3447924
80	0xbdd44595	-0.10364834
81	0xbf1f5bb0	-0.6224928
82	0x3d1bfc94	0.038082674
83	0xbd9db769	-0.07700998
84	0xbe86f476	-0.26358384
85	0x3e6d77d1	0.23190238
86	0x3d19e70a	0.03757385
87	0x3b88a7c1	0.0041703884
88	0xbf32d97f	-0.6986312
89	0xbd81c72d	-0.06336818
90	0xbe7aab4d	-0.24479409
91	0xbea43c20	-0.32077122
92	0x3e579c1c	0.21055645
93	0xbebf2713	-0.373345
94	0xbec3d815	-0.38250795
95	0xbdedcc33	-0.116112135
96	0x3d6ed9b1	0.058313075
97	0x3e2ec137	0.17065893
98	0xbdd797a4	-0.1052697
99	0xbd10a82b	-0.035316627
100	0x3df34fd9	0.11880464
101	0x3cd04c52	0.025427017
102	0x3c4682cb	0.012116144
103	0x3d393938	0.045220584
104	0xbcf96c50	-0.030447155
105	0x3c683eb4	0.014175106
106	0xbea8ee6d	-0.32994404
107	0xbcef7873	-0.02923224
108	0xbc86b15a	-0.01644199
109	0xbd7b4655	-0.06134637
110	0xbe4a6642	-0.19765571
111	0x3da0e596	0.0785629
112	0xbe83ec16	-0.25766057
113	0x3e1577cd	0.14596482
114	0xbaf8961d	-0.0018965636
115	0xbf4dafcb	-0.80346364
116	0xbd8bfc1e	-0.06835197
117	0x3d94b9a0	0.07261968
118	0xbe929132	-0.286264
119	0xbe124da3	-0.14287429
120	0x3da1b7af	0.07896363
121	0xbde7449d	-0.11292384
122	0xbea434f6	-0.32071656
123	0xbe32841b	-0.17433207
124	0xbb9ff0ef	-0.0048810164
125	0xbf3ea674	-0.7447274
126	0xbd1d1031	-0.03834552
127	0x3d4b4e17	0.04963502
128	0x3d9d43c9	0.076789446
129	0x3d08cde4	0.033399478
130	0x3cd6a147	0.02619995
131	0x3e81127b	0.25209412
132	0x3e898887	0.26861975
133	0x3e6a7d43	0.22899346
134	0x3ea2c9ab	0.31794485
135	0xbef4ed69	-0.4783738
136	0x3daf0fb4	0.08547917
137	0xbe3451b4	-0.17609292
138	0x3d2d04df	0.042240974
139	0xbe056855	-0.13028081
140	0xbed6fdec	-0.41990602
141	0xbe2198b9	-0.15780915
142	0xbd1c57dc	-0.038169727
143	0xbe0ab859	-0.13546886
144	0x3e1c8cdd	0.1528811
145	0xbe59a82b	-0.21255557
146	0xbd81efbf	-0.06344556
147	0x3d8d1493	0.0688869
148	0x3d66ed98	0.05637893
149	0x3d06740d	0.03282552
150	0xbd7d30e4	-0.061814204
151	0xbd9d966d	-0.07694707
152	0xbcc20777	-0.0236852
153	0xbd7bc6f7	-0.061469045
154	0x3d038bf6	0.0321159
155	0xbeae25e6	-0.3401329
156	0xbd0c5578	-0.034261197
157	0xbe806088	-0.25073647
158	0xbe995fb1	-0.2995582
159	0x3e0d34cc	0.13789672
160	0xbca53d12	-0.020170722
161	0x3dd4f9fe	0.10399245
162	0x3d941f12	0.07232489
163	0xbda1409d	-0.07873652
164	0xbea4a20e	-0.32154888
165	0xbcb770da	-0.022392679
166	0x3d00e42b	0.031467598
167	0x3cd44049	0.02590956
168	0xbeb03ae0	-0.34419918
169	0xbd4d4ffd	-0.05012511
170	0xbdcc87b9	-0.099868245
171	0xbdbcebb3	-0.092246436
172	0x3d101988	0.0351806
173	0x3c91a4dc	0.017778806
174	0xbeaa9935	-0.33320013
175	0xbd0dc1ac	-0.034608528
176	0xbc69ff0b	-0.014281998
177	0xbe6c8159	-0.23096217
178	0xbed2385e	-0.4105863
179	0xbd237283	-0.03990413
180	0x3e200428	0.15626585
181	0x3bfc42d1	0.007698395
182	0xbd663da6	-0.056211136
183	0x3ca54187	0.020172847
184	0x3e8f8d42	0.2803746
185	0xbcf52979	-0.029927002
186	0xbebc89f8	-0.36824012
187	0xbe2d2224	-0.16907555
188	0xbeacbdb2	-0.33738476
189	0xbf051aab	-0.5199382
190	0xbe5c0c6e	-0.21489117
191	0xbc6192c6	-0.013767904
192	0xbe7d618e	-0.24744245
193	0xbcec2ae8	-0.028829053
194	0xbf21c3df	-0.631895
195	0xbc1520eb	-0.009102087
196	0xbd8eea2c	-0.069782585
197	0xbee91117	-0.4552085
198	0x3cacaebf	0.02107942
199	0xbe3a2720	-0.18178988
200	0xbd8dd7f4	-0.069259554
201	0xbec9bcc0	-0.39401817
202	0xbe9ef1b8	-0.31043792
203	0x3e238be9	0.1597134
204	0xbe406a31	-0.18790509
205	0x3e24f475	0.16108878
206	0xbd38d2da	-0.04512296
207	0x3deb141f	0.11478447
208	0xbedfc897	-0.43707725
209	0x3d43617f	0.0477004
210	0xbde4af55	-0.111662544
211	0xbec38a0e	-0.38191265
212	0x3d6246e4	0.055243388
213	0xbe0a8547	-0.13527404
214	0x3d97ebda	0.07418032
215	0xbd0aa164	-0.03384532
216	0x3d936328	0.07196647
217	0xbdbefa4e	-0.093250856
218	0x3b1783b3	0.002311927
219	0xbed8093b	-0.42194542
220	0xbd369811	-0.044578616
221	0xbd6a5768	-0.057212263
222	0x3ccef497	0.025263114
223	0xbe6f28d0	-0.23355412
224	0xbd9feba8	-0.0780862
225	0x3be79746	0.0070675937
226	0xbe693879	-0.22775449
227	0xbe5964c3	-0.21229844
228	0x3a8ccdee	0.0010742524
229	0x3e342a5f	0.17594288
230	0xbee1ca52	-0.4409967
231	0xbe85e31d	-0.26149836
232	0xbef7773c	-0.48333156
233	0x3c69da2e	0.0142732095
234	0xbe641d20	-0.22276735
235	0x3db64704	0.08900264
236	0xbe014116	-0.12622485
237	0xbe60afda	-0.21942082
238	0xbe2cedc8	-0.16887581
239	0x3c8a4194	0.016876973
240	0xbd2211aa	-0.039567627
241	0xbf0653f1	-0.52471834
242	0xbe8b5dc2	-0.2721997
243	0xbebf09a0	-0.3731203
244	0xbe8e42a4	-0.27785218
245	0xbea33a30	-0.3188033
246	0xbd960fa4	-0.07327202
247	0xbe0a934b	-0.1353275
248	0xbee9c3a6	-0.4565708
249	0x3e3bbe10	0.18334222
250	0xbd03a19e	-0.032136552
251	0x3d573581	0.05254126
252	0xbdd1874d	-0.10230885
253	0xbdb5645d	-0.088570334
254	0x3db648d4	0.089006096
255	0xbe41cac1	-0.18925

fc3.bias f4 [256]
0	0xbda49dbd	-0.08037899
1	0x3d1397c8	0.03603342
2	0xbd8aeb2f	-0.06783139
3	0xbdcf72bd	-0.101293065
4	0xbebeb422	-0.37246805
5	0x3e8e2dcb	0.27769312
6	0xbe353cf4	-0.17699033
7	0xbe57eb20	-0.21085787
8	0xbe2ea3ed	-0.1705472
9	0xbde09f9c	-0.10967943
10	0xbd89a9aa	-0.06721814
11	0xbe0c1038	-0.13678062
12	0xbc11fef6	-0.008910885
13	0x3e90ca66	0.28279418
14	0xbe0c31bf	-0.13690852
15	0xbe701575	-0.23445685
16	0x3be0d99f	0.00686188
17	0x3da71739	0.08158726
18	0xbe137f79	-0.14404096
19	0xbe63288f	-0.2218344
20	0xbe2d35e9	-0.16915096
21	0xbe2ec617	-0.17067753
22	0xbdb8cbdc	-0.09023258
23	0x3e2bb0f3	0.1676672
24	0xbdfdcd5b	-0.12392684
25	0xbe340aec	-0.17582291
26	0xbdcaa611	-0.09894956
27	0x3e3bf685	0.18355758
28	0xbec0e4ee	-0.3767466
29	0xbe8fac68	-0.28061223
30	0x3d9bb806	0.07603459
31	0xbf126b11	-0.5719462
32	0x3de8582a	0.11344941
33	0xbe1be4ed	-0.15224047
34	0x3db2a42f	0.08722722
35	0x3e73a8c7	0.23794852
36	0x3e552743	0.20815758
37	0xbe18bc0a	-0.14915481
38	0xbe0b8413	-0.13624601
39	0xbe5a28ae	-0.2130458
40	0x3da73378	0.08164114
41	0x3e79d329	0.24396957
42	0xbe4edfb6	-0.20202526
43	0xbd8d34e8	-0.06894857
44	0x3e1e727f	0.15473364
45	0x3df00a19	0.11720676
46	0x3d3ce771	0.046119157
47	0xbe8a7925	-0.2704555
48	0xbe1e0044	-0.15429789
49	0xbeb0a0bb	-0.34497628
50	0xbe6cc563	-0.23122172
51	0x3dc0d1cf	0.09415018
52	0xbda10057	-0.07861393
53	0xbf3d0b38	-0.73845243
54	0xbec10443	-0.37698564
55	0xbe9748fa	-0.29547864
56	0x3e3b7697	0.18306957
57	0xbe830427	-0.25589105
58	0xbdb20372	-0.086920634
59	0xbd99c78c	-0.07508764
60	0xbe061507	-0.13093959
61	0xbd87a976	-0.06624119
62	0xbe4044a7	-0.18776189
63	0x3bf0ef99	0.007352781
64	0x3e61f30b	0.2206537
65	0xbdea5d9c	-0.11443636
66	0x3e8a1226	0.2696697
67	0xbf011271	-0.50418764
68	0xbe7c7007	-0.2465211
69	0xbe37b5dd	-0.17940469
70	0x3e86949b	0.26285252
71	0xbdce51a2	-0.10074164
72	0xbd33cd4d	-0.043896962
73	0xbddc8ce9	-0.10769064
74	0xbe76b60a	-0.2409288
75	0xbe1a1f86	-0.15051088
76	0x3eda929a	0.42689973
77	0xbc0164c8	-0.007897563
78	0xbf013ff3	-0.50488204
79	0xbe0eb375	-0.13935645
80	0xbe8be947	-0.27326414
81	0x3e32b918	0.1745342
82	0x3e3de273	0.18543415
83	0xbe3008cc	-0.17190856
84	0xbd49e53e	-0.049290888
85	0xbd8aa7dd	-0.06770299
86	0xbc8b84cf	-0.017031102
87	0xbec4528a	-0.38344222
88	0x3ea21280	0.3165474
89	0x3e94f046	0.29089564
90	0x3e544169	0.20728077
91	0xbe2fdb6f	-0.17173551
92	0xbd56e39e	-0.052463166
93	0xbf12552d	-0.5716122
94	0xbe825968	-0.25458837
95	0x3e233483	0.15938
96	0x3da4e430	0.08051336
97	0xbe067d88	-0.13133824
98	0xbe32d980	-0.17465782
99	0xbe76c28f	-0.24097656
100	0xbe43e05d	-0.19128557
101	0x3dd85b93	0.105643414
102	0x3e601a62	0.21885064
103	0xbe1df2d7	-0.15424667
104	0xbdf7b2e0	-0.120946646
105	0xbdf0c6e6	-0.11756687
106	0xbe3116de	-0.1729388
107	0x3d508ba3	0.050914418
108	0xbe800379	-0.2500265
109	0x3dd19f79	0.10235495
110	0xbe0391e9	-0.12848629
111	0xbd65ea66	-0.056131743
112	0xbe1932ac	-0.14960736
113	0xbe94f96f	-0.29096553
114	0x3cf33617	0.029688878
115	0xbe52d625	-0.20589502
116	0xbce1b8b6	-0.027553897
117	0xbd8976e1	-0.067121275
118	0x3e89e657	0.26933548
119	0x3de363fa	0.111030534
120	0xbf15ca31	-0.58511645
121	0xbe5b4b1f	-0.21415375
122	0xbe1ecda0	-0.15508127
123	0xbd5245de	-0.05133616
124	0x3d09de75	0.033659417
125	0xbe981121	-0.29700568
126	0xbe917a0c	-0.28413427
127	0xbec28d5a	-0.37998468
128	0xbda4041c	-0.08008596
129	0xbe0ce9f4	-0.13761121
130	0xbe4f9ae7	-0.20273934
131	0xbe0ca318	-0.1373409
132	0xbe178898	-0.147982
133	0x3ecb065e	0.39653295
134	0x3ec7c4ff	0.39017484
135	0xbe5dc221	-0.21656086
136	0xbd9f677c	-0.0778341
137	0xbed13994	-0.4086424
138	0xbe09b816	-0.1344913
139	0x3e746d2b	0.2386977
140	0xbe51069e	-0.2041268
141	0xbefcc39c	-0.49367988
142	0xbe2375d4	-0.15962917
143	0x3da287aa	0.07936032
144	0xbe437be6	-0.19090232
145	0xbdf73d27	-0.12072211
146	0xbdda9491	-0.10672868
147	0xbe17a4b9	-0.1480893
148	0x3e9e4a21	0.3091593
149	0xbe325377	-0.17414652
150	0x3c891ff4	0.01673887
151	0x3e95264d	0.29130784
152	0xbe526357	-0.20545708
153	0xbda3a2ca	-0.07990034
154	0xbe607ccb	-0.21922605
155	0xbde2ff80	-0.11083889
156	0x3e8d7875	0.27630964
157	0xbdbef965	-0.09324912
158	0x3d268e56	0.040663086
159	0xbe961df4	-0.29319727
160	0xbdb1c99b	-0.08681031
161	0xbdc62d3f	-0.09676599
162	0xbdd322e2	-0.10309388
163	0xbeb78b1f	-0.35848328
164	0xbe981021	-0.29699805
165	0xbd35d044	-0.04438807
166	0x3eb9ab4d	0.36263505
167	0xbde401a5	-0.11133126
168	0x3e817d66	0.25290984
169	0xbe1b83d1	-0.15187003
170	0xbd7989b2	-0.060922332
171	0xbde55d12	-0.111993924
172	0xbeb0db2b	-0.34542212
173	0xbd3b2dba	-0.045697905
174	0xbe76c8ed	-0.24100085
175	0x3e3f9e7f	0.18712805
176	0x3da2010c	0.07910356
177	0xbf20da3c	-0.62833
178	0x3e08a718	0.13344991
179	0xbe786629	-0.24257721
180	0xbdab741e	-0.08371757
181	0xbe6efa43	-0.23337655
182	0xbd5bc8f7	-0.053658452
183	0xbe0b232e	-0.13587639
184	0x3e31d62a	0.17366853
185	0xbf49dbe0	-0.7885113
186	0xbea7f8d7	-0.32807037
187	0xbdf6a715	-0.12043587
188	0x3e5b664f	0.21425746
189	0xbdec3837	-0.1153416
190	0x3dbe891b	0.093034945
191	0x3ea04108	0.31299615
192	0xbe49e3ea	-0.19715849
193	0xbe3875fd	-0.18013759
194	0xbe753433	-0.23945694
195	0x3d96c438	0.073616445
196	0xbf342200	-0.7036438
197	0xbda9293c	-0.08259818
198	0xbe2d6c1b	-0.1693577
199	0x3e496ac1	0.1966963
200	0x3eb25364	0.34829247
201	0xbe3a3602	-0.18184665
202	0xbe1b1a2e	-0.15146706
203	0xbe9d137d	-0.3067893
204	0xbe78f3da	-0.24311772
205	0xbd98959d	-0.074504115
206	0xbe8ab8da	-0.27094156
207	0xbd9ef478	-0.077614725
208	0xbc667916	-0.014066955
209	0x3e92da3e	0.2868213
210	0xbcf39d02	-0.029737953
211	0xbef0ae9d	-0.4700822
212	0x3e883908	0.2660601
213	0xbe18a822	-0.14907888
214	0x3e19c66d	0.150171
215	0xbdf3bbf5	-0.11901084
216	0x3d88b467	0.06675034
217	0xbe99456c	-0.29935777
218	0xbdf4cc85	-0.119530715
219	0xbef64d4d	-0.4810585
220	0xbdef7ad4	-0.116933495
221	0xbe265b73	-0.16245823
222	0x3de1f5f5	0.11033241
223	0xbc1dfba2	-0.0096425135
224	0xbded5ec3	-0.1159034
225	0xbf0d4cc9	-0.5519529
226	0xbde03004	-0.10946658
227	0x3d626929	0.05527607
228	0xbe9e455c	-0.30912292
229	0xbcbebd1b	-0.023283532
230	0xbdeb7fc7	-0.11498981
231	0xbddc4741	-0.10755778
232	0x3d789396	0.060687624
233	0x3dbd4c4d	0.09243069
234	0xbdca985b	-0.09892341
235	0x3e56551e	0.20930907
236	0xbe94272a	-0.2893613
237	0xbdb6af31	-0.08920134
238	0xbecff744	-0.40618336
239	0xbf0fad53	-0.56123847
240	0xbe1f72c2	-0.1557112
241	0xbebf56ae	-0.3737082
242	0x3d2c0685	0.041998405
243	0xbe55b754	-0.20870715
244	0xbe3c27f6	-0.18374619
245	0x3e9c780a	0.30560333
246	0xbf24b6e2	-0.6434156
247	0xbea2b6a3	-0.31779966
248	0x3de2650c	0.110544294
249	0xbcfdda9f	-0.030988036
250	0xbe0a1147	-0.13483153
251	0xbd9bdb9e	-0.07610248
252	0xbe1d160c	-0.15340441
253	0xbde4fe49	-0.111813135
254	0xbe005902	-0.12533954
255	0x3dd53d57	0.1041209

action_out.weight f4 [4, 256]
0	0x3c0af29d	0.008480695
1	0xbd0da428	-0.03458038
2	0xbc4a10da	-0.012333119
3	0x3cdf9c22	0.02729613
4	0x3d2c3c94	0.04204996
5	0xbd109930	-0.03530234
6	0xbc19ec13	-0.009394663
7	0x3d2b9f28	0.04189983
8	0x3dbc3c15	0.09191147
9	0xbc2eab48	-0.010660954
10	0xbd870993	-0.06593623
11	0x3d8ee092	0.06976427
12	0x3d5694fc	0.052388176
13	0x3c80fa85	0.015744457
14	0x3d2eb279	0.042650674
15	0x3cac6ddf	0.021048484
16	0x3c0e8ced	0.0087005915
17	0x3cdab361	0.026696863
18	0x3b1e74b7	0.0024178454
19	0xbd2f9bc7	-0.04287317
20	0xbbad9896	-0.0052977307
21	0x3d1a428f	0.03766113
22	0xbd424e0a	-0.047437705
23	0xbbcd782a	-0.006270428
24	0xbc4f3566	-0.0126470085
25	0x3b96665f	0.0045898403
26	0x3c9c1fd5	0.019058147
27	0x3cccd119	0.02500205
28	0xbd0a4609	-0.033758197
29	0xbca67b43	-0.020322448
30	0xbccbcf34	-0.024879076
31	0xbcfc79d8	-0.030819818
32	0xbca2f663	-0.019892877
33	0xbd00df19	-0.031462763
34	0xbd5386de	-0.05164229
35	0xbc7210ec	-0.014774542
36	0x3b712bb2	0.0036799726
37	0x3cbd2b7c	0.023092024
38	0xbb6db718	-0.0036272462
39	0x3bfcd726	0.0077160774
40	0x3c0c913a	0.008579547
41	0x3d8e84ed	0.06958947
42	0x3c9df83d	0.019283408
43	0xbc887796	-0.016658586
44	0x3c4b6a24	0.012415443
45	0x3c449e86	0.012000686
46	0x3d29613e	0.041352503
47	0xbaf2c892	-0.0018522909
48	0xbcc834df	-0.024439273
49	0x3c97d100	0.018532276
50	0xbdbaa583	-0.091136
51	0xbbc79989	-0.006091301
52	0xbd5dcd2d	-0.05415075
53	0x3d27ab85	0.04093506
54	0x3d85154f	0.06498205
55	0x3d2495a9	0.04018179
56	0x38ac4fda	8.2164726e-05
57	0xbd755edd	-0.05990492
58	0xbb18423c	-0.0023232838
59	0xbdaa24b1	-0.083077796
60	0xbd8125b4	-0.063060194
61	0x3d78daf9	0.060755704
62	0x3c49ee62	0.012324901
63	0x3c52b912	0.012861507
64	0x3c7aa8ae	0.015299005
65	0xbd46b81c	-0.048515424
66	0x3c9fef0c	0.019523166
67	0xbc284aa3	-0.010271701
68	0xbd57ceba	-0.052687384
69	0x3d771c83	0.060329925
70	0x3bda0580	0.0066534877
71	0x3c0f28f8	0.008737795
72	0xbc3a61e4	-0.011375878
73	0xbc9ae4c0	-0.018907905
74	0x3ca4fa15	0.02013878
75	0x3d834443	0.06409504
76	0xbd201dbc	-0.039090857
77	0x3d9b9f7d	0.07598779
78	0x3d040e89	0.032240424
79	0xbd3106b8	-0.043219298
80	0xbd53ceaf	-0.05171078
81	0x3b4b9802	0.0031065946
82	0xbcc94e23	-0.024573391
83	0x3c76d1f0	0.015064701
84	0xbcbaf18a	-0.022820253
85	0xb9f08322	-0.0004587407
86	0x3c6bdde0	0.014396161
87	0xbd4643b4	-0.04840441
88	0xbd23e946	-0.04001739
89	0x3c95790e	0.0182462
90	0xba97582a	-0.0011546661
91	0xbcaf6c19	-0.02141385
92	0x3b4cea6a	0.0031267651
93	0xbd28f322	-0.041247495
94	0x3cea79b0	0.028622478
95	0xbc054b84	-0.00813568
96	0x3cc0e775	0.023547867
97	0x3c72ad70	0.014811859
98	0x3d5b091e	0.05347549
99	0xbd60e812	-0.05490882
100	0x3c9c9b4a	0.019117016
101	0xbc0f47fb	-0.008745189
102	0xbc35becf	-0.011092856
103	0x3d03c053	0.032165837
104	0xbc979657	-0.018504305
105	0xbd23fe85	-0.04003765
106	0xbbf0c40c	-0.0073475894
107	0xbc8cfb04	-0.017209537
108	0x3c12f144	0.008968655
109	0x3d024448	0.0318034
110	0x3d34a23e	0.04410004
111	0xbd247f21	-0.040160302
112	0xbda4c384	-0.08045104
113	0x3c8b2473	0.016985154
114	0xbaa906b7	-0.0012895678
115	0xbd0cc0de	-0.03436362
116	0xbcd2ca72	-0.0257313
117	0x3b1c1a8a	0.002381953
118	0x3c4ff89f	0.012693553
119	0xbca232ba	-0.019799579
120	0x3c929014	0.017890967
121	0x3d03b6fb	0.032156926
122	0xbb79b25f	-0.0038100702
123	0x3d3ba662	0.045812972
124	0x3d802ed7	0.06258934
125	0x3cf13297	0.029443068
126	0xbc975571	-0.018473359
127	0x3bf6f0e6	0.0075360416
128	0xbc7c47ff	-0.015398025
129	0x3d80d9a8	0.06291515
130	0xbbac2fa2	-0.0052547017
131	0x3d8b6644	0.06806615
132	0x3c7ac27a	0.015305156
133	0x3ad8e4f2	0.0016547723
134	0x3db064e6	0.08612995
135	0x3bcff0d8	0.0063458495
136	0xbd56362a	-0.05229775
137	0x3da9db16	0.082937405
138	0xbc669767	-0.014074183
139	0xbc2e832c	-0.010651391
140	0x3c839214	0.016060866
141	0x3be9efab	0.0071391664
142	0xbb68db65	-0.003553116
143	0xbd204fba	-0.039138533
144	0xbce98d85	-0.028509865
145	0x3ba38392	0.0049900496
146	0x3d1b3d8d	0.037900496
147	0xbae33c81	-0.0017336757
148	0xbd9a1fd8	-0.07525605
149	0xbcf2002f	-0.029541103
150	0x3c5dceb4	0.013538051
151	0xbcf246f0	-0.029574841
152	0x3cab2851	0.020893248
153	0xbcf7ed1d	-0.030264432
154	0x3c1cef25	0.009578501
155	0x3d20e1df	0.039277907
156	0xbc2a037b	-0.010376806
157	0x3c83d935	0.016094783
158	0x3d29f096	0.041489206
159	0x3ccbf8ee	0.024898972
160	0x3ca2db8b	0.019880077
161	0xbd55c172	-0.052186437
162	0x3d34bc27	0.04412475
163	0xbc9d7ff0	-0.019226044
164	0x3bf61e5f	0.0075109447
165	0xbd95f618	-0.07322329
166	0x3d22acc8	0.03971556
167	0xbce8791e	-0.028378066
168	0xbb7f59f7	-0.0038963535
169	0xbae644e6	-0.0017568141
170	0xbca56abb	-0.020192495
171	0xbcdb0f19	-0.026740598
172	0x3d77210c	0.06033425
173	0xbda8f859	-0.082504936
174	0xbbc76bce	-0.0060858494
175	0xbabfffa4	-0.001464833
176	0x3c4ed03b	0.012622888
177	0x3a6b76ec	0.00089822593
178	0xbc811015	-0.015754739
179	0xbd05902d	-0.0326082
180	0xbd968260	-0.07349086
181	0x3b6c514e	0.0036059204
182	0xbb6125e9	-0.0034354872
183	0xbca2922b	-0.019845089
184	0xbc39d20d	-0.011341584
185	0xba3e8c9c	-0.0007268877
186	0x3c7e8ce7	0.015536523
187	0xbd31cfc9	-0.04341105
188	0x3b3576d1	0.0027689228
189	0x3d821fe7	0.06353741
190	0xbbdec7e8	-0.006798733
191	0xbc2dd319	-0.010609412
192	0x3d8504a3	0.06495025
193	0xbcf8c429	-0.030366974
194	0xbd406013	-0.046966624
195	0xbd088e09	-0.03333858
196	0x3cf05eb9	0.029342042
197	0xbcc2ea94	-0.023793496
198	0xbc0b46d7	-0.008500776
199	0xbbcaeb96	-0.006192635
200	0x3b08adc5	0.0020855528
201	0xbb7b4840	-0.0038342625
202	0xbc4f47b0	-0.012651369
203	0xbd21baff	-0.039484974
204	0x3d597e25	0.053098816
205	0x394b2fcf	0.00019377399
206	0xbb98d72d	-0.004664323
207	0xbc0dc56d	-0.008653027
208	0x3c0380f1	0.0080263475
209	0x3b987332	0.004652404
210	0x3cff2c4c	0.031149052
211	0xbd391720	-0.04518807
212	0xbd158531	-0.036503974
213	0xbd4689ed	-0.04847138
214	0xbbffb64a	-0.007803713
215	0xbca993e1	-0.020700397
216	0xbba55b6c	-0.0050462987
217	0x3c0fb5ad	0.008771342
218	0x3c8df2a6	0.017327618
219	0x39ef3dc6	0.00045631657
220	0xbd166154	-0.036713913
221	0xbcb27ac8	-0.021787062
222	0x3c8858e8	0.016643956
223	0xbc396da6	-0.011317646
224	0x3d3cb253	0.0460685
225	0xbd16c4be	-0.03680872
226	0xbd495cea	-0.049160875
227	0x3bdc3e6a	0.0067213075
228	0xbd3f98b1	-0.046776477
229	0x3c9d1a63	0.019177621
230	0x3d18095b	0.037118297
231	0x3da53f70	0.0806874
232	0xbd23a4bb	-0.03995202
233	0xbd2a9517	-0.04164609
234	0x3d2996e9	0.041403685
235	0xbdce64c7	-0.100778155
236	0x3c8f0de2	0.017462675
237	0xba6a397c	-0.00089349574
238	0x3bc794e1	0.006090746
239	0xbd4808ec	-0.048836634
240	0x3d4ab59e	0.04948961
241	0x39e6a30a	0.00043990492
242	0xbc938d9b	-0.018011859
243	0x3d58b82b	0.05291001
244	0xbc02ee6c	-0.0079914145
245	0xbace1e9a	-0.0015725673
246	0x3c09fa80	0.00842154
247	0xbd18ce23	-0.037305962
248	0x3c748b9a	0.014925862
249	0xbca31e3c	-0.019911878
250	0xbd5248e8	-0.05133906
251	0xbce423aa	-0.027849037
252	0x3c94dce2	0.018171731
253	0xbc7fd633	-0.015615034
254	0x3b9f0ab1	0.0048535694
255	0xbbb074b6	-0.005385007

action_out.bias f4 [4]
0	0x3d0facc7	0.035076883
1	0xbd138b51	-0.036021534
2	0xbc856201	-0.016282083
3	0x3cff856c	0.03119155
